test/database_onnx/13TeV/ATLAS/ATLAS-SUSY-2019-08-eff/model.onnx (onnx, 14106 bytes, 5 tensors)

StatefulPartitionedCall/sequential_2/dense_9/MatMul/ReadVariableOp:0 f4 [9, 252]
00000000: 3be8 36bf 1a00 c63e 59f6 2ebd dd8e 343e
00000010: 18fd 513e b109 dfbe fef5 cebe 8c28 06bf
00000020: fafe 74be d0bf 563e 134b 19be 42b6 7f3d
00000030: 2a17 8e3e 86cf 74bf 248e 633e 4736 2f3f
00000040: 9379 7abc 5030 9f3d 8cc4 b0be 2e0d 0c3f
00000050: cb1a 51be f477 4637 c016 3c3d a520 44be
00000060: 3ae3 70be 5d30 393e e00a 55bf cd16 963e
00000070: fc7a f23e 43ec b43e d2c0 53bd 699b 10bf
00000080: 20cf 963d fbab adbe cd43 64be 5aab 053f
00000090: 20b8 3cbf cbea 0cbf b9ab 39be 477c ff3c
000000a0: 95c5 31be 9ab9 1d3e 8246 1b3e 2c99 1dc0
000000b0: 2218 d63e 4dfa 833e 017e 20bf aece 1d3f
000000c0: ac61 103f 9f3e eabe ce91 e43e 3166 a1be
000000d0: dd60 ff3e db31 b93e 17fb 5f3e a97a eebe
000000e0: 4487 02be 91ef 02be 4b92 de3d c8b9 02bf
000000f0: db24 ecbe f3ac dd3e d048 20be 24df 3f3e
00000100: ef4c 8a3e ba01 773c 2965 c03e 08e1 c33d
00000110: a973 0cbf f2af 443f 0b5a 423f 0a6e a4be
00000120: dcf1 44bf 2c9f e13e a7fc f1be 2c9f 693f
00000130: c887 2cbe dd8c 09bf 5dab 093e 70b8 2dbf
00000140: 4465 bc3d f3cb 2b3f bd72 01be e3d5 9ebf
00000150: 904c 4c3f 79c7 8f3e a07b 9cbe f94f 86bf
00000160: bca1 2b3d e6a7 0c3f a01e 6c3c 8981 c2bd
00000170: 5a81 85be 8496 903f 4c3c 54be d7ce 553f
00000180: d22c 27bf 81c4 9b3d de35 80be 9964 f13e
00000190: e38e c4be 495f 57bf 8cb4 94be 9e58 013e
000001a0: c753 253f c75e 14bf 2a49 e1bd 92cd a2be
000001b0: a7dc 753c 9014 d8bd 8b0b adbf f77f 263f
000001c0: c452 883e 6d97 adbd afed aebe 10dc 203d
000001d0: 7405 91be db7d 143e 1070 ae3e 62e7 7ebf
000001e0: 5ed9 643e de59 dd39 62df 2ebd 1f74 8e3e
000001f0: e710 5cbf 06c1 97bf fc0a b0bc 133b dd3d
00000200: 9cf1 e23c c8d3 83bf a119 aebc ec59 16bf
00000210: 3b2d 2c3c 6d15 f7be 346c 88be c779 4bbe
00000220: 15b9 3b3f cd3c a33e 4fd3 c4be 2327 f4be
00000230: 6218 083f 6a82 cdbe 77b5 aebe aef6 28bf
00000240: 37da 95be 7793 9c3e 237a c8bb 9f78 793e
00000250: 13b9 eabe 033c 653e 7272 f2be eb44 5b3e
00000260: 2b89 00bf 6d19 01bf 9f65 3bbe 6320 debc
00000270: 41a8 89bc 2410 50be 82b1 e03e 39d8 d23d
00000280: 361c 45bf 9f6f 0abe c42e fd3b 9e2f c43e
00000290: 80c9 0fbf a024 bbbd 2f0a 6b3f 9746 2e3f
000002a0: 101a 3cbf 2e11 57be 83d9 a63e 117b 08be
000002b0: 2f80 b13e 25a2 4cbf 5d88 37bf 7701 9c3d
000002c0: 1fdc d73e 2d7b d33e ca07 233e 6626 cb3e
000002d0: 6ba8 f23e 4ca3 a2bc 6ebf 38be f9c1 2fbf
000002e0: 2239 443e f35e e1be 99e7 1d3f fcb0 df3e
000002f0: 031d 2ebf b024 aa38 9ef1 ab3e dd7a 4ebf
00000300: fd77 0ebe 2ee9 5fbe 693d 2cbe cb1b 043d
00000310: 8d50 d5b9 cb3c e6be 2fa1 2f3e 3d94 89be
00000320: ded7 43be feaf f33e 9245 da3e 46c7 153f
00000330: 976d 5abe 5196 763e f244 8cbe 4fb4 45be
00000340: d80f 573d 59e8 78be bcb3 cd3e 267f 3cbf
00000350: 942b 0bbd ced8 0d3e d711 793b 4d33 5c3e
00000360: 823c 8fbd 4f11 a1ba be05 813c 7411 03be
00000370: b617 0dbe 916e acbe d589 4c3e b0f3 013e
00000380: bff8 29be 5e8e 643e 83ef 39be ddb3 613e
00000390: 283e f43d 086b c43e 89a8 84bf 14df 4c3f
000003a0: 05b4 eb3e a676 3ebe de90 f03d 0ce0 0c3f
000003b0: 2b11 473e a981 fcbe d4ab 4bbe 9756 193e
000003c0: 9092 0e3d 0e74 193d d93f a9be e078 1a3f
000003d0: 8362 bcbe 3cea 74be b707 92be 8bff 39be
000003e0: 3ebf e13e f5d8 bbbe 58ad dfbe 1ab6 76bc
000003f0: e612 6d3f 173e cdbe ec20 403f 06be 7fbe
-0.71448106 0.38671952 -0.042715404 0.17632623 0.20506704 -0.4356208 -0.40422052 -0.5240562
-0.23925391 0.20971608 -0.14970045 0.062429674 0.27752048 -0.95629156 0.22222191 0.68442196
-0.015287775 0.07772887 -0.34524953 0.5470761 -0.20420377 1.1829648e-05 0.045920134 -0.19153078
-0.2352418 0.18084855 -0.8321972 0.2931427 0.47359455 0.35336503 -0.05169756 -0.5648714
0.07363725 -0.33920273 -0.22291489 0.52214587 -0.7371845 -0.55045766 -0.18131913 0.03118719
-0.17360528 0.15402833 0.15163615 -2.4624739 0.41815287 0.25776902 -0.62692267 0.61643493
0.56399035 -0.457509 0.4464249 -0.31523278 0.49878588 0.3617085 0.21873127 -0.46577957
-0.12746912 -0.127867 0.10867747 -0.5106473 -0.46121868 0.43296012 -0.15652776 0.18737465
0.2701182 0.015076095 0.3757718 0.09564406 -0.54863983 0.7683097 0.75918645 -0.32115203
-0.7693155 0.4406675 -0.4726307 0.912585 -0.16848671 -0.53730565 0.13444276 -0.67859554
0.091990024 0.67108077 -0.12641425 -1.2409023 0.79804325 0.28081873 -0.30563068 -1.0493156
0.04190229 0.5494369 0.014411598 -0.09497363 -0.2607525 1.1295934 -0.20726126 0.8351874
-0.65302765 0.076058395 -0.25041097 0.47147062 -0.38390264 -0.8412977 -0.29043996 0.12631461
0.6458096 -0.5795712 -0.11000283 -0.31797463 0.015006221 -0.10550797 -1.3519148 0.6503901
0.26625645 -0.08476148 -0.34165713 0.039272368 -0.28324473 0.14501135 0.34069872 -0.9957181
0.22348544 0.0004221936 -0.042693503 0.27822968 -0.8596329 -1.1855781 -0.021489613 0.10802283
0.027703099 -1.0299006 -0.021252455 -0.5873096 0.010508831 -0.48258534 -0.26645052 -0.19870673
0.7332929 0.31882325 -0.38442466 -0.4768611 0.53162205 -0.4013856 -0.34122822 -0.66001403
-0.29268047 0.30581257 -0.0061180755 0.2436242 -0.45844325 0.22386174 -0.4735294 0.21413009
-0.502093 -0.5042942 -0.18300484 -0.027115053 -0.016803863 -0.20318657 0.43885428 0.102951474
-0.7699617 -0.13519143 0.007726522 0.3831758 -0.5616684 -0.09137845 0.91812414 0.6807646
-0.7347727 -0.21002647 0.32587823 -0.13328196 0.3466811 -0.7993491 -0.7169245 0.07617467
0.42160127 0.41304913 0.1592094 0.39677733 0.47394118 -0.019853257 -0.18041775 -0.68655354
0.1916242 -0.44017753 0.61681515 0.43689716 -0.6801302 8.113065e-05 0.33582777 -0.80656224
-0.1391296 -0.21866295 -0.16820301 0.032253068 -0.0004068654 -0.44968256 0.1715133 -0.2687091
-0.19125316 0.4759521 0.42631203 0.5850719 -0.21330868 0.24080779 -0.2739635 -0.19307064
0.052505344 -0.24307384 0.4017619 -0.73631513 -0.033977106 0.13852236 0.0038005018 0.21503945
-0.06993963 -0.0012288484 0.015749808 -0.12799627 -0.13778576 -0.33678105 0.19974454 0.12690616
-0.16598795 0.22319934 -0.18157773 0.22041269 0.11925918 0.38362908 -1.0363933 0.8002789
0.46035782 -0.18599948 0.11746381 0.5502937 0.19440143 -0.49317673 -0.19889766 0.14974438
0.03480774 0.037464194 -0.33056524 0.6034069 -0.36793908 -0.23917478 -0.2852151 -0.18163888
0.4409122 -0.36688963 -0.43686938 -0.015058065 0.9260696 -0.40086433 0.75050235 -0.24974832

StatefulPartitionedCall/sequential_2/dense_9/BiasAdd/ReadVariableOp:0 f4 [252]
00000000: c4f5 ee3f 4130 4740 f186 2040 13bc d73f
00000010: 4751 3abf 67da 1940 63d7 4640 6c5a 463e
00000020: c614 d3bd 3041 9ebf 4c54 91bf 6a46 2440
00000030: 0358 923f 339c 8bbf 9101 853f 9791 f33f
00000040: e7d3 b63f 9ae8 d6bf 04ae 22bf a576 993f
00000050: 92cd b03f e7c3 95bb d057 b4bf fb31 45bf
00000060: 785f 0440 974b 57bf 87f9 4a3f 8ee6 bc3f
00000070: 83a0 bb3f c337 ec3f 7df7 b83f f355 2940
00000080: f988 bd3f e6ac 8f3f 354e 3140 05d8 683f
00000090: b519 c33f e8f1 ccbe 2692 4240 e701 0b40
000000a0: 7099 2640 6711 2040 d840 26c0 1faf d63e
000000b0: f54c a13f 228f 5abf 7fde d53f dd86 dcbf
000000c0: c763 9a3f 075f 0140 ee55 1b40 c496 6cbf
000000d0: a3b0 0740 dba0 7abf b6d0 ab3f 134c 8ebf
000000e0: 72cc d73f 6e6b 853f 829e 943f 7e7b 0ac0
000000f0: 4ab3 b0bf 8e91 d63f 0e98 2040 5441 2140
00000100: a491 3240 4f82 953f ada6 813f 3928 9f3f
00000110: 0507 1840 63e5 ab3f 4328 a23f 2100 8bbf
00000120: c908 f2be 0714 913f 137b febe 1fe2 ffbf
00000130: 8d52 7bbe 65b4 b1bf 3bf4 d43f 1b0d f1be
00000140: f025 4140 b5ff 95bf 668d babf 06bf aa3f
00000150: 80fd b53f d1e9 23bf 66ee c43f f839 a8bf
00000160: d2c7 47bf 0620 fb3f 9b21 1440 c2b3 c03f
00000170: 2708 0f40 7d4c db3f e35e 68bf 08b9 a9bf
00000180: 09f8 b13f 44de c93f c377 3ebf fadf b73f
00000190: fcd1 eb3f d9e3 f53f a5a0 023f f591 8ebf
000001a0: 7086 da3f 9515 c2bf 0beb 4c40 4e5d 8dbf
000001b0: 7f67 ca3d 0e65 52bf 65dd f03f c1dc cabf
000001c0: 8322 843f 1b4c 9a3f 8dc2 aa3f 35ec 38bf
000001d0: 57a1 0340 9c84 9cbf 13e2 a0be 5c3e 89bf
000001e0: c343 0b40 ab47 1240 b2de d13f 0bed a03f
000001f0: 1d82 e9bf 7535 83bf 2ace a63f 32dd 9dbf
00000200: 8a13 c33f 771d cfbf 63f9 2540 ac3f 4e3d
00000210: 8706 9bbf 4c23 1040 e909 af3f 6cf8 2440
00000220: c100 92bf b1ab 353f 8501 b53f cc5c 17bf
00000230: 3ad8 903f 33cc 973f 9bcd d9bf 656d a1bf
00000240: 0cd5 cc3f 761d 0640 e413 be3f e132 c2bd
00000250: 92f8 95bf 74f4 9d3f 2364 3640 efb7 b7bf
00000260: d1a4 923f 90d6 cd3f 8972 7f3f 1e82 aa3f
00000270: e84d 06c0 eabd 0940 1afc cc3f e692 2e40
00000280: a656 cf3f f55c 9b3f c992 bb3f b548 2240
00000290: a5f6 1240 41bf 9bbf 268d 73bf b50a 243f
000002a0: 80ae b73e 428c 693d 718a 89bf 0db3 1b40
000002b0: e74b 2240 ac36 a33f de03 f03f 190d d73f
000002c0: c5ab 2140 7861 76bf 5f51 2840 23ec fa3f
000002d0: 2cf5 2040 9df9 abbf 6170 b03f eb15 3c3f
000002e0: 0c32 e33f b633 c53f fab6 a7be 9d58 1740
000002f0: d5a4 8d3f 668a f43f d7a6 32bf cb5d c73f
00000300: 45fd 1740 361b a7bf c4bc 01bf fc7c 30bf
00000310: 1592 27bb b6ec 543f e2c8 3240 be95 ebbe
00000320: 3237 a3bf 89e1 cc3f 955f 803f bef3 5ebf
00000330: f20a 2640 293b b93f cc15 d53f 574b bd3f
00000340: 4adb eb3f 6e16 bd3f 2501 8d3f 55d4 8f3f
00000350: 0db3 1f3d af06 1a40 2a1e 42bf 50c4 0b3e
00000360: 452a c6bf ba3b 11bb 8fef 9c3f 5f81 0240
00000370: f6f1 9a3f c452 d5bf 1ecc 85bf 71a5 b03f
00000380: 04bc 4dbf b7af 02bf cfe1 d13f 68b7 8e3f
00000390: 95bd 57bf 1ef3 673f f268 c5bf d868 8bbf
000003a0: e2e9 493c dcb5 97bf 508b a63f a801 84bf
000003b0: 4e23 213f 1a58 a9bf 3636 1f40 fd33 e1bf
000003c0: 7ef3 c93f f402 30bf 3fa5 603f d41d 00c0
000003d0: ed42 1140 04eb 93bf c46e bdbf e5bb 48bf
000003e0: 2acc 493f 4a31 76bf e6b1 77be 519e 873f
1.8668752 3.1123202 2.5082362 1.6854271 -0.7278027 2.4039552 3.1068962 0.1937043
-0.103066966 -1.2363644 -1.135385 2.5667977 1.1433109 -1.0907043 1.0391103 1.9028805
1.4283417 -1.6789734 -0.63546777 1.1989332 1.3812735 -0.0045704725 -1.4089298 -0.7702939
2.068327 -0.84099716 0.79287 1.475786 1.4658359 1.8454517 1.4450527 2.645871
1.4807426 1.122464 2.7703984 0.9095462 1.524222 -0.4002831 3.0401702 2.171991
2.603115 2.5010622 -2.5977077 0.41930482 1.260161 -0.85374653 1.6708525 -1.7228657
1.20617 2.021425 2.4271197 -0.9241755 2.120156 -0.97901696 1.3423069 -1.1116966
1.6859267 1.042341 1.1610873 -2.1637874 -1.3804715 1.676317 2.5092807 2.5196123
2.7901392 1.1680392 1.012899 1.243415 2.3754284 1.3429378 1.2668537 -1.0859414
-0.47272328 1.1334237 -0.49703273 -1.9990882 -0.2454321 -1.3883177 1.6637033 -0.4708031
3.0179405 -1.171866 -1.4574401 1.3339546 1.4217987 -0.6402865 1.5385253 -1.3142691
-0.78039277 1.9619148 2.314551 1.5054858 2.2348726 1.7132717 -0.90769786 -1.3259592
1.3903819 1.5770955 -0.7440149 1.4365227 1.8423457 1.9210159 0.51026374 -1.1138293
1.7072277 -1.5162836 3.201846 -1.1044099 0.098830216 -0.8218545 1.8817564 -1.5848619
1.0323032 1.2054476 1.3340622 -0.72235423 2.0567224 -1.2227969 -0.3142248 -1.0722156
2.1760108 2.2856243 1.6396086 1.257234 -1.8242832 -1.0250689 1.3031666 -1.2333128
1.5240338 -1.6180867 2.5933464 0.05035369 -1.2111367 2.2521544 1.3674899 2.5776625
-1.140648 0.70965105 1.4141089 -0.5912597 1.1315987 1.1859192 -1.7015871 -1.261151
1.6002517 2.0955482 1.484982 -0.09482361 -1.1716483 1.2340226 2.8498619 -1.4353007
1.1456548 1.6081104 0.9978414 1.3320959 -2.098505 2.1522164 1.6014435 2.727716
1.6198318 1.2137743 1.465417 2.5356877 2.296304 -1.2167741 -0.9513725 0.6407884
0.3587532 0.057018526 -1.0745374 2.4328034 2.5358827 1.275106 1.875118 1.6800872
2.526109 -0.96242476 2.6299665 1.9603313 2.514964 -1.3435551 1.3784295 0.73470944
1.7749648 1.5406406 -0.32756788 2.3647835 1.1065928 1.9104736 -0.6978583 1.5575498
2.3748333 -1.3055179 -0.5067866 -0.6894071 -0.002556925 0.8317369 2.793511 -0.46012682
-1.2751219 1.6006328 1.0029169 -0.8709067 2.594418 1.4471179 1.6647277 1.4788617
1.8426297 1.477247 1.1015974 1.1236674 0.038989116 2.406658 -0.75827277 0.13649106
-1.548165 -0.0022160844 1.2260607 2.0391462 1.2105091 -1.6665883 -1.0452917 1.3800489
-0.80365014 -0.5104937 1.6397036 1.1149721 -0.84273654 0.9060534 -1.5422652 -1.0891371
0.012323828 -1.1852374 1.3011265 -1.0313005 0.62944496 -1.3230011 2.4876838 -1.759399
1.5777433 -0.68754506 0.87752146 -2.0018206 2.2697098 -1.1556096 -1.4799428 -0.78411704
0.78827155 -0.9616896 -0.24188957 1.0595189

StatefulPartitionedCall/sequential_2/dense_8/MatMul/ReadVariableOp:0 f4 [9, 9]
00000000: ff9f cc3d 0797 b03d a63f c0bd 79c6 8f3d
00000010: 9408 e63d 49fc e6be d800 6cbe 2dae aebd
00000020: 3046 9a3c 25ff c33d 47c0 c8be 3f74 a8bd
00000030: d18d 643d 7788 f7bd 5bc5 12bd 98db 423e
00000040: 2052 3fbf bfb9 3a3d 4f84 203e a1b4 413b
00000050: 440f fdbf 3b72 653d 588d 93bd a87d 483e
00000060: b03e 403e ecc5 383f 5dfb a0bd 4c36 0fbe
00000070: c627 753e 1edc 34be 8924 d63d 73cf 823d
00000080: 07e4 5fbd 3c97 303e e195 1ebf 8a65 1bbe
00000090: 34d8 be3d 1005 213e f0dd 403e fd6f dc3d
000000a0: c8c4 a0bd 933f 463e 4e33 1abe e559 27bc
000000b0: eeec de3b 98d6 8e3d 82ea 043c e8a7 6dbe
000000c0: 6451 8d3d 389d 083d 520b 843d 85cc 32bf
000000d0: f8da 84bc 3f76 d5bf e098 34be 1246 ef3c
000000e0: f37f 97be 1d55 063c 4ef3 23bd a49d 42bd
000000f0: 3aa9 67bf 30a3 2cbe 23fe 0dbb 12d5 bc3c
00000100: 683b b83c 0ea9 f5bb 2918 c3bd 7128 d13e
00000110: 591f e63c 70b0 0f3e 67d0 00be 748e 483d
00000120: 13c9 843e a227 e93d 67b0 75bd 7460 48be
00000130: e63e bbbe 182f 27bd 1aa2 edbd 12af 91be
00000140: 617c 7e3d
0.09991454 0.08622556 -0.0938714 0.070202775 0.11232105 -0.45114353 -0.23047197 -0.08529315
0.018832296 0.09570149 -0.39209196 -0.08225297 0.05579931 -0.120865755 -0.035832744 0.19029081
-0.7473469 0.045587298 0.15675472 0.0029557126 -1.9770284 0.05601714 -0.072046936 0.19579184
0.18773913 0.72177005 -0.07860444 -0.13985556 0.23940954 -0.17662093 0.10456187 0.06387224
-0.054660823 0.17245191 -0.6194745 -0.15175453 0.09318581 0.15724587 0.18834662 0.107635476
-0.07850033 0.19360189 -0.15058634 -0.010214304 0.0068031466 0.06974524 0.008112552 -0.23208582
0.0690029 0.03335306 0.06447472 -0.6984332 -0.016217694 -1.6676711 -0.17636442 0.029208217
-0.29589805 0.0081990035 -0.040026955 -0.04751362 -0.90492594 -0.16859126 -0.002166637 0.023050819
0.022489265 -0.0074969595 -0.095260926 0.40851167 0.02809112 0.1403215 -0.12579499 0.04896398
0.25934657 0.113845125 -0.059982684 -0.19568044 -0.36571425 -0.040816396 -0.11603184 -0.2845388
0.062130336

StatefulPartitionedCall/sequential_2/dense_8/BiasAdd/ReadVariableOp:0 f4 [9]
00000000: c830 913e 792a 3d3f f6e2 8ebf 2529 1640
00000010: d1f6 76bf 10dc eb3f 5655 04c0 1b56 83bf
00000020: 2d2a 9b3f
0.2835753 0.73892933 -1.1163013 2.3462613 -0.9647036 1.8426533 -2.0677085 -1.0260652
1.2122246

StatefulPartitionedCall/sequential_2/dense_10/MatMul/ReadVariableOp:0 f4 [252, 1]
00000000: b853 a83e bfb9 5a3f ba7f eb3e 7481 c73e
00000010: 8b3d 6bbe acf6 7a3e 0a33 1a3f 54c5 7e3e
00000020: 4c8a 44be b929 0cbf d1c4 48bf bfb6 273f
00000030: 6c56 183e 230a dabe 908a 97be 609f 903e
00000040: 7b86 e93e 5b23 1b3f 52d1 b3be e6ed 9d3e
00000050: 4068 383e c936 f938 88db cabe 0fe9 3dbe
00000060: c851 b93e f263 50be 0229 a03e 318f 873e
00000070: 5a46 ec3e a6c9 713e 1ea1 773d 449e 023f
00000080: 9b26 173e e873 733e 221f aa3e f1cf d33e
00000090: 3a97 413e 7491 d43e 20a6 8f3f 4e56 973e
000000a0: ad42 163f 46af bc3e e4e3 a23f 193b 803f
000000b0: 7191 3b3e cd2b 74be 3c62 703f 826b 1cbf
000000c0: 8d51 c13d 3674 ab3e 7a05 0b3f 6901 303f
000000d0: 2cdb d83e d46c b2be 02f7 9e3e c6f3 6ebe
000000e0: bd2b 023f 6f09 133e 7e85 623e ab7b b7be
000000f0: 9987 7dbe 0bbb d13d 1d34 2b3f 9c03 3f3e
00000100: 4d3a 533f 0224 173e 640b c03d d9fa 253e
00000110: e2ab ae3e 16b5 0a3e 42e5 d03d f5d7 bebe
00000120: 924d dcbe 7841 3f3e 1ff5 193e 54ef dfbe
00000130: 4409 3f3f b5a3 c1be 20df d93e e9ce b2be
00000140: 0bb1 593f fc56 0ebe c0c1 3ebf 515c 6a3e
00000150: f4e3 993e 40ec 38be 631a e73e 45be 5cbf
00000160: 254b 363f b482 913e e0be a73e 7b26 fc3e
00000170: 73ef be3e c52a e93e c0ea aebe b9a2 94be
00000180: 5c4c 263e 83b2 063e e03d 0dbf 44da c93e
00000190: 64c7 893e 9dff 973e b4e5 d13e a774 01be
000001a0: 1001 d63e 92b9 15bf b928 b03f 46c2 70be
000001b0: 2860 92be 282e bbbe b21a d53e db72 05bf
000001c0: 5431 7d3e 3534 f93e e7a6 cb3d 2b91 263f
000001d0: f4f2 0a3e e287 053f 8d7e 11be 26dd a5be
000001e0: e235 f93e 4c9b f03e 82fa 813e 891e 5c3e
000001f0: 37bd fabe cfa3 d1bd 61b0 733e 33eb 4abf
00000200: 8be6 ec3e 28c0 f9be 68cb 163e 823e 89be
00000210: 8f22 23bf 3e61 b73e 57ac a23e 501b 283f
00000220: 3925 22bf 7873 c13e 6dad 6c3e 9c6d 99be
00000230: 4a01 773e d47a 6c3e d52b 4fbe d056 14be
00000240: 7cf2 d53e 1d70 913e 8442 fc3c 99dc 33be
00000250: cb03 5cbe 7b09 153f 3247 023f 38ee 8a3f
00000260: b47b 963e de6a 2b3e dfaf c33e fd41 873f
00000270: 8095 cebe a3bd ca3e fda5 d23e 74ee 0b3f
00000280: 11ab 353e 3bdd 2c3e 4a52 5a3e d571 033f
00000290: f33e 083f a1e9 f6be c096 81be c064 2a3e
000002a0: 5767 973e 3146 3240 ce40 1ebf d701 813e
000002b0: 46d9 043f 1d16 503e 08ca 883e d6d3 9a3e
000002c0: 1c03 dc3e d8a2 56bf a668 833e e33c d53e
000002d0: f57e 153f e408 abbf 1413 783e 8609 8f3e
000002e0: de29 7e3e 0273 373e 8a24 bfbd bc73 b23e
000002f0: 397c 3e3e 69ec 5b3e ab48 ecbe 5e93 893e
00000300: 8996 453e 70ec f0be cc96 d6be 1448 163f
00000310: 3c9b 6a38 8408 bf3e ca5f ae3e 718b 1fbf
00000320: e421 95be a759 6d3e 0ea1 623d 4b4f de3e
00000330: 46bf 173f 5efe dc3e cb79 e93d 13b7 733e
00000340: 041e 1c3f e0fa 293f dec0 9c3e 0bf1 613e
00000350: 22de b23e e721 da3e b9b0 38bf 857c 0bbf
00000360: 0fc1 03bf ed98 ee38 fe00 4c3f ad56 c93f
00000370: 71d0 e43c e6d4 cfbe 8708 6dbe d82f 963e
00000380: 8fa3 eabe b338 c4be 2d61 ea3f 9fc0 c63e
00000390: 75a8 133f 587b 3b3e 1c91 abbe 8741 7cbf
000003a0: 49ac e13e 22e2 48bf 7ac8 ad3e 3802 a0bd
000003b0: 4013 b43e 4b24 afbe 5687 193f 6e34 de3f
000003c0: f1c7 9d3e 7d2e 1b3f 42eb 243e 3843 d9be
000003d0: fd5f b73e 3b95 6abe 3661 27bf 294b 3abd
000003e0: af97 0e3f adf9 a5be 8f6d cbbe 8171 dc3d
0.32876372 0.85439676 0.45995885 0.38965952 -0.22972696 0.2450816 0.6023413 0.24879962
-0.19193381 -0.54751164 -0.7842532 0.65513223 0.14876717 -0.4258586 -0.29597902 0.28246593
0.45610413 0.60600823 -0.35120636 0.30845565 0.18008518 0.0001188345 -0.39620614 -0.18545936
0.36195207 -0.20350626 0.31281286 0.26476434 0.46147424 0.23612079 0.060456388 0.51022744
0.1476082 0.23774683 0.33226877 0.41369584 0.18905345 0.41517222 1.1222572 0.29558033
0.5869549 0.36852473 1.2725797 1.0018035 0.183172 -0.23844834 0.93899894 -0.61101544
0.09439383 0.334871 0.5430523 0.6875215 0.42354715 -0.34848654 0.31047827 -0.2333518
0.5084799 0.14359067 0.22121236 -0.3583654 -0.24758758 0.10240754 0.66876394 0.1865372
0.82510835 0.1475983 0.093771726 0.16208972 0.3411551 0.13545641 0.101999775 -0.37274137
-0.4302793 0.18677318 0.15034913 -0.4373728 0.74623513 -0.3782021 0.42553043 -0.34923485
0.8503577 -0.1390037 -0.7451439 0.22886778 0.30056727 -0.18058872 0.4513732 -0.8622783
0.7120841 0.2842003 0.32762814 0.49248108 0.3729206 0.45540443 -0.34163475 -0.29030398
0.16240066 0.13154034 -0.5517254 0.39424336 0.26909935 0.29687205 0.40995562 -0.12642156
0.41797686 -0.5848628 1.3762428 -0.2351161 -0.28588986 -0.36558652 0.4162193 -0.5212838
0.24725848 0.48672643 0.099439435 0.6506526 0.13569242 0.52160466 -0.14208432 -0.32395285
0.48673922 0.46993482 0.25386435 0.21496023 -0.48972484 -0.10236322 0.23797752 -0.79265136
0.4626964 -0.48779416 0.14726031 -0.26805502 -0.6372461 0.35816377 0.3177211 0.65666676
-0.6333805 0.37783408 0.23113032 -0.29966438 0.24121585 0.2309373 -0.20231564 -0.14486241
0.41786563 0.28405848 0.030793436 -0.1756462 -0.21485822 0.5821759 0.50889885 1.0853949
0.29391253 0.16739985 0.38220116 1.0567013 -0.40348434 0.39597806 0.41142264 0.54660726
0.17741038 0.16881268 0.21320453 0.5134557 0.5322105 -0.4822512 -0.25310326 0.16639996
0.2957103 2.7855341 -0.61817634 0.25196716 0.5189403 0.20320936 0.26716638 0.30239743
0.42971122 -0.8384223 0.25665778 0.41648015 0.58396846 -1.3362088 0.24226028 0.27936953
0.24820659 0.17914966 -0.09333141 0.34853923 0.18602075 0.21476902 -0.4614919 0.26870245
0.19295706 -0.47055387 -0.41911924 0.5870373 5.593452e-05 0.37311184 0.34057456 -0.62322146
-0.2912742 0.23178731 0.055329375 0.4341987 0.59276235 0.43162817 0.11400183 0.23800306
0.609833 0.6639843 0.30615896 0.22064607 0.349351 0.4260399 -0.7214466 -0.54486877
-0.5146646 0.00011377209 0.79689014 1.5729576 0.027931424 -0.40592116 -0.23147784 0.29333377
-0.4582791 -0.38324508 1.8310906 0.38818833 0.5767892 0.1830877 -0.33509147 -0.98537487
0.44076756 -0.7847005 0.33942014 -0.07812923 0.35170937 -0.34207377 0.5997213 1.735975
0.30816606 0.6061781 0.16105369 -0.42434096 0.3581542 -0.2290849 -0.6538271 -0.045481835
0.557002 -0.3241705 -0.39732024 0.10763837
