test/database_onnx/13TeV/ATLAS/ATLAS-SUSY-2018-04-eff/model.onnx (onnx, 71514 bytes, 7 tensors)

StatefulPartitionedCall/sequential/dense_3/MatMul/ReadVariableOp:0 f4 [128, 1]
0	0xb8654209	-5.4659355e-05
1	0xb632c505	-2.6638747e-06
2	0x3944efbb	0.00018781323
3	0x3e1038dd	0.14084192
4	0x3de5108f	0.11184799
5	0xbe69554f	-0.22786449
6	0xbd386fee	-0.04502862
7	0xb5fc69b5	-1.8806228e-06
8	0x3719b381	9.161305e-06
9	0x3ea330df	0.31873223
10	0xb686a897	-4.0131376e-06
11	0x3df8f397	0.12155836
12	0x3ea2ca38	0.31794906
13	0x3e60302f	0.2189338
14	0xbdc70841	-0.09718371
15	0x362756ac	2.493539e-06
16	0xbdf8d314	-0.12149635
17	0x3e9ff8f7	0.31244633
18	0x3dbdc284	0.092656165
19	0xbe2795f1	-0.16365792
20	0xbe4d0aee	-0.200237
21	0xbebb82ff	-0.3662338
22	0x3e568491	0.20949008
23	0xbd42d170	-0.047563016
24	0xbe3b8e22	-0.18315938
25	0x37c83e74	2.387094e-05
26	0xbe430a6c	-0.19046944
27	0xbe4d30c1	-0.2003813
28	0x3e09d036	0.13458332
29	0x3e04daac	0.12974042
30	0x3ebdfbd9	0.37106207
31	0xbe4a6f3f	-0.19769
32	0x3e1306e2	0.14358094
33	0x3509e4e7	5.1369574e-07
34	0xbe51e163	-0.20496134
35	0x39c02350	0.00036647404
36	0x3e6e2203	0.23255162
37	0xb8044c31	-3.154221e-05
38	0xb5d1a55a	-1.5619837e-06
39	0xbdf42d9d	-0.119227625
40	0x3efff72f	0.49993274
41	0x3d8ecd3a	0.069727376
42	0x36f0aeb9	7.1728978e-06
43	0xbdc287a4	-0.09498528
44	0xb886d008	-6.428367e-05
45	0xbe34ef30	-0.17669368
46	0xb830b810	-4.213309e-05
47	0xbe370256	-0.17871985
48	0x3e5e7fdd	0.21728463
49	0xb636b07e	-2.7222845e-06
50	0x36ff0d84	7.6011656e-06
51	0x3eb66172	0.3562122
52	0xb5b965ce	-1.3813203e-06
53	0xb6c0ab24	-5.7419693e-06
54	0x3eac48c5	0.3364927
55	0xb677cef0	-3.6926322e-06
56	0xbe25048e	-0.16115019
57	0x3e9eca69	0.31013802
58	0xbdae92a5	-0.08524064
59	0x3e4259d4	0.18979579
60	0x38ebafc7	0.00011238414
61	0x3e928ffc	0.28625476
62	0x3e6b9ae4	0.23008305
63	0x3e417c1f	0.18895005
64	0x3e97c1e3	0.2964011
65	0x3ea0bc4a	0.31393653
66	0xbddfa033	-0.109192275
67	0x3e4d978c	0.20077342
68	0xb682de2f	-3.9001675e-06
69	0x3e5fb936	0.21847996
70	0x3e65910e	0.22418615
71	0x3ec708db	0.38873944
72	0xbede8de0	-0.43467617
73	0xb5debe01	-1.6595587e-06
74	0x3e25971f	0.1617093
75	0x3eaf1deb	0.34202513
76	0x3e597fed	0.21240206
77	0xbe9e76c7	-0.30949995
78	0xbe39454c	-0.18092841
79	0xbe869db0	-0.2629218
80	0x3eadcff5	0.3394772
81	0x3e609942	0.21933463
82	0x3eba4fc9	0.36388996
83	0x3e8ff75e	0.28118414
84	0xbe120f63	-0.14263682
85	0xbe91a785	-0.2844812
86	0x3e028e05	0.12749489
87	0xb89ecaf0	-7.571827e-05
88	0x3e582656	0.21108374
89	0x3dbdbb5d	0.09264252
90	0xbea66c6f	-0.32504603
91	0x35caed06	1.5119156e-06
92	0x3e41c000	0.18920898
93	0xb6b090d4	-5.262069e-06
94	0x35bcbcd9	1.4062053e-06
95	0x3e918fb4	0.2842995
96	0x35e2733a	1.6871847e-06
97	0x3e3b33bc	0.18281454
98	0x3705635d	7.950553e-06
99	0x3883c42e	6.283108e-05
100	0x3e15198e	0.1456053
101	0xbd06f0fd	-0.032944668
102	0x374a4390	1.2055869e-05
103	0x35834b68	9.782207e-07
104	0x3e4c7d1f	0.19969605
105	0x3e144afa	0.14481726
106	0xba906ea3	-0.00110193
107	0x3e0c88f9	0.13724126
108	0x3e3ffee6	0.1874958
109	0x3ea8a8a7	0.32941172
110	0xbeb9475f	-0.36187264
111	0x3da80e64	0.0820587
112	0xb6835d5d	-3.914973e-06
113	0x3e55b39e	0.208693
114	0x3e771306	0.2412835
115	0x3e48b780	0.1960125
116	0x3dd4aded	0.10384736
117	0x3ed542dd	0.41652575
118	0xbd81f101	-0.06344796
119	0x3e535935	0.20639499
120	0x3e7d18ea	0.24716535
121	0x3eaedb4d	0.34151688
122	0x3e2c8f97	0.1685165
123	0xbea7691d	-0.32697383
124	0x378ca89c	1.6767815e-05
125	0x3687daeb	4.048799e-06
126	0xbaa22ee8	-0.0012373598
127	0xbd1bb6c3	-0.038016092

StatefulPartitionedCall/sequential/dense_2/MatMul/ReadVariableOp:0 f4 [128, 128]
0	0x36e77d54	6.8989266e-06
1	0x38bf7257	9.128887e-05
2	0xb9c2d7f4	-0.0003716346
3	0x3e2e2e1c	0.17009777
4	0xbde6e3c6	-0.11273913
5	0xbd7de3f8	-0.061984986
6	0xbb79e490	-0.0038130619
7	0x39235ff6	0.0001558064
8	0x38ceb1ac	9.8559394e-05
9	0xbd4b91ac	-0.04969947
10	0x3895fec5	7.152328e-05
11	0x3e19b613	0.15010862
12	0x3b60ebfa	0.003432034
13	0x3e423b68	0.18967974
14	0x3ceca4f4	0.02888725
15	0x38b59a53	8.659498e-05
16	0x3bfd3e57	0.0077283788
17	0x3d14d8ca	0.03633956
18	0x3df7f037	0.12106364
19	0x3c214da6	0.009845173
20	0xbd48c2a8	-0.049013764
21	0x3dc85dfb	0.0978355
22	0x3e8138ae	0.25238556
23	0x3c2875cb	0.01028199
24	0xbd88d917	-0.066820316
25	0xb8ee3bd6	-0.0001135987
26	0xbc1f54e1	-0.009724827
27	0xbd5ceaa8	-0.053934723
28	0x3b0c5482	0.0021412675
29	0xbdacb212	-0.08432402
30	0x3e364c62	0.17802575
31	0xbbad1944	-0.005282553
32	0xbded308b	-0.115815245
33	0x3933f55b	0.00017162172
34	0x3cb60f1e	0.022224005
35	0xb9cd1b0a	-0.00039120793
36	0xbd3c911c	-0.046036825
37	0xb74bf1f2	-1.2156075e-05
38	0x38cafce8	9.679218e-05
39	0xbc40e799	-0.011773967
40	0xbc2b4631	-0.010453747
41	0x3bc38953	0.005967298
42	0x389c301e	7.447622e-05
43	0xbd02d3dd	-0.03194033
44	0xb7efe97b	-2.8599743e-05
45	0x3a43faf5	0.0007476055
46	0xb99d22c5	-0.0002997128
47	0xbc4638d5	-0.012098511
48	0xbd386880	-0.045021534
49	0x3901b236	0.00012368787
50	0x3a8bc99a	0.001066494
51	0xbdd9f373	-0.106421374
52	0x38c5ac00	9.4257295e-05
53	0x37a7a4bb	1.998466e-05
54	0x3d743d6c	0.05962889
55	0x385a2a34	5.2014555e-05
56	0x3bc61f05	0.0060461783
57	0x3dc8ef61	0.09811283
58	0x3cde76b4	0.027156211
59	0xbd821f77	-0.06353658
60	0xb97d90ed	-0.00024181949
61	0x3de1fd78	0.110346735
62	0xbc3f13c3	-0.011662426
63	0x3d9dc2c9	0.07703168
64	0xbce563ec	-0.028001748
65	0xbca3da4d	-0.020001555
66	0x3d224aad	0.039621998
67	0xbca7f0fb	-0.02050065
68	0x37f9bc8b	2.977091e-05
69	0xbcae1997	-0.021252437
70	0x3daa8b1c	0.08327314
71	0x3de45822	0.111496225
72	0x3e0cc201	0.13745882
73	0x38a4b48e	7.85376e-05
74	0x3e062a84	0.13102156
75	0xbdee8595	-0.116465725
76	0x3e2948c3	0.16531663
77	0xbdc2b57d	-0.095072724
78	0xbd4f91e1	-0.05067623
79	0xbd290657	-0.04126581
80	0x3cf1c8d8	0.029514715
81	0x3d081a17	0.033228006
82	0x3d6f2555	0.058385212
83	0xbd179de4	-0.03701581
84	0x3b1acc93	0.002362047
85	0x3d0ef308	0.03489974
86	0x3d1f805b	0.03894077
87	0xb9aba04e	-0.00032735098
88	0xbc92533a	-0.017861951
89	0x3d94b4cd	0.072610475
90	0x3d9b750b	0.075906835
91	0x38680bcc	5.5324097e-05
92	0x3d2ee050	0.04269439
93	0x38826b91	6.218919e-05
94	0x38ea8bac	0.000111840054
95	0x3da2df5f	0.07952761
96	0x37d1803f	2.497446e-05
97	0x3deec512	0.11658682
98	0x37ecaedd	2.821482e-05
99	0xb9f76af6	-0.00047191203
100	0x3d50449e	0.05084669
101	0x3b1260e8	0.0022335593
102	0x38fe0801	0.00012113155
103	0x389faaf8	7.613556e-05
104	0x3d5ea41f	0.054355737
105	0x3c849160	0.016182601
106	0xbaa8dc3b	-0.0012883017
107	0x3be2d666	0.006922531
108	0x3d86e956	0.06587474
109	0x3e996d5a	0.2996624
110	0x3e9db8df	0.30805108
111	0x3bff66a7	0.0077942195
112	0x391ac4b4	0.00014759862
113	0x3dad23ef	0.084541194
114	0x3e16306e	0.14666912
115	0x3d81a095	0.06329457
116	0xbd238a1e	-0.03992664
117	0x3d6a6bc2	0.057231672
118	0xb9f7ad46	-0.0004724061
119	0xbd5f570b	-0.05452637
120	0xbe0a3b00	-0.13499069
121	0x3e3903f2	0.18067911
122	0x3c925ec7	0.017867459
123	0xbde8cb08	-0.1136685
124	0x38698dce	5.5683595e-05
125	0x38eaf7bc	0.000112041336
126	0xbaaf1a27	-0.0013359234
127	0x3b8fbd2f	0.004386566
128	0x394572f3	0.00018830206
129	0x38f6dae8	0.000117709686
130	0xbaf932ad	-0.0019012295
131	0x3f4abb89	0.79192406
132	0x3f09623c	0.5366552
133	0xbe7067f9	-0.23477162
134	0xbcbb4fda	-0.022865225
135	0xb858598e	-5.1581817e-05
136	0xba553468	-0.00081331143
137	0x3f306d2f	0.689166
138	0x391344ea	0.00014044685
139	0x3eef6673	0.4675785
140	0x3f4a1e59	0.78952557
141	0x3f4e4829	0.8057886
142	0xbe39f1f8	-0.1815871
143	0x393f6ced	0.00018255757
144	0xbe0f3d0f	-0.13988136
145	0x3f484396	0.7822813
146	0x3eb7efbc	0.3592509
147	0xbe590647	-0.21193801
148	0xbeced20b	-0.40394625
149	0xbf12f691	-0.5740748
150	0x3f10e0f5	0.5659326
151	0xbdc49126	-0.09597997
152	0xbe816e8b	-0.2527965
153	0xba86cf3e	-0.0010285152
154	0xbe748990	-0.23880601
155	0xbe702bef	-0.2345426
156	0x3f007c1d	0.5018938
157	0x3ee50173	0.44727668
158	0x3f3d2dcc	0.73898005
159	0xbeb1e60b	-0.3474582
160	0x3f16d357	0.5891623
161	0xb50355f5	-4.8926387e-07
162	0xbeaa05ab	-0.3320745
163	0xb9d7cb4d	-0.00041159466
164	0x3f2c79f0	0.6737356
165	0x37f81154	2.9571973e-05
166	0x38a58d1c	7.894097e-05
167	0xbe483ce7	-0.19554482
168	0x3f5e7465	0.86896354
169	0x3edf6b49	0.4363654
170	0x38a14b41	7.6910954e-05
171	0xbdbd52b6	-0.092442915
172	0xb924dd72	-0.00015722754
173	0xbe89700c	-0.26843297
174	0x38768c84	5.8781836e-05
175	0xbe98fe5e	-0.29881567
176	0x3f2b032b	0.6680171
177	0x3937c227	0.00017524567
178	0x3b66200d	0.0035114319
179	0x3f726b58	0.94695044
180	0x3998b168	0.00029123877
181	0x391336e0	0.00014039455
182	0x3f4471eb	0.76736325
183	0x3918bcd4	0.00014566194
184	0xbe9e3a76	-0.30903977
185	0x3f59f9ec	0.85146976
186	0xbdb83d7e	-0.08996104
187	0x3edd955e	0.4327802
188	0xb9313b94	-0.0001690223
189	0x3f1f03c6	0.6211513
190	0x3f6689b9	0.900539
191	0x3f44f4a1	0.76935774
192	0x3f0dc545	0.55379134
193	0x3f11916c	0.5686252
194	0xbe92e056	-0.2868678
195	0x3f0cc53e	0.5498847
196	0xb820070e	-3.8153543e-05
197	0x3f466ef5	0.77513057
198	0x3f40bc3e	0.75287235
199	0x3f422e72	0.7585212
200	0xbf5f6df6	-0.8727716
201	0x38a3bf0e	7.8080324e-05
202	0x3f059688	0.5218282
203	0x3f1e3b97	0.61809677
204	0x3f45703c	0.7712438
205	0xbeca0fe6	-0.39465255
206	0xbea032fb	-0.31288895
207	0xbeb61a5c	-0.35566986
208	0x3f4538f4	0.7704003
209	0x3f6629d0	0.8990755
210	0x3f772dde	0.9655436
211	0x3f0f143f	0.5589027
212	0xbedfe186	-0.43726748
213	0xbf1c9c1b	-0.611757
214	0x3f116262	0.56790745
215	0xb9b318fd	-0.00034160158
216	0x3f220f1b	0.633043
217	0x3f2cdc00	0.67523193
218	0xbf312100	-0.6919098
219	0x392cf582	0.00016494657
220	0x3f6d2425	0.9263328
221	0x391f5412	0.0001519474
222	0x38d217df	0.00010018027
223	0x3f263e77	0.64939064
224	0x3859cafa	5.192587e-05
225	0x3f014332	0.50493157
226	0x390bc9b4	0.00013331213
227	0xb9e05248	-0.00042785914
228	0x3f153d9f	0.5829715
229	0xbd570215	-0.05249222
230	0x39856c79	0.00025448555
231	0xb89ad03d	-7.38208e-05
232	0x3ecc90c9	0.39954212
233	0x3f0d41a1	0.55178267
234	0xbb311865	-0.0027022597
235	0x3f013edd	0.50486547
236	0x3f0047c0	0.5010948
237	0x3f160a3a	0.58609354
238	0xbf1ac56f	-0.6045751
239	0x3eca23cf	0.39480445
240	0x394401e7	0.00018692725
241	0x3eee7cef	0.46579692
242	0x3f25ee18	0.6481643
243	0x3f128c89	0.5724569
244	0x3f104657	0.5635733
245	0x3f32336a	0.696097
246	0xbdce4166	-0.100710675
247	0x3f14c216	0.5810865
248	0x3f0aa060	0.5415096
249	0x3f3aa405	0.72906524
250	0x3f2ee4ce	0.6831788
251	0xbefc244f	-0.4924645
252	0x391a1d60	0.00014697528
253	0x39237ba6	0.00015590954
254	0xba9396b0	-0.0011260118
255	0xbd3f2184	-0.046662822

StatefulPartitionedCall/sequential/dense_2/BiasAdd/ReadVariableOp:0 f4 [128]
0	0xbbbc26ec	-0.0057419445
1	0xbba929db	-0.0051624603
2	0xbbd0cfdf	-0.0063724364
3	0x3ec8491b	0.39118275
4	0x3eeb3cda	0.45944864
5	0xbeab76cd	-0.33489075
6	0xbe8411f0	-0.25794935
7	0xbbdedd09	-0.006801252
8	0xbbc7edc5	-0.0061013424
9	0x3eb8f706	0.36125964
10	0xbb93fc31	-0.0045161475
11	0x3ec81d38	0.39084792
12	0x3ee7165e	0.45134252
13	0x3f25ccce	0.6476563
14	0xbe9fe027	-0.31225702
15	0xbb75ecd1	-0.0037525187
16	0xbea447e0	-0.32086086
17	0x3eb7d373	0.3590351
18	0x3ecbea55	0.3982722
19	0xbe4dcee1	-0.2009845
20	0xbe9f1f3b	-0.31078514
21	0xbe65f8c0	-0.22458172
22	0x3ef8793d	0.48529997
23	0xbeb48b8a	-0.3526271
24	0xbeae5e21	-0.3405619
25	0xbbbd39b8	-0.005774703
26	0xbea7a66e	-0.32744163
27	0xbe6bba67	-0.23020326
28	0x3eaed6fb	0.34148392
29	0x3ed6c9c5	0.41950813
30	0x3eb96e12	0.3621679
31	0xbeaf09a3	-0.3418704
32	0x3ed317e5	0.41229168
33	0xbb943431	-0.0045228233
34	0xbe981a5c	-0.2970761
35	0xbb8a9aaa	-0.004229863
36	0x3ef1ed20	0.47251225
37	0xbb53daa8	-0.0032326374
38	0xbb9955a0	-0.0046793967
39	0xbea13fd0	-0.31493998
40	0x3f25c84d	0.6475876
41	0x3eacb8e4	0.3373481
42	0xbba28f83	-0.0049609556
43	0xbea953f9	-0.3307188
44	0xbb8de174	-0.0043298546
45	0xbe851dec	-0.2599939
46	0xbb7d1169	-0.0038615114
47	0xbeb53d64	-0.353984
48	0x3eabe47b	0.33572754
49	0xbb968e41	-0.0045945947
50	0xbdc6bc68	-0.097039044
51	0x3f48a85e	0.7838191
52	0xbbf1a90a	-0.0073748874
53	0xbb5268f9	-0.0032106026
54	0x3f024ce4	0.50898576
55	0xbb6d822b	-0.0036240916
56	0xbeb09cb9	-0.3449457
57	0x3efeb2c3	0.4974576
58	0xbe6932a5	-0.22773226
59	0x3eaa86f5	0.3330609
60	0xbb9bd7f6	-0.004755969
61	0x3ead2858	0.33819842
62	0x3f2b0211	0.6680003
63	0x3ed75ed6	0.42064542
64	0x3eb2b128	0.34900784
65	0x3eae4cf6	0.34043092
66	0xbe99b828	-0.30023313
67	0x3e9a4eb5	0.30138174
68	0xbbaba103	-0.0052377
69	0x3ef78b4e	0.4834847
70	0x3ead2470	0.33816862
71	0x3f110aa8	0.56656885
72	0xbef5eba8	-0.48031354
73	0xbbb5900e	-0.0055408543
74	0x3eb370db	0.3504704
75	0x3eec3544	0.46134388
76	0x3ef0f037	0.4705827
77	0xbe959000	-0.29211426
78	0xbe9ba988	-0.3040278
79	0xbe536119	-0.20642509
80	0x3ee2437d	0.44192114
81	0x3ee32d3a	0.44370443
82	0x3f0be175	0.54640895
83	0x3f141036	0.57837236
84	0xbe1c5ca6	-0.15269718
85	0xbedbf204	-0.4295808
86	0x3ed90a6a	0.42390758
87	0xbba52dec	-0.0050408747
88	0x3ed2424c	0.41066206
89	0x3ebacb59	0.36483267
90	0xbe94a9c0	-0.2903576
91	0xbb6e2e9d	-0.0036343702
92	0x3f255d0d	0.6459511
93	0xbb8c9b4d	-0.0042909742
94	0xbb96dc48	-0.0046038963
95	0x3ee1832f	0.44045398
96	0xbb808848	-0.003922496
97	0x3ecf68f2	0.40509754
98	0xbb467627	-0.0030282827
99	0xbb72adfb	-0.003702997
100	0x3ed497a7	0.41521952
101	0xbe1b0987	-0.15140353
102	0xbbb40d36	-0.005494739
103	0xbb96e150	-0.004604496
104	0x3ead50d4	0.3385073
105	0x3ec81f5a	0.3908642
106	0xbbe23a54	-0.006903926
107	0x3e6c4de6	0.23076591
108	0x3ec7e043	0.39038286
109	0x3eb1577b	0.34637055
110	0xbeb93c89	-0.36178997
111	0x3ea843df	0.32864282
112	0xbbaa88fa	-0.005204317
113	0x3eb07db7	0.34470913
114	0x3f26f534	0.652179
115	0x3eb98bc0	0.36239433
116	0x3f02e317	0.5112776
117	0x3efa8d82	0.48936087
118	0xbe9caaa7	-0.30598947
119	0x3e92229d	0.28542033
120	0x3eec6b35	0.46175542
121	0x3f1f9871	0.6234198
122	0x3eb45ece	0.3522858
123	0xbea479a0	-0.32124043
124	0xbb84e0b6	-0.004055108
125	0xbba0763e	-0.004896908
126	0xbbadbd59	-0.005302113
127	0xbea45a75	-0.32100263

StatefulPartitionedCall/sequential/dense_1/MatMul/ReadVariableOp:0 f4 [2, 128]
0	0x3e243efd	0.16039653
1	0xbe9816a8	-0.29704785
2	0x3e2d667a	0.16933623
3	0xbe74d1e1	-0.23908187
4	0x3f283427	0.6570458
5	0xbeef6c22	-0.46762186
6	0xbdbecdee	-0.09316622
7	0xbf31d0b5	-0.69459087
8	0x3faffd7c	1.3749232
9	0x3e4f648a	0.20253196
10	0x3e282f84	0.16424376
11	0xbdd1de95	-0.10247532
12	0xbdde016a	-0.108401135
13	0x3f073274	0.5281136
14	0x3ed9c005	0.42529312
15	0xb92b8fc8	-0.00016361394
16	0xbf62a16d	-0.88527566
17	0x3d8f5496	0.06998555
18	0xbe99f281	-0.30067828
19	0x3eb89142	0.36048323
20	0xbe4325e2	-0.1905742
21	0xbef7bae2	-0.48384768
22	0x3f0583f3	0.52154464
23	0x3f6064c4	0.87653756
24	0x3ee8d498	0.45474696
25	0xbf36805f	-0.7128963
26	0x3f822589	1.0167705
27	0xbe9719a0	-0.29511738
28	0x3f9368aa	1.1516316
29	0xbe86eeda	-0.26354104
30	0x3f9958d6	1.1980236
31	0xbf86359f	-1.0485114
32	0x3ec757c1	0.38934138
33	0x3f102f0c	0.5632179
34	0xbdb01bfd	-0.08599088
35	0x3ef76d7a	0.4832571
36	0xbf2d8938	-0.67787504
37	0xbf82a781	-1.0207368
38	0x3f0c2365	0.5474151
39	0x3f0c3e81	0.54782873
40	0xbf058ecb	-0.5217101
41	0xbffe1552	-1.9850256
42	0xbed5fd46	-0.41794795
43	0xbf369b22	-0.71330464
44	0xbe8c9015	-0.27453676
45	0x3f962f0d	1.1733109
46	0xbca2649b	-0.019823363
47	0xbd9a1dd7	-0.07525223
48	0xbf33c5e7	-0.7022385
49	0x3f95980d	1.1687027
50	0xbefc2175	-0.49244276
51	0x3ed69ed7	0.4191806
52	0x3f8640bf	1.0488509
53	0xbe9a74de	-0.30167288
54	0xbd58fb08	-0.052973777
55	0xbea8e06a	-0.32983714
56	0xbf547ff0	-0.8300772
57	0xbf5dfdb6	-0.8671526
58	0xbf50e241	-0.81595236
59	0xbf6043ce	-0.8760346
60	0xbe7e19a1	-0.24814464
61	0x3e0a4cb4	0.13505822
62	0x3ea4b2e4	0.32167733
63	0xbe8e9501	-0.27848056
64	0xbdc8b5be	-0.098002896
65	0x391c81a4	0.00014925614
66	0xbe8b263b	-0.27177605
67	0xbeb7f6d8	-0.35930514
68	0x3ebec97b	0.37263092
69	0x3faa55a7	1.3307389
70	0xbe1bed2b	-0.15227191
71	0x3e2f84fe	0.17140576
72	0xbe37ebe4	-0.17961079
73	0x3fb5613b	1.4170297
74	0x3f09fe52	0.53903687
75	0xbdb8c6dc	-0.090223044
76	0xbeb423fa	-0.35183698
77	0x398ce9c9	0.00026877064
78	0xb6de773d	-6.6299967e-06
79	0xbe937236	-0.28798074
80	0xbe98d2b8	-0.29848266
81	0x3e11f718	0.14254415
82	0xb704da09	-7.918578e-06
83	0x3f516219	0.8179031
84	0xbf2c43ef	-0.6729116
85	0x3e86ea4b	0.26350626
86	0x3ea0ea3c	0.31428707
87	0x3faa49d4	1.330378
88	0xb63b9c38	-2.7956103e-06
89	0x3e64d5e5	0.2234722
90	0x3dc61e75	0.09673778
91	0x3f85b61c	1.04462
92	0x3fa26748	1.2687769
93	0xbf68047a	-0.9063183
94	0xbe77aeaf	-0.2418773
95	0xbe95ef2a	-0.2928403
96	0xbd016fa7	-0.03160062
97	0x3d433d94	0.047666147
98	0xbf77fe75	-0.96872646
99	0x3dd352dc	0.103185385
100	0xbe8540cb	-0.26025996
101	0xbf9e49d3	-1.2366279
102	0xbe79f6f4	-0.24410611
103	0x3e61681f	0.22012375
104	0xbf3de9c1	-0.74184805
105	0xb9f2c552	-0.00046304852
106	0xbeb6b920	-0.35688114
107	0xbde82bcd	-0.11336479
108	0xbe812e11	-0.25230458
109	0x3d36b902	0.04461003
110	0x3e23f063	0.16009669
111	0xbf30ff6e	-0.69139755
112	0x3ee4285c	0.44562042
113	0xbe6cdc39	-0.23130883
114	0xbf3b2b99	-0.731134
115	0x3e3a2c52	0.1818097
116	0xbe812941	-0.25226787
117	0xbdd24d9e	-0.102687106
118	0x3ee1ca3a	0.440996
119	0xbf4b5ce6	-0.79438627
120	0xbf21c55a	-0.6319176
121	0xbfb175c2	-1.3864062
122	0xbf254d8d	-0.6457146
123	0xbf249b6c	-0.64299655
124	0x3ecc621f	0.3991861
125	0x3ef56a4b	0.47932658
126	0x3e90fd37	0.28318188
127	0x3c34fead	0.011047048
128	0xbea67980	-0.32514572
129	0x3dbbc3da	0.09168215
130	0xbe459887	-0.19296466
131	0xbe943cce	-0.2895264
132	0xbe3402cf	-0.17579196
133	0xbf1f687c	-0.62268806
134	0xbf910033	-1.1328186
135	0x3eef4adf	0.4673681
136	0x3e4c1d65	0.19933088
137	0xbeb9c591	-0.36283544
138	0xbe048341	-0.12940694
139	0xbda4cd05	-0.08046917
140	0xbef3e588	-0.47636056
141	0xbe0db1f7	-0.1383742
142	0xbf176092	-0.5913173
143	0xb8f650e2	-0.0001174526
144	0x3ed623ed	0.41824284
145	0xbd81d008	-0.06338507
146	0x3fa51ea8	1.289998
147	0x3e9f820b	0.31153902
148	0x3ec5f326	0.3866207
149	0xbed4ba3d	-0.4154834
150	0x3ea95d6b	0.33079085
151	0x3f3a61a8	0.7280526
152	0x3f73e854	0.9527638
153	0xbf38fa60	-0.7225704
154	0xbe2a6314	-0.16639358
155	0x3fdc807d	1.7226712
156	0xbf8ac2ba	-1.0840676
157	0xbef684ba	-0.48148137
158	0x3eb0e234	0.3454758
159	0x3f059c34	0.5219147
160	0xbe9d9e3b	-0.30784783
161	0xbede65ea	-0.4343713
162	0x3dca4038	0.0987553
163	0xbd7805ac	-0.060552284
164	0x3da7f007	0.082000785
165	0x3f0d0e16	0.5509962
166	0x3e96166d	0.29313985
167	0xbf429cb6	-0.7602037
168	0xbf046dac	-0.51729846
169	0x3f37d0be	0.7180289
170	0xbe809f46	-0.25121516
171	0xbf993f92	-1.1972525
172	0xbe7abd0a	-0.24486175
173	0xbefcba9c	-0.49361122
174	0xbf284302	-0.65727246
175	0xbf20daa7	-0.62833637
176	0x3ec547b5	0.3853127
177	0xbe498420	-0.19679308
178	0xbf8a5cfc	-1.0809627
179	0x3e9e89bd	0.3096446
180	0xbf1b67ce	-0.6070527
181	0x3d32c715	0.04364689
182	0x3fa014d2	1.2506354
183	0x3e8fcd4a	0.2808631
184	0x3eee3f26	0.46532553
185	0x3e4034d8	0.18770158
186	0x3bb4b4a0	0.0055146962
187	0x3f086699	0.5328155
188	0xbe17a4d5	-0.14808972
189	0x3d568f26	0.05238261
190	0xbe425629	-0.1897818
191	0x3dddc72c	0.10829005
192	0xbeea8a1e	-0.458085
193	0x38f8324a	0.000118349286
194	0xbe2658d0	-0.16244817
195	0xbe88cfcb	-0.26721033
196	0xbf13336c	-0.5750034
197	0x3fd27e3e	1.6444776
198	0xbfc57356	-1.5425823
199	0xbf9850e1	-1.1899682
200	0xbf7c2021	-0.98486525
201	0xbc9c5002	-0.01908112
202	0xbcd25787	-0.025676502
203	0x3ed54f4b	0.41662058
204	0xbf0e9f04	-0.5571139
205	0x38434ef2	4.6565146e-05
206	0x360ff16e	2.144919e-06
207	0xbfa9e474	-1.3272843
208	0x3d3d108e	0.046158366
209	0x3ee66669	0.45000008
210	0xb8a190dc	-7.7040604e-05
211	0xbe0557ea	-0.13021818
212	0xbd8994ad	-0.06717811
213	0x3faa0dbb	1.328544
214	0x3ed184d0	0.4092164
215	0x3dbf5e0a	0.093441084
216	0x3845c1ed	4.7149068e-05
217	0xbebf6e5e	-0.3738889
218	0x3f2dd366	0.67900693
219	0xbf6db4dd	-0.928541
220	0xbe37f0a6	-0.17962894
221	0xbf5e85be	-0.86922824
222	0x3f0eae32	0.5573455
223	0x3c0a82a9	0.008454003
224	0x3f2027da	0.6256081
225	0x3f31a378	0.6939006
226	0x3f05e055	0.5229543
227	0xbe45581a	-0.1927189
228	0x3eb14daf	0.3462958
229	0x3f5e8326	0.86918867
230	0xbe3a3826	-0.18185481
231	0x3f1eb868	0.6200013
232	0x3eff0f2b	0.4981626
233	0xb8f2e80c	-0.00011582681
234	0xbea0a3ab	-0.3137487
235	0xbf3c96be	-0.73667514
236	0xbec9af12	-0.3939138
237	0x3f015bce	0.5053071
238	0x3e5dbe7b	0.21654694
239	0xbeaed316	-0.3414542
240	0x3d5633e2	0.052295573
241	0x3eb7a872	0.358707
242	0xbe255703	-0.16146474
243	0x3f0ca88a	0.5494467
244	0x3e3bbd4d	0.18333931
245	0x3f00d46b	0.50324124
246	0xbe60c788	-0.21951115
247	0xbf73d53d	-0.9524725
248	0x3eb4b7e2	0.3529654
249	0x3f02fa88	0.5116353
250	0xbf3c7b7f	-0.7362594
251	0x3e7dd5f5	0.2478865
252	0xbea06b88	-0.3133204
253	0xbf808b4c	-1.004251
254	0xbeb521ad	-0.35377255
255	0x3f2f4cac	0.68476367

StatefulPartitionedCall/sequential/dense_1/BiasAdd/ReadVariableOp:0 f4 [128]
0	0x3eada4eb	0.33914885
1	0x3f8f6fca	1.120599
2	0x3f068d50	0.52559376
3	0x3e986339	0.297632
4	0x3f2aee4d	0.6676987
5	0x3e3be35b	0.18348448
6	0xb82fe3ec	-4.193552e-05
7	0x3e40d647	0.1883174
8	0x3f083ca8	0.53217554
9	0xbe8d8e1e	-0.2764749
10	0x3f28c359	0.65923077
11	0xbe109f84	-0.1412335
12	0xbf089863	-0.53357524
13	0x3f339fb8	0.70165586
14	0xbee99767	-0.45623323
15	0xb9eaa644	-0.00044755836
16	0x3d98675f	0.074415915
17	0x3f2e9854	0.68201184
18	0xbe53a4d2	-0.20668343
19	0x3e93537d	0.28774634
20	0xbe22066c	-0.15822762
21	0x3e8bc5dc	0.27299392
22	0x3ef1848d	0.4717144
23	0x3ed796a2	0.4210711
24	0xbf16db91	-0.5892878
25	0xbe8c95cb	-0.27458033
26	0x3f22ff18	0.6367049
27	0xbef27d0b	-0.47361025
28	0xbdd6def6	-0.10491745
29	0x3e85452c	0.26029336
30	0x3ee3e939	0.44513872
31	0x3d404a8a	0.046946086
32	0xbe0ad25f	-0.13556813
33	0xbe3d93fa	-0.1851348
34	0x3f823434	1.0172181
35	0x3f52cba0	0.8234196
36	0x3f1220e9	0.57081467
37	0x3d73cc8c	0.059521243
38	0x3e4b74e0	0.19868803
39	0xbf06184e	-0.52380836
40	0x3e957e26	0.29197806
41	0x3ea28645	0.31743065
42	0xbedeb9da	-0.43501168
43	0x3dd2d00a	0.102935866
44	0x3ee2feae	0.4433493
45	0x3d508d65	0.050916094
46	0xbf827f4c	-1.0195098
47	0xbf2ca43d	-0.6743811
48	0x3d491059	0.049087856
49	0x3f4ed4b8	0.80793333
50	0x3e1111e1	0.14166977
51	0xbe2eb318	-0.17060506
52	0x3eaca93e	0.33722872
53	0x3f792bf0	0.9733267
54	0xbe3e8558	-0.18605554
55	0x3ddc8af9	0.107686944
56	0x3d91d776	0.07121174
57	0x3f6781fa	0.90432703
58	0x3b4dba8a	0.0031391704
59	0x3e2e606d	0.17028971
60	0x3f03b6c9	0.51450783
61	0x3f798ce8	0.9748063
62	0x3f0d7b9e	0.5526675
63	0x3f80a76e	1.0051095
64	0x3e0e5e97	0.1390327
65	0xb99a4442	-0.00029424025
66	0x3f102550	0.56306934
67	0xbeda3de0	-0.42625332
68	0xbea003c8	-0.31252885
69	0xbe9c8c6a	-0.30575877
70	0x3e5ff949	0.21872438
71	0x3dc4c849	0.09608514
72	0x3dbad7cb	0.091231905
73	0x3f30f4ae	0.6912335
74	0x3f55e94b	0.835591
75	0xbe7340ad	-0.2375514
76	0xbf3839a1	-0.71962935
77	0xba05d265	-0.00051048986
78	0xb83fedfd	-4.5759592e-05
79	0xbdfab22e	-0.12241016
80	0x3f77bc78	0.96771955
81	0x3ee35788	0.4440272
82	0xb9236606	-0.00015582898
83	0x3f524e03	0.82150286
84	0xbe0c0d1f	-0.1367688
85	0xbf11f71b	-0.5701768
86	0x3e4b4031	0.19848706
87	0x3e082606	0.13295755
88	0xb83a51bf	-4.4421988e-05
89	0x3e4ef291	0.20209719
90	0xbdceccf4	-0.100976855
91	0x3ea4a2b0	0.3215537
92	0x3f31f7d1	0.6951876
93	0x3ded8211	0.11597074
94	0xbe74888f	-0.23880218
95	0x3f6480a0	0.89258766
96	0xbf30d10a	-0.6906897
97	0x3f4c7d6a	0.79878867
98	0x3dba2190	0.09088433
99	0xbe184b1d	-0.14872403
100	0x3d13be26	0.03607001
101	0x3ea32fa8	0.31872296
102	0x3ee62e5b	0.4495724
103	0x3ed555a1	0.41666892
104	0x3e296cf4	0.16545469
105	0xba194649	-0.000584696
106	0x3e351958	0.17685449
107	0x3e3ad9b8	0.18247116
108	0x3e6213fc	0.22077936
109	0x3ee2b745	0.4428045
110	0x3e5a5906	0.21323022
111	0xbe96f1f0	-0.2948146
112	0xbde5f35b	-0.11228057
113	0x3e4213df	0.18952893
114	0x3e6b5f32	0.22985533
115	0x3ee2d5c7	0.44303724
116	0x3f81ef96	1.0151241
117	0xbd8f6580	-0.070017815
118	0xb9676d13	-0.0002207051
119	0x3e5a24c1	0.21303083
120	0x3f3872ab	0.7204997
121	0x3f0c9893	0.5492031
122	0x3e8bbf74	0.27294505
123	0xbc7fbdc3	-0.015609208
124	0xbe0bdeb9	-0.1365918
125	0x3e94e17e	0.29078287
126	0xbe6d04f9	-0.23146428
127	0xbdda35dd	-0.10654805

StatefulPartitionedCall/sequential/dense/MatMul/ReadVariableOp:0 f4 [2, 2]
0	0x3e40887b	0.18802063
1	0xbed2b166	-0.4115097
2	0xbe291869	-0.16513218
3	0xbe92632b	-0.28591284

StatefulPartitionedCall/sequential/dense/BiasAdd/ReadVariableOp:0 f4 [2]
0	0xbf06b2f4	-0.5261681
1	0xbd5b5923	-0.053551804
