test/database_onnx/13TeV/ATLAS/ATLAS-SUSY-2018-31-eff/modelB.onnx (onnx, 4192 bytes, 3 tensors)

StatefulPartitionedCall/sequential_1/dense_5/MatMul/ReadVariableOp:0 f4 [128, 1]
00000000: c926 243e 50ab 763e e351 38be 17f3 b03f
00000010: 1550 afbf 6573 3cbe f6eb 62be f681 2ebe
00000020: 9529 b43d e13c ba3e 4aac a23e 9132 5c3f
00000030: 4ac0 843e 0521 34be 03f9 c43f 4005 023e
00000040: 4e00 aa3e a636 983e 6a49 0f3e 083d 653e
00000050: d0ac 803e 2189 a23e 2b29 d1bd 671f 88bd
00000060: 0882 99bf 991c 9ebe 59b6 8a3e a0fd 9c3e
00000070: 7c23 c63f 8723 d1bd 53db 103e bb32 3ebd
00000080: b6c9 bc3e 0e6a f33d 15cf 453f 9130 2a3d
00000090: 56b2 8ebd 406d 5d3e 7dc2 db3e ac90 1f3f
000000a0: f101 573e b7a5 9b3e b3e7 dcbd 464a 5c3e
000000b0: 7fa6 983e 2952 60bf d02a e43e bac3 32be
000000c0: 1810 8d3e f815 b4bc 49a9 533f d8f9 42be
000000d0: 6d68 823e d3f1 1e3e 27b6 77bd 4f54 0e3e
000000e0: 9941 dd3d 060d 313e 034f 31be a39b 403f
000000f0: 74ef db3e f88d ddbc f0f0 353f b007 6a3e
00000100: 8e96 8abd febb b13e e3e3 0ebd 81d0 903e
00000110: 1ab3 c13f efd3 1ebe 606e 2ebd 620a a33e
00000120: 384b 8b3e 7bcf 1ebd 98c2 38be 68f2 3cbe
00000130: e7e7 553e 8a8e 09be cf38 1dbe 28ce 5dbe
00000140: 55ad c6bd 5458 a5bc 2ef9 853c 99ba 613e
00000150: 7e81 81bd d29e 00be c596 a1bd 2954 a1bd
00000160: 1789 a13e a476 bd3f ae40 dbbd 8384 8dbd
00000170: 1a9b 433e f433 c7bd a5e9 fdbd ab7f 2fbe
00000180: de3c babd 2364 87be e468 3c3e dd72 aabd
00000190: 12cb d63f c630 13be 4f46 f53d 544d e1bd
000001a0: 15d1 f9bd e837 94bf b1ac 9b3f 2302 d83e
000001b0: 2fc0 13be b627 013f a55c 873d b3e3 9ebd
000001c0: 558d c9bd d777 8abd 4e79 c53f fde5 3fbe
000001d0: f0f8 b63e 6c5a 6fbe 2067 2c3f 05f6 e43d
000001e0: e7a7 73be 5a55 86be a53d 0abe 84b0 a23f
000001f0: 6812 1abe b93a 0d3f 0d98 0f3e 06d0 83be
0.1603042 0.24088788 -0.17999987 1.3824185 -1.3696314 -0.18403395 -0.22160324 -0.17041764
0.08796994 0.36374572 0.3177207 0.8601466 0.25927955 -0.17590721 1.5388492 0.12697315
0.33203357 0.29729193 0.13992849 0.22386563 0.25131845 0.31745246 -0.1021293 -0.066466145
-1.1992807 -0.30881193 0.27092245 0.3066225 1.5479579 -0.102118544 0.14146166 -0.0464351
0.36872643 0.11885463 0.7726911 0.041550223 -0.06967609 0.21623707 0.4292182 0.62330127
0.20996834 0.30399868 -0.107863806 0.21512708 0.29814526 -0.87625366 0.44563913 -0.17457476
0.2755134 -0.021983132 0.82680184 -0.1904062 0.25470296 0.15521936 -0.06047645 0.13899349
0.108035274 0.17290124 -0.17315297 0.7523748 0.42956126 -0.027045235 0.71070766 0.22854495
-0.06766997 0.3471374 -0.0348853 0.28284076 1.5132782 -0.15510534 -0.04258573 0.3184386
0.27205825 -0.038772088 -0.18042982 -0.18451846 0.20889245 -0.1343328 -0.15353702 -0.21660674
-0.09701029 -0.02018372 0.01635417 0.22043838 -0.06323527 -0.12560585 -0.07890085 -0.078773804
0.31549904 1.4801831 -0.10705696 -0.0691004 0.19102135 -0.09726706 -0.1239808 -0.17138545
-0.09093641 -0.26443586 0.18399388 -0.0832269 1.6780722 -0.14374074 0.11976301 -0.11001077
-0.12198082 -1.1579561 1.2162076 0.4218913 -0.14428781 0.5045122 0.066094674 -0.07758274
-0.0984141 -0.06761139 1.5427644 -0.18740077 0.357368 -0.23374337 0.67344856 0.11179737
-0.23794518 -0.26236993 -0.13500078 1.2710118 -0.15046084 0.5516773 0.14022847 -0.25744647

StatefulPartitionedCall/sequential_1/dense_4/MatMul/ReadVariableOp:0 f4 [1, 128]
00000000: 2368 4d40 30bf 873f a024 a2bf 14fd 81bd
00000010: 6d98 6a3f 7b51 573f 1124 1540 7d36 793f
00000020: 7c77 f73f acd1 263f 76b1 ef3e 8f9e 893c
00000030: 1ffb 1440 7424 2840 45c6 72bd f5ce 7b3f
00000040: 51fc 033f 387d 593f ebb5 a13f e962 a6bf
00000050: 2f4f ebbf bed6 59bf 63c5 543f fea3 4840
00000060: 64ea 0e3f e717 80be 60f8 b6bf 124e 0ac0
00000070: 4d3a 7cbd bee2 903f 28dc b53f c65c e4bf
00000080: 66ad fc3e 0814 f73f fabf b33d a829 0ac0
00000090: c539 d9bf 9cbd 233f e59c 89be b77b 193e
000000a0: 6401 113f 0561 8c3e 6554 3640 1613 993f
000000b0: 714a 53bf 7fc5 9f3b 5756 893e 8ca1 cebe
000000c0: 1a6a fd3e 4d2f 09c0 0e05 eebc 52dc a3bf
000000d0: ae3b 683f c586 f23f 4db6 91bf a6ca 2840
000000e0: f20b d53f 8ca6 34c0 1c8f 1140 7acf 363e
000000f0: 38a3 fe3e e58d f73f 5590 bcbd 4492 3940
00000100: f267 d7bf d368 0a3f f28f 0fc0 dba3 15c0
00000110: d624 80bd 4338 db3f 3a33 cabf bf9f a3bf
00000120: 393c 6abf 0dbe 9abf 1f1e 34c0 ca07 aabf
00000130: a303 11c0 18b0 483f 1664 febe c0bb 93bf
00000140: 60ef 6fbf 3893 d0bf 53c5 10c0 4b98 dbbf
00000150: 1e4e 183f 79ef ddbf 78d7 963f edce a9bf
00000160: 109f afbe bbbf 7fbd 8f58 94bf 3f8b 063f
00000170: ecc3 f63f 6e4d b4bf b27c bd3f 16b5 64bf
00000180: d89c b2bf 0a7d 00bf 27f3 2fc0 fbec 723f
00000190: 4eef 58bd 780e a5bf f579 fe3f b23c e7bf
000001a0: b656 bb3f c700 153d e96c 69bd fb9c 89bf
000001b0: 1e38 a03f 6166 21be 96cb ec3f 6bf9 a43f
000001c0: 64cb bebf 2de0 043f 4326 67bd 2ac5 0d3f
000001d0: 6796 98bf dfa9 4abf 5155 23be 4e6a 3740
000001e0: 2dc5 ac3f 3a98 d23e 7030 02c0 83ff 88bd
000001f0: 1983 093f 34b3 943e 2822 933f 97ce afbf
3.209481 1.0605221 -1.2667427 -0.06347099 0.91638833 0.84108704 2.3303263 0.9734877
1.9333339 0.65163684 0.4681508 0.01679924 2.3278272 2.627225 -0.059271116 0.98362666
0.5155688 0.84956694 1.2633642 -1.2998935 -1.838354 -0.85093296 0.8311369 3.1350093
0.558264 -0.25018236 -1.4294548 -2.161015 -0.061579037 1.1319196 1.4207811 -1.7840812
0.49351043 1.9302988 0.08776851 -2.1587925 -1.6970755 0.63961196 -0.26877514 0.149886
0.56642747 0.2741777 2.848901 1.195895 -0.82535464 0.0048758383 0.26823685 -0.40357625
0.49495012 -2.143512 -0.029055145 -1.2801611 0.90716064 1.8947378 -1.1383759 2.6373687
1.664427 -2.8226652 2.2743597 0.17852584 0.497339 1.9340178 -0.09207217 2.8995523
-1.6828597 0.540662 -2.2431607 -2.338126 -0.06257026 1.7126545 -1.5796883 -1.2783126
-0.9149814 -1.2089249 -2.8143384 -1.3283627 -2.265847 0.783937 -0.49685735 -1.1541672
-0.9372463 -1.6294928 -2.2620437 -1.7155851 0.594942 -1.7338706 1.1784506 -1.3266274
-0.34301043 -0.062438708 -1.1589526 0.5255622 1.9278541 -1.408613 1.4803679 -0.89338815
-1.3954115 -0.50190794 -2.7492158 0.94892853 -0.052962594 -1.289504 1.9880968 -1.8065398
1.4635837 0.036377694 -0.05698863 -1.0751032 1.2517126 -0.1576171 1.849963 1.2888616
-1.490582 0.51904565 -0.056432974 0.55378973 -1.1920899 -0.7916545 -0.15950514 2.8658633
1.3497673 0.41131765 -2.0342064 -0.0668936 0.53715664 0.2904297 1.1494799 -1.3734921

StatefulPartitionedCall/sequential_1/dense_4/BiasAdd/ReadVariableOp:0 f4 [128]
00000000: f18e 633f db90 763f 43d4 28bf 04cd e43f
00000010: 0128 1bbf d5d4 3abf 4f46 51bf c4d8 43bf
00000020: 8050 9d3f e05d 793f 8105 923f 921d d93f
00000030: a918 6c3f a087 57bf 3060 d33f fbab b03f
00000040: 0b01 883f aeeb 763f 74c6 8e3f bf7a 8e3f
00000050: 307d 843f e835 a83f 57d6 2dbf b78a 4dbf
00000060: e7d7 5dbf 6267 81bf 9106 6e3f 55bf 653f
00000070: 5b5d d83f e4a0 31bf e70a 8b3f a69e 13bf
00000080: 828f 843f ed4c 863f 367a b83f 328e 7b3f
00000090: ec24 16bf 66c1 a73f 253c c93f 9e30 b13f
000000a0: 335f c13f 2352 d03f 4cde 56bf a2a9 783f
000000b0: 147f b23f 11bc bebf bad0 a43f bd53 7bbf
000000c0: e3a6 a03f 2832 9f3d 24fe c53f 634f 28bf
000000d0: e5f9 7b3f 028c 783f c399 1fbf d695 7b3f
000000e0: b063 973f a9a6 2f3f 8458 4ebf eb78 8b3f
000000f0: 755c 7d3f bc3f d6be c690 a43f 03c3 613f
00000100: 844b 15bf f3ad 833f 60d5 89be 0538 4d3f
00000110: eb16 dc3f da23 3ebf 8057 09bf 9827 593f
00000120: b2b1 b73f 015d a23e 501a 2bbf 8807 1ebf
00000130: 5ef2 7f3f ea2e 30bf 5db2 63bf 2886 33bf
00000140: 2a21 27bf 7fb3 8f3e 5d2a 553e e382 863f
00000150: b5ec d6be 3abd 1cbf dbf4 1abf 0a26 02bf
00000160: f8ce c83f 0b91 dc3f cc4c 29bf 22ab d6be
00000170: 6eea 6e3f cd84 07bf 99db 35bf 2d5a 22bf
00000180: aa60 06bf 7a66 2bbf 34d9 303f c83c 23bf
00000190: 1f67 c03f 0bbf 22bf 416d 843f b4e1 1ebf
000001a0: ab44 35bf 6c79 b8bf 82f9 e13f 8400 7e3f
000001b0: 85ed 3bbf 2d52 d33f 3b2e 9d3f 72a3 1bbf
000001c0: 44d0 0cbf 40bf d1be c341 cd3f 3f46 1abf
000001d0: 0781 593f 19d8 29bf 9530 a03f 1d68 813f
000001e0: 6d06 40bf 23c9 3abf 1cd4 28bf 0ee9 f33f
000001f0: 7749 11bf c9f6 863f d1df 973f 3980 10bf
0.88889986 0.9631478 -0.65948886 1.7875066 -0.60607916 -0.72981006 -0.8174791 -0.76502633
1.2290192 0.97408867 1.140793 1.6962149 0.9222513 -0.8419132 1.6513729 1.3802484
1.0625318 0.9645337 1.1154313 1.1131209 1.0350704 1.3141451 -0.6790518 -0.8028979
-0.86657566 -1.0109675 0.9297877 0.89745075 1.690349 -0.69386125 1.0862702 -0.57663953
1.0356295 1.0492226 1.4412296 0.9826385 -0.5865009 1.3105896 1.572148 1.3842962
1.5107177 1.6275066 -0.8393295 0.9713384 1.3945031 -1.4901143 1.2876198 -0.9817465
1.255093 0.077732384 1.5468183 -0.65746135 0.98428184 0.97088635 -0.62343997 0.98275506
1.1827297 0.6861368 -0.80603814 1.0896276 0.98969203 -0.418455 1.2856681 0.8818819
-0.5831835 1.028746 -0.26920605 0.80163604 1.7194494 -0.74273455 -0.5364914 0.8482604
1.4351103 0.3171158 -0.66837025 -0.6173024 0.999792 -0.68821585 -0.88944036 -0.7012658
-0.6528498 0.28066632 0.20816942 1.0508693 -0.41977468 -0.61226237 -0.6052987 -0.50839293
1.5688162 1.7231764 -0.6613281 -0.4192744 0.9332646 -0.5293701 -0.71038204 -0.6341885
-0.5249125 -0.6695324 0.69081426 -0.6376462 1.503147 -0.6357276 1.0345842 -0.62063146
-0.70807904 -1.4412055 1.7654269 0.99219537 -0.734093 1.6509453 1.2279733 -0.6079627
-0.5500529 -0.40966225 1.6035694 -0.6026344 0.84962505 -0.66345364 1.2514826 1.0109898
-0.75009805 -0.7296316 -0.65948653 1.9055498 -0.56752723 1.0544063 1.1865178 -0.5644565
