test/database_onnx/13TeV/ATLAS/ATLAS-SUSY-2018-31-eff/modelA.onnx (onnx, 7763 bytes, 5 tensors)

StatefulPartitionedCall/sequential_2/dense_9/MatMul/ReadVariableOp:0 f4 [3, 252]
0.09693966 0.9199725 0.35498944 1.3789514 0.60405385 -0.59523904 0.5622774 1.3827329
-0.08237221 1.121942 -0.85679203 -0.36138156 -0.58030087 0.6862886 0.7704076 1.0788889
1.0729964 0.22620027 0.7909338 -0.049489595 -1.302441 1.5034052 0.36861533 0.5533249
0.8849951 0.40078136 -0.11428373 0.9765138 -1.6316034 0.07357031 0.14439577 -0.26845166
-0.039794005 -0.7881935 -0.5958773 1.0449636 0.9078194 0.42818823 1.6212038 0.32987487
-0.047667343 0.0363714 0.048429456 1.2678943 0.68031406 -0.46560022 -0.36771828 0.72848123
0.5273058 1.381889 -0.6614567 -0.6113135 -0.2569905 -0.29765022 1.610584 1.096434
0.3618565 0.93556184 -0.63006485 -0.7054994 -0.63214666 -0.34826356 -0.63405794 -0.67226166
0.8102083 0.83380055 0.3460949 0.11322552 0.54409677 0.27547464 -0.39850828 -0.33903378
-1.0093786 -0.538933 -0.10800261 -0.41652814 -0.32419318 -0.72811955 -0.5522303 1.5448958
0.016776664 0.39122066 -0.7349686 0.7625937 -0.92827225 -0.49716356 0.27838665 0.070357986
-0.5956555 0.66492766 0.93285954 0.6308243 -0.79588985 -0.14424919 0.036502287 -1.0248282
-0.2856687 -1.4629302 -1.124271 -0.7567283 0.2555923 0.42434508 -0.017199328 -0.004814945
0.5700275 0.25414813 1.088877 -1.6200541 -0.6185262 -0.92399365 -0.14400074 0.8156887
0.9218847 0.2038279 0.83628887 0.038087204 1.3282857 -0.06619918 1.6296504 0.16982818
0.034784157 -0.13412637 2.0184577 -0.84073645 0.463566 0.55145985 0.12435484 1.6587876
1.0140836 1.4230478 -0.48756036 0.7153055 -0.16110428 -0.20836276 0.6948809 -0.27282906
0.8494104 0.085949734 -0.023725223 -0.016327696 -0.22955823 0.16579784 -0.11007608 1.1365342
-0.58534014 0.70850575 -0.1513723 -0.64216375 0.60534745 -0.018713512 0.17250863 0.6586687
0.12953356 -0.17604066 -0.4050894 1.1669668 1.3474354 -0.32396236 1.5658851 0.29634926
-0.26084322 -0.8567243 -0.77403307 3.5221557e-05 -0.49430105 -0.9546288 0.13226989 -0.30140084
0.6365428 1.0859544 1.052469 0.16199563 0.1393867 1.2419579 -0.5012124 -0.369531
0.14288135 -0.9789937 1.3781903 -1.2492747 -0.27620545 0.28505775 0.0068078344 -0.58396
0.44685638 -0.5855466 0.12113669 0.48503065 0.12882727 0.020073244 0.9455177 0.067973465
0.17901269 -0.116517596 0.018715307 -0.14960787 0.09293569 -0.17145635 0.064058304 -0.6634575
-0.32441232 -2.4353926 -0.07359792 -0.10520844 -0.044611834 -0.11504225 -0.1326013 -0.2594359
0.83061033 -0.37989616 -0.70268995 -0.54255277 0.60417354 -0.16300586 -1.0094832 0.026735831
-0.0519479 0.031652957 -0.49848372 -0.1142919 0.5302516 0.771052 0.8115739 0.96242493
-0.026446348 -1.256485 1.0273359 0.13370578 0.32795632 -0.7315433 -0.088980496 -0.7967536
0.2825876 0.41867027 -0.35344872 0.42715943 0.4524918 -0.33289444 0.54257786 -1.2344848
0.054463085 -0.63343954 0.1871384 0.38226295 -0.35520163 0.0006466693 1.0736136 -0.121375695
1.4259397 0.61582446 -0.5140435 0.38674194 -0.9036508 1.0387894 0.10096595 0.809467
00000000: 4d88 c63d 5183 6b3f 2dc1 b53e 7b81 b03f
00000010: 46a3 1a3f 9661 18bf 69f1 0f3f 64fd b03f
00000020: c3b2 a8bd cc9b 8f3f b956 5bbf 0107 b9be
00000030: 998e 14bf 9cb0 2f3f 6f39 453f 0819 8a3f
00000040: f257 893f 0ba1 673e a37a 4a3f 9ab5 4abd
00000050: 63b6 a6bf 956f c03f 26bb bc3e b3a6 0d3f
00000060: 0a8f 623f 3733 cd3e 970d eabd cffc 793f
00000070: 61d8 d0bf 08ac 963d 7cdc 133e 7f72 89be
00000080: 0aff 22bd 0dc7 49bf 6a8b 18bf 5ec1 853f
00000090: da66 683f 7d3b db3e 9b83 cf3f 5ce5 a83e
000000a0: d53e 43bd 2dfa 143d f75d 463d 5c4a a23f
000000b0: 1029 2e3f 2763 eebe 9245 bcbe bf7d 3a3f
000000c0: 83fd 063f bde1 b03f 3a55 29bf 0b7f 1cbf
000000d0: 4294 83be 9c65 98be 9e27 ce3f f357 8c3f
000000e0: 4145 b93e fb80 6f3f ee4b 21bf 9c9b 34bf
000000f0: 5dd4 21bf 9a4f b2be 9f51 22bf 5719 2cbf
00000100: d069 4f3f f473 553f 5a33 b13e c8e2 e73d
00000110: ed49 0b3f 030b 8d3e 4709 ccbe d695 adbe
00000120: 5133 81bf 83f7 09bf 7930 ddbd 2d43 d5be
00000130: a6fc a5be 0b66 3abf f75e 0dbf 25bf c53f
00000140: 376f 893c 134e c83e e726 3cbf 5739 433f
00000150: 40a3 6dbf 398c febe b288 8e3e d917 903d
00000160: e17c 18bf b338 2a3f e2cf 6e3f b47d 213f
00000170: 70bf 4bbf 0fb6 13be 6c83 153d 922d 83bf
00000180: 2b43 92be 4c41 bbbf 1de8 8fbf f2b8 41bf
00000190: fedc 823e c243 d93e 9be5 8cbc b0c6 9dbb
000001a0: 52ed 113f b41f 823e 5260 8b3f ef5d cfbf
000001b0: bc57 1ebf d98a 6cbf ee74 13be fad0 503f
000001c0: a300 6c3f 43b8 503e 0717 563f 5401 1c3d
000001d0: 4405 aa3f 7093 87bd 6298 d03f 70e7 2d3e
000001e0: d579 0e3d 6c58 09be 692e 0140 813a 57bf
000001f0: 8658 ed3e 792c 0d3f c0ad fe3d 2753 d43f
00000200: 7ecd 813f 6e26 b63f 83a1 f9be 431e 373f
00000210: 85f8 24be 0c5d 55be b7e3 313f 40b0 8bbe
00000220: f672 593f 6a06 b03d 665b c2bc a9c1 85bc
00000230: 5011 6bbe e9c6 293e 916f e1bd f479 913f
00000240: dad8 15bf a260 353f 5701 1bbe d864 24bf
00000250: 0df8 1a3f 144d 99bc 1aa6 303e 839e 283f
00000260: 72a4 043e 0144 34be e167 cfbe 2b5f 953f
00000270: c378 ac3f 65de a5be ec6e c83f 17bb 973e
00000280: 3e8d 85be 4952 5bbf 0827 46bf dcba 1338
00000290: 0715 fdbe 8e62 74bf c271 073e 3651 9abe
000002a0: 78f4 223f 8e00 8b3f 4eb7 863f 2fe2 253e
000002b0: 63bb 0e3e 7af8 9e3f 754f 00bf 2b33 bdbe
000002c0: 7d4f 123e 559f 7abf 8a68 b03f 3ce8 9fbf
000002d0: cd6a 8dbe 17f3 913e 4114 df3b 677e 15bf
000002e0: 5cca e43e 62e6 15bf 8316 f83d f055 f83e
000002f0: 4ceb 033e a570 a43c 730d 723f ac35 8b3d
00000300: 1a4f 373e c7a0 eebd d850 993c ce32 19be
00000310: 1155 be3d 4192 2fbe 0031 833d 5ad8 29bf
00000320: 5f19 a6be 79dd 1bc0 82ba 96bd 8677 d7bd
00000330: e6ba 36bd 459b ebbd a3c8 07be c8d4 84be
00000340: e1a2 543f c081 c2be 7de3 33bf bde4 0abf
00000350: 1eab 1a3f 02eb 26be bf36 81bf 1a05 db3c
00000360: 52c7 54bd 88a6 013d 4239 ffbe df11 eabd
00000370: 92be 073f aa63 453f 4fc3 4f3f 7b61 763f
00000380: 03a6 d8bc 80d4 a0bf be7f 833f 2bea 083e
00000390: e4e9 a73e 6c46 3bbf 683b b6bd 0bf8 4bbf
000003a0: 52af 903e f35b d63e 3bf7 b4be a4b4 da3e
000003b0: 01ad e73e 2471 aabe 62e6 0a3f 9903 9ebf
000003c0: af14 5f3d 1829 22bf 35a1 3f3e f8b7 c33e
000003d0: fddc b5be 3e85 293a 2c6c 893f d293 f8bd
000003e0: 3185 b63f aca6 1d3f 5b98 03bf 0a03 c63e
000003f0: a955 67bf 0df7 843f 3cc7 ce3d 3b39 4f3f

StatefulPartitionedCall/sequential_2/dense_9/BiasAdd/ReadVariableOp:0 f4 [252]
1.1221589 -0.9939462 -1.4182757 1.094531 1.0708618 1.1036966 0.9707167 -1.0390468
-0.36427435 -0.94418716 1.2118962 0.8876385 0.8777631 -0.9552956 -1.0199324 1.8562423
1.0324287 2.619187 -1.2731808 0.9616404 -0.24702342 0.78593946 -0.98745114 0.8834544
1.4486784 -0.8673614 -0.7536338 1.8557938 0.6364746 0.83961046 0.6565562 1.0033221
2.4626484 1.9588082 -0.7740767 -1.0180146 -1.0216585 0.84426665 1.3217626 0.90809494
1.1376772 -0.802518 1.61489 1.8497434 2.043587 0.7579366 -1.1216763 1.0593569
0.88375145 -0.9415018 -0.9594994 -0.8982787 1.484454 -0.8430011 1.0696669 -1.3063214
-1.0117099 -0.3085225 -0.82046163 1.2318672 0.9738297 0.93159235 -0.5567139 -0.96887994
-0.99757284 -1.2576591 0.8379496 -0.5753792 -1.0426764 -0.36533362 0.87304604 0.5730446
-0.83186615 0.097980805 1.1161635 -0.9802036 0.8249926 1.3829293 -1.0626308 -1.3045391
1.0261935 1.1842258 -0.10229943 0.95324415 -0.59123564 1.0190735 1.4985706 1.0798862
1.0400357 1.0017645 -0.7609702 2.0948384 -0.90848714 1.4400374 1.2886862 -0.23915488
-1.1894574 1.0058283 1.5242493 0.06718503 0.9261636 1.276374 0.831992 -0.33107093
1.4144887 -1.0700243 -0.35647848 1.735808 0.79854953 2.1226041 1.1961833 1.0628561
1.2783054 2.2061646 0.9424638 2.0369105 -0.798776 1.6416856 0.96605676 -1.1802957
-0.7542692 1.2736001 1.24302 0.70176816 -1.4202124 -0.89416146 -0.7037264 -0.5166858
-0.57635 -0.8132416 -0.42938307 -0.90050393 0.88990253 -0.87528616 0.8286334 -0.59943765
0.7680335 -0.9226562 1.3166354 2.0765262 -0.7617188 2.0843184 1.1402774 -0.86124206
1.1123838 0.5962658 -0.8682054 0.8940234 -1.193104 1.4589069 -1.2529227 1.0918455
-0.99323905 1.3209244 0.69281334 -1.0077237 1.1687196 0.9846097 0.7314964 1.5443054
-0.45214474 0.9586315 1.1696671 -0.0015570454 0.6384416 0.38464457 2.1666617 -0.84510875
0.90435094 1.792025 1.2572759 0.729899 -0.98019654 0.9670675 0.75184315 -0.6371264
-0.9114684 -0.7657129 -0.87041986 1.1136062 -0.7729545 0.93720484 -0.33970523 -0.78040975
-0.9456123 0.8373596 0.751937 -0.9549102 -0.9311225 -0.8687092 -0.95616734 -0.9189383
-0.99132955 1.1596017 -0.5339207 0.7735327 -0.82269645 -0.73497546 0.3536075 1.2219702
1.0893921 0.73473144 1.036704 1.1637412 -0.58040076 -0.8675605 -0.07451609 0.9539758
1.6055846 -0.8209284 1.1412482 1.0422885 0.61302084 -0.83499324 0.9506679 1.2162328
-0.93621147 0.98363006 -0.11044398 1.7296962 2.2081919 -1.3372324 -0.9311429 0.97267604
0.43769333 -0.96084607 -1.0889212 -0.796209 -1.1304355 -0.5347377 -0.30505285 0.74176395
0.8837503 -1.0144932 -0.89840275 -1.1050081 -1.0055355 -0.7236186 -0.96581405 1.660651
-0.43455774 -0.9437389 -1.2995884 0.79182684 -0.7403433 1.1458384 1.1427268 1.3566884
1.467729 0.9704653 1.230235 2.4989824
00000000: e7a2 8f3f 4273 7ebf 0f8a b5bf 9819 8c3f
00000010: 0012 893f ee45 8d3f e480 783f 7cff 84bf
00000020: 2b82 babe 40b6 71bf 6a1f 9b3f 473c 633f
00000030: 15b5 603f 418e 74bf 258d 82bf 5999 ed3f
00000040: a026 843f c3a0 2740 97f7 a2bf 112e 763f
00000050: b5f3 7cbe 5433 493f 99c9 7cbf 112a 623f
00000060: 4b6e b93f 660b 5ebf 25ee 40bf a78a ed3f
00000070: 00f0 223f b6f0 563f 1114 283f dc6c 803f
00000080: 089c 1d40 3aba fa3f e429 46bf 4d4e 82bf
00000090: b5c5 82bf dc21 583f 842f a93f e978 683f
000000a0: 689f 913f d271 4dbf b7b4 ce3f 64c4 ec3f
000000b0: 21ca 0240 2208 423f 1793 8fbf 0299 873f
000000c0: 893d 623f 4306 71bf c1a1 75bf 98f5 65bf
000000d0: 9702 be3f ecce 57bf d8ea 883f 8a35 a7bf
000000e0: b67f 81bf a9f6 9dbe c609 52bf d3ad 9d3f
000000f0: e74c 793f d67c 6e3f cd84 0ebf 8408 78bf
00000100: ef60 7fbf f9fa a0bf dd83 563f 0d4c 13bf
00000110: 6c76 85bf 020d bbbe f27f 5f3f 0db3 123f
00000120: 2ef5 54bf 29aa c83d 72de 8e3f a0ee 7abf
00000130: b732 533f d403 b13f 4904 88bf 23fb a6bf
00000140: 4f5a 833f b694 973f 5d82 d1bd cf07 743f
00000150: 385b 17bf 0071 823f 29d1 bf3f b639 8a3f
00000160: e41f 853f d239 803f f1ce 42bf d511 0640
00000170: 9d92 68bf 2553 b83f abf3 a43f 04e5 74be
00000180: 2440 98bf fbbe 803f 9a1a c33f 4e98 893d
00000190: 0f19 6d3f 3960 a33f 6dfd 543f 2182 a9be
000001a0: f70d b53f 8ef6 88bf 5984 b6be f52e de3f
000001b0: be6d 4c3f bfd8 0740 891c 993f ab0b 883f
000001c0: 839f a33f cd31 0d40 4f45 713f be5c 0240
000001d0: 957c 4cbf c122 d23f 7f4f 773f ee13 97bf
000001e0: c917 41bf 5405 a33f 481b 9f3f 14a7 333f
000001f0: 85c9 b5bf c4e7 64bf 6a27 34bf 8545 04bf
00000200: ac8b 13bf 9a30 50bf 19d8 dbbe 6d87 66bf
00000210: a7d0 633f c112 60bf 5221 543f bf74 19bf
00000220: d89d 443f 3233 6cbf 8287 a83f cee5 0440
00000230: 0100 43bf 7965 0540 9cf4 913f 5c7a 5cbf
00000240: 9862 8e3f e0a4 183f b642 5ebf b8de 643f
00000250: a2b7 98bf 76bd ba3f c55f a0bf 98c1 8b3f
00000260: ea44 7ebf 0d14 a93f 375c 313f 17fd 80bf
00000270: 9b98 953f 620f 7c3f 5943 3b3f cdab c53f
00000280: 847f e7be e068 753f a7b7 953f c615 ccba
00000290: e970 233f 22f0 c43e 96aa 0a40 0c59 58bf
000002a0: 8b83 673f 1361 e53f 6bee a03f a9da 3a3f
000002b0: 29ee 7abf bc91 773f cb78 403f b71a 23bf
000002c0: fe55 69bf c305 44bf d6d3 5ebf a68a 8e3f
000002d0: 59e0 45bf a8ec 6f3f d8ed adbe efc8 47bf
000002e0: a613 72bf 335d 563f f17e 403f ff74 74bf
000002f0: 0b5e 6ebf ba63 5ebf 62c7 74bf 8a3f 6bbf
00000300: c6c7 7dbf d46d 943f 07af 08bf 3d06 463f
00000310: 3c9c 52bf 5a27 3cbf 0b0c b53e 8569 9c3f
00000320: 3371 8b3f 5c17 3c3f b7b2 843f 79f5 943f
00000330: 2595 14bf 7218 5ebf e49b 98bd c237 743f
00000340: cc83 cd3f 5d28 52bf 6c14 923f b669 853f
00000350: efee 1c3f 1ec2 55bf f95e 733f 84ad 9b3f
00000360: 8eab 6fbf 2ecf 7b3f 7430 e2bd af66 dd3f
00000370: 0453 0d40 6e2a abbf 625f 6ebf 4c01 793f
00000380: 5719 e03e 02fa 75bf c561 8bbf 5ad4 4bbf
00000390: 1cb2 90bf 92e4 08bf e32f 9cbe 3ee4 3d3f
000003a0: 763d 623f eada 81bf b9fd 65bf e870 8dbf
000003b0: 63b5 80bf 123f 39bf 973f 77bf 3690 d43f
000003c0: 5a7e debe df98 71bf ea58 a6bf 2ab5 4a3f
000003d0: 2387 3dbf d5aa 923f df44 923f f7a7 ad3f
000003e0: 8bde bb3f 6a70 783f 5778 9d3f 54ef 1f40

StatefulPartitionedCall/sequential_2/dense_8/MatMul/ReadVariableOp:0 f4 [3, 3]
-0.7014957 0.06552814 0.7582855 0.80450857 0.08183312 0.83250386 0.1908105 -0.886556
0.21890005
00000000: 3995 33bf 9e33 863d 001f 423f 46f4 4d3f
00000010: 1f98 a73d f91e 553f d463 433e 56f5 62bf
00000020: 5627 603e

StatefulPartitionedCall/sequential_2/dense_8/BiasAdd/ReadVariableOp:0 f4 [3]
1.1912202 -1.2790288 0.024570664
00000000: e779 983f 37b7 a3bf 6b48 c93c

StatefulPartitionedCall/sequential_2/dense_10/MatMul/ReadVariableOp:0 f4 [252, 1]
0.12174021 -0.24337363 -0.40259737 0.13490291 0.024685191 0.09771859 0.1280354 -0.18106972
-0.005081155 -0.14397037 0.1132764 0.081000514 0.12563516 -0.10079242 -0.13204725 0.6948968
0.04643902 0.5637226 -0.15570298 0.08954608 -0.33036396 0.29020846 -0.06721345 0.08693128
0.07784832 -0.10890395 -0.042488933 0.29177406 0.7449567 0.06456506 -0.06717166 0.19597907
1.2538644 0.28115293 -0.06356349 -0.17201392 -0.3263081 0.08552202 0.22166568 0.22002412
0.22708943 -0.21268687 0.11042761 0.22009657 0.43709087 0.22190407 -0.11134727 0.068891965
0.12939806 -0.1290404 -0.10231616 -0.040597133 1.0945225 -0.039026733 0.40048373 -0.23450428
-0.07097864 -0.09231933 -0.071901165 0.055493094 0.17457855 0.12323283 -0.1345315 -0.11627258
-0.06899297 -0.2292501 0.061992906 -0.17145069 -0.17298284 -0.039774403 0.17711706 0.07802866
-0.05970914 -0.035095286 0.27002144 -0.041275248 0.057188135 0.0592684 -0.06031939 -0.15172504
0.12361343 0.20908864 -0.06423065 0.018311514 -0.09876288 0.071235955 0.2383149 0.076927125
0.24622104 0.256465 -0.19966541 0.36573893 -0.12497858 0.18695901 0.9038183 -0.14724106
-0.16020727 0.19316262 0.3562861 -0.121765494 0.08534222 0.06384788 0.1959238 -0.6299658
0.060993373 -0.1882476 -0.2527711 0.11371955 0.21145181 0.22432677 0.07069001 0.14952467
0.15780649 0.55385524 0.10131702 1.0974097 -0.3247259 0.09254055 0.094420426 -0.11775562
1.0167611 0.2234217 0.29234824 0.16579874 -0.30999616 -0.16683184 -0.051118027 -0.37830982
-0.07709548 -0.2541667 -0.05211666 -0.1753161 0.036363948 -0.20293812 0.09190609 -0.18268473
0.067772195 -0.08673511 0.09091995 1.0716884 -0.03390032 0.7971501 0.17000079 -0.17608064
0.096117 0.13667084 -0.17706744 0.15117636 -0.11070588 0.057510074 -0.15844616 0.16198401
-0.13210575 0.18791126 0.14320461 -0.13370793 0.041020166 0.084791474 0.22975378 0.08883356
-0.022308335 0.05154645 0.13178849 4.7987487e-05 0.20631076 -0.14856504 0.931719 -0.07464623
0.13911325 0.24803479 0.07770137 0.08369253 -0.1927515 0.15508714 0.021417677 -0.12636736
-0.2176203 -0.109548435 -0.16395657 0.5274651 -0.053585086 0.1279553 0.6489544 -0.10147175
-0.18178737 0.08431812 0.050501466 -0.14572759 -0.0707985 -0.067793086 -0.051694013 -0.21984355
-0.207746 0.16257615 -0.13451125 0.16276506 -0.16876131 -0.38358328 0.35874563 0.16833776
0.3751952 0.4543696 0.25233376 0.17718466 -0.032267 -0.10988183 0.040506102 0.2071846
0.24726829 -0.18582413 0.09430302 0.11831452 0.111199364 -0.103532545 0.1467134 0.11517959
-0.73384905 0.10124334 -0.03425711 0.4442673 0.34332335 -0.164392 -0.21861112 0.101296335
0.8763121 -0.15027742 -0.2140185 -0.077119455 -0.18525721 -0.18605103 -0.006417686 0.1253601
0.23635219 -0.09939113 -0.18129188 -0.21399514 -0.42216527 -0.038033396 -0.04941945 0.40570432
-0.03302468 -0.08227543 -0.10384522 0.1406731 -0.08276402 0.118539095 0.09038738 0.1593186
0.29007363 0.03646912 0.027597882 0.7694825
00000000: ee52 f93d f036 79be 3e21 cebe fd23 0a3e
00000010: 9938 ca3c af20 c83d b61b 033e 576a 39be
00000020: d17f a6bb f86c 13be 75fd e73d 99e3 a53d
00000030: 81a6 003e 426c cebd 6537 07be c2e4 313f
00000040: d836 3e3d 2050 103f 9a70 1fbe ef63 b73d
00000050: 7725 a9be 3496 943e 35a7 89bd 0709 b23d
00000060: f16e 9f3d 0909 dfbd e008 2ebd 6963 953e
00000070: 7bb5 3e3f b03a 843d 4c91 89bd bdae 483e
00000080: a17e a03f 47f3 8f3e 932d 82bd 6b24 30be
00000090: db11 a7be 2b26 af3d 54fc 623e 014e 613e
000000a0: 228a 683e 96ca 59be df27 e23d ff60 613e
000000b0: 60ca df3e d23a 633e 0a0a e4bd 3b17 8d3d
000000c0: ed80 043e 2b23 04be 238b d1bd 2e49 26bd
000000d0: 5019 8c3f 7fda 1fbd 340c cd3e e421 70be
000000e0: 405d 91bd eb11 bdbd eb40 93bd ba4c 633d
000000f0: b8c4 323e 7e61 fc3d a0c2 09be 5220 eebd
00000100: 304c 8dbd 8ac0 6abe 46ec 7d3d c590 2fbe
00000110: 6a22 31be 7cea 22bd 2d5e 353e 7dcd 9f3d
00000120: 9291 74bd 13c0 0fbd 4040 8a3e 3c10 29bd
00000130: 1b3e 6a3d 6cc3 723d 7711 77bd cf5d 1bbe
00000140: 0a29 fd3d 551b 563e 5c8b 83bd 0702 963c
00000150: 3144 cabd 28e4 913d d208 743e f88b 9d3d
00000160: 5e21 7c3e 614f 833e 1775 4cbe 2242 bb3e
00000170: c5f4 ffbd 2f72 3f3e a360 673f 5cc6 16be
00000180: 600d 24be 6ccc 453e 226b b63e 3060 f9bd
00000190: e7c7 ae3d adc2 823d 40a0 483e 7045 21bf
000001a0: 30d4 793d fbc3 40be 376b 81be cce5 e83d
000001b0: d386 583e ebb5 653e edc5 903d ff1c 193e
000001c0: 0698 213e 75c9 0d3f 4c7f cf3d ec77 8c3f
000001d0: 7942 a6be e685 bd3d 7f5f c13d dc29 f1bd
000001e0: 3a25 823f a8c8 643e abae 953e 25c7 293e
000001f0: d1b7 9ebe f7d5 2abe 2361 51bd d3b1 c1be
00000200: 3ce4 9dbd 2322 82be 4778 55bd 1086 33be
00000210: 5df2 143d 03cf 4fbe 4339 bc3d b511 3bbe
00000220: 26cc 8a3d 2da2 b1bd 3d34 ba3d 162d 893f
00000230: 10db 0abd 0712 4c3f b014 2e3e 7c4e 34be
00000240: fdd8 c43d 71f3 0b3e 2b51 35be facd 1a3e
00000250: c4b9 e2bd af8f 6b3d b63f 22be 23df 253e
00000260: bb46 07be cf6b 403e 3ba4 123e bbea 08be
00000270: c304 283d 27a7 ad3d 9344 6b3e 5fee b53d
00000280: f8bf b6bc 5f22 533d 90f3 063e 2c46 4938
00000290: 2143 533e 6f21 18be 2385 6e3f 1fe0 98bd
000002a0: b473 0e3e d5fc 7d3e e521 9f3d fd66 ab3d
000002b0: a660 45be 2acf 1e3e 2074 af3c 7266 01be
000002c0: dbd7 5ebe ee5a e0bd 3be4 27be f407 073f
000002d0: 097c 5bbd b706 033e e021 263f 6cd0 cfbd
000002e0: 7826 3abe faae ac3d a0da 4e3d 9d39 15be
000002f0: cefe 90bd 1ad7 8abd 1abd 53bd ab1e 61be
00000300: 5ebb 54be 5d7a 263e 51bd 09be e2ab 263e
00000310: c4cf 2cbe 0765 c4be 82ad b73e bc60 2c3e
00000320: 9619 c03e 22a3 e83e e431 813e e56f 353e
00000330: 672a 04bd ba09 e1bd bae9 253d 3328 543e
00000340: e633 7d3e ae48 3ebe f121 c13d e24e f23d
00000350: 7ebc e33d df08 d4bd 0a3c 163e 47e3 eb3d
00000360: 88dd 3bbf ab58 cf3d 2f51 0cbd 0177 e33e
00000370: 14c8 af3e 6056 28be 98db 5fbe 7474 cf3d
00000380: fd55 603f 53e2 19be aa27 5bbe cef0 9dbd
00000390: 11b4 3dbe 2984 3ebe 744b d2bb 665e 003e
000003a0: 4f06 723e 948d cbbd 94a4 39be 8b21 5bbe
000003b0: 0c26 d8be e8c8 1bbd 0d6c 4abd 7ab8 cf3e
000003c0: e344 07bd 0580 a8bd cdac d4bd 9c0c 103e
000003d0: 2f80 a9bd a0c4 f23d 051d b93d 6a24 233e
000003e0: 8884 943e a560 153d f414 e23c cefc 443f
