test/database_onnx/13TeV/ATLAS/ATLAS-SUSY-2018-31-eff/modelC.onnx (onnx, 264695 bytes, 7 tensors)

StatefulPartitionedCall/sequential_1/dense_7/MatMul/ReadVariableOp:0 f4 [252, 1]
000000 d0 61 9b b8 40 e6 c2 3d a8 33 cd b5 cb 22 18 37
       -7.409195e-05 0.09516573 -1.5288724e-06 9.068007e-06
000010 e4 d3 31 b8 9a 34 a2 b7 7a 44 7c b8 83 89 34 b8
       -4.2397427e-05 -1.93364e-05 -6.0145256e-05 -4.3043412e-05
000020 72 61 4a b7 26 5d b1 3e b7 6a e6 b7 08 88 52 36
       -1.20628265e-05 0.3464138 -2.746783e-05 3.137162e-06
000030 6e 13 ad 37 52 4e 1b 3d 79 6b 84 38 35 8a 0a 3e
       2.0632255e-05 0.03791649 6.314269e-05 0.13529284
000040 92 77 bb 38 e2 3e e5 3d 5f 68 36 38 42 4d b8 b7
       8.9391266e-05 0.111936346 4.3489385e-05 -2.1970485e-05
000050 1c d0 8a 3d fd fa b7 3d f2 a8 e9 3d 39 b9 0c 38
       0.06777975 0.08983419 0.11409177 3.3551103e-05
000060 55 cd 05 3e a4 d8 05 36 3d 9d 10 38 64 75 8b 3e
       0.13066609 1.9944646e-06 3.4478715e-05 0.27238
000070 24 68 58 3d 98 41 3c b8 48 0d c9 b5 62 14 8c bd
       0.05283369 -4.488378e-05 -1.4979532e-06 -0.06839825
000080 62 18 cf 3d 74 06 86 b6 80 35 1d b8 de 0c 72 37
       0.101120725 -3.9942624e-06 -3.7481543e-05 1.442732e-05
000090 7b 3a 84 bd 61 3e b3 38 0d ae 12 bd 73 27 23 38
       -0.06456467 8.547004e-05 -0.03581052 3.889897e-05
0000a0 99 82 4e 3d 93 e5 54 be 30 54 34 b8 c8 23 d5 3c
       0.050417516 -0.207907 -4.299375e-05 0.026018038
0000b0 b5 dc 1e 37 7a 36 0f 3e c1 33 84 bd c8 e8 65 37
       9.468921e-06 0.13985625 -0.06455184 1.3703662e-05
0000c0 a9 71 f6 b6 43 04 dd b6 c8 d0 ba 3d 34 91 43 b7
       -7.344603e-06 -6.5868094e-06 0.09121853 -1.16567135e-05
0000d0 60 f5 1f b8 ad ec 94 b7 44 b2 0b b7 f4 d7 63 36
       -3.8137077e-05 -1.7753186e-05 -8.326551e-06 3.3951337e-06
0000e0 76 ff 6c 37 75 05 98 b7 70 28 f1 b7 fe de c8 b7
       1.4126175e-05 -1.8122353e-05 -2.8748269e-05 -2.3945697e-05
0000f0 40 18 81 b3 74 5b 2c be b8 e0 a2 36 98 e9 f5 b7
       -6.011442e-08 -0.16831762 4.854137e-06 -2.9315052e-05
000100 a4 11 1c 3d 98 c8 b6 b7 de 90 91 b6 bd 41 96 37
       0.03810276 -2.17895e-05 -4.3382015e-06 1.7912005e-05
000110 9a 59 27 b7 60 ff 8b 35 9c eb 9c 37 b8 27 af 37
       -9.974838e-06 1.0430631e-06 1.8706363e-05 2.0880121e-05
000120 bd 66 96 b7 68 a8 e3 3d dc 56 ef 36 d9 cf d1 b7
       -1.7929235e-05 0.11116105 7.132867e-06 -2.5011528e-05
000130 32 5f a8 3d af 39 fe 36 4a 27 db b7 9f 29 71 b7
       0.08221282 7.576505e-06 -2.612513e-05 -1.437441e-05
000140 8f 7e 9c 3d de bd b3 3d 2d e8 3c 37 fe b0 96 3d
       0.07641327 0.08776449 1.1259731e-05 0.07357977
000150 f7 ff de 38 cf ba eb bd da 6f 1a 3e f2 6b b6 b8
       0.00010633462 -0.1151024 0.1508173 -8.698543e-05
000160 85 1b 0d b8 18 91 90 b7 e0 9e 12 b8 7c 41 04 3e
       -3.364265e-05 -1.7233702e-05 -3.4957076e-05 0.12915605
000170 40 7d 94 33 ab 57 7c 3d a6 9a 46 b6 58 cd 56 36
       6.91457e-08 0.061607044 -2.9594316e-06 3.200801e-06
000180 c2 9a ff b6 44 d1 5d 3d de b0 c0 b7 47 46 ca 3d
       -7.6176084e-06 0.05415465 -2.2970544e-05 0.098766856
000190 97 c9 24 be 3e 1f 23 37 c2 39 31 bd 97 b5 ed 3d
       -0.16092525 9.722831e-06 -0.043267973 0.11606901
0001a0 47 ac 41 3e 7a 2c 81 b7 42 7e d5 b7 a7 c4 38 3e
       0.18913375 -1.539871e-05 -2.5450372e-05 0.18043767
0001b0 5b 86 98 37 f0 6b fa 3d 86 e0 1f 38 fe 29 88 3d
       1.8182376e-05 0.12227619 3.8117658e-05 0.066486344
0001c0 a4 f0 2f 3e fe 1e fc bd 24 73 88 b5 1b fc 44 3e
       0.17181641 -0.12310599 -1.01663e-06 0.19236796
0001d0 3c 39 3d b9 cb 05 7a b8 5c 1c ee b7 de 2a ed b7
       -0.00018045766 -5.961004e-05 -2.8385017e-05 -2.8272563e-05
0001e0 e9 03 ed b8 a8 b3 20 b7 44 d9 f8 37 87 48 8c 38
       -0.00011301769 -9.578573e-06 2.9665076e-05 6.6892295e-05
0001f0 8b 70 f0 3d b7 9e 99 3e f9 03 6b b7 0e 65 40 3d
       0.11740216 0.30003902 -1.40080165e-05 0.046971373
000200 cc 29 9b 36 0e cf 84 3e da c2 f9 3d 6b e3 23 b7
       4.6242258e-06 0.2593922 0.12195368 -9.768507e-06
000210 70 44 f3 b7 cc 52 b1 3d 09 79 5d 3e 55 ba f6 36
       -2.8999726e-05 0.086583704 0.21628202 7.353063e-06
000220 82 cf 58 b7 15 dc b9 3c 50 ba 43 b6 2d cd 85 b5
       -1.2922917e-05 0.022687951 -2.9165712e-06 -9.968986e-07
000230 5f 28 61 b6 6f 5e 66 b8 28 b1 2d 3e c3 dc 86 b7
       -3.3551112e-06 -5.492422e-05 0.16962111 -1.6076845e-05
000240 ab ff e7 b7 23 e6 18 b8 7b 98 45 bd 88 d6 6b b6
       -2.76564e-05 -3.6453956e-05 -0.04824112 -3.5142602e-06
000250 18 53 76 3d 5b 19 0b 3e 26 bb 3c bd b1 dd 0f bd
       0.060137838 0.13583891 -0.046076916 -0.03512353
000260 bb 66 d2 37 f3 fc ac b8 7f de 8e 37 7a d1 f3 b7
       2.5081788e-05 -8.2487146e-05 1.7031327e-05 -2.9065402e-05
000270 41 5b dd b7 9c 42 1f 3e 99 0f 6a b8 88 08 17 37
       -2.6387746e-05 0.15552753 -5.5804474e-05 9.002288e-06
000280 65 7c 78 b8 9f 9f f3 36 80 89 4a b7 32 41 38 b8
       -5.924366e-05 7.2605467e-06 -1.20721525e-05 -4.3929736e-05
000290 aa a4 1f 3e 09 ca f8 35 38 43 f1 37 bc c2 31 3e
       0.15590158 1.853624e-06 2.876074e-05 0.17359442
0002a0 ca 4b 1b b8 ae e9 05 37 08 39 3b 36 39 1b 10 39
       -3.7025464e-05 7.981826e-06 2.7898368e-06 0.00013743051
0002b0 f6 ec e2 3d 48 1c ff b7 99 07 a4 3d 30 73 07 39
       0.11080353 -3.0411538e-05 0.08009262 0.00012917514
0002c0 7b 72 00 3e f0 65 72 37 b5 78 91 37 6a 69 e6 b4
       0.12543671 1.4448058e-05 1.7341556e-05 -4.2917537e-07
0002d0 9a bb a4 bd 50 eb 3c bd a2 e9 3a 38 1b d1 36 b8
       -0.08043595 -0.04612285 4.4563443e-05 -4.3586926e-05
0002e0 46 3e f1 b7 cc 72 35 b5 a0 a7 90 37 c0 28 eb 33
       -2.8758437e-05 -6.7594806e-07 1.7244194e-05 1.09504526e-07
0002f0 a2 f2 82 b6 5e 6c 09 b8 81 aa 32 3e 4d 4b 04 be
       -3.902548e-06 -3.276427e-05 0.17447855 -0.1291935
000300 80 37 98 37 18 8b 18 b8 9c 32 d1 3d 5a d5 f1 bd
       1.8145656e-05 -3.6369165e-05 0.10214731 -0.11808272
000310 48 54 08 38 f9 29 8f b7 86 12 2d 37 4c 09 e1 b7
       3.250342e-05 -1.7066473e-05 1.0315916e-05 -2.682642e-05
000320 00 b3 1c b8 3d 2a e5 37 4a 34 78 3e 6c 57 0c 37
       -3.7360005e-05 2.7318596e-05 0.24238697 8.365005e-06
000330 aa 7c 29 be 4a 50 be b6 16 b6 43 b7 d4 a3 8a 37
       -0.16551462 -5.671788e-06 -1.1665301e-05 1.652717e-05
000340 9d 20 57 be 6d c3 bd 3c e2 f6 76 38 4a 3d 19 b8
       -0.21008535 0.023164475 5.8880898e-05 -3.6535122e-05
000350 23 4c d7 b7 a6 4d 8e 3e a9 a9 f3 b7 72 4a 46 b7
       -2.5665451e-05 0.27793616 -2.9046862e-05 -1.1819053e-05
000360 7f 1c 32 3d d1 b0 7c b8 f6 d4 03 b8 5e 93 cf b6
       0.043484207 -6.0246155e-05 -3.143117e-05 -6.1862365e-06
000370 d6 d8 f8 3d a0 fb 09 3d 2e bf f1 3d c0 01 b0 37
       0.12150733 0.033687234 0.11804043 2.098165e-05
000380 b4 45 6e 3e 28 f8 6a 35 22 84 ee 35 07 0d bd 3d
       0.23268777 8.753291e-07 1.7770838e-06 0.092310004
000390 d8 75 c7 b6 54 f9 9d b7 82 0a 02 b7 2b 58 35 b8
       -5.944381e-06 -1.8831961e-05 -7.75105e-06 -4.3235876e-05
0003a0 fd 87 12 3e 4b 3d b6 3d ac d8 ee b8 27 9d 4a b7
       0.14309688 0.088984095 -0.00011389083 -1.2076728e-05
0003b0 84 0c 68 b7 de 3b de b6 7c 65 a2 37 72 5b c6 37
       -1.3831192e-05 -6.623085e-06 1.9359162e-05 2.3646022e-05
0003c0 ac 45 61 bd 14 39 53 b7 86 13 40 3e df 3d 04 be
       -0.054998085 -1.258987e-05 0.18757448 -0.12914227
0003d0 85 95 92 38 3e 16 f4 b7 6a 25 05 3e db 60 e0 b6
       6.989673e-05 -2.9097424e-05 0.13002554 -6.6869957e-06
0003e0 42 9e b8 b6 81 79 3c 38 f2 8b 47 3e 4c bc 1a b7
       -5.502051e-06 4.4935852e-05 0.19486979 -9.222957e-06

StatefulPartitionedCall/sequential_1/dense_6/MatMul/ReadVariableOp:0 f4 [252, 252]
000000 e6 79 d9 38 a4 73 ca 3c 09 e1 bb 36 25 53 0e b8
       0.00010370072 0.024713345 5.599232e-06 -3.3932873e-05
000010 70 8e e9 b8 bf a3 31 38 e2 46 55 37 bb 28 9e b9
       -0.00011136837 4.235259e-05 1.2712293e-05 -0.00030166455
000020 d2 fc 3f b8 7d e8 bf 3d c3 bd d2 b9 ab 26 13 39
       -4.5773406e-05 0.093705155 -0.00040195705 0.00014033417
000030 0d e0 18 b9 0f b5 1a bd 97 90 9a b8 0f 7e 22 3e
       -0.00014579315 -0.037770327 -7.370224e-05 0.158684
000040 c1 f6 8d b8 7d 61 93 3d a2 cc 44 b9 f1 8f b8 b9
       -6.7693654e-05 0.07196329 -0.00018768248 -0.0003520246
000050 55 e6 38 bd ac f7 45 3e da 55 95 3d c6 19 9d b7
       -0.045141537 0.1933276 0.072917655 -1.872786e-05
000060 5a 65 95 3d bf ec 0f b9 64 14 f3 b7 68 11 1b be
       0.07294722 -0.00013725738 -2.8977352e-05 -0.15143359
000070 c5 d9 27 3d ca 5a 93 b8 9c 8e 67 b9 b9 9e 5d 3d
       0.040979166 -7.026417e-05 -0.00022083003 0.054106448
000080 93 e3 3f 3e f3 e6 fb 38 09 86 ce 38 a7 2d 84 b9
       0.18739156 0.0001201163 9.8478115e-05 -0.00025211016
000090 c7 7c 9b bd c7 7c 5d b9 a9 2d 67 3b 66 71 b9 b9
       -0.07592159 -0.00021122686 0.0035275018 -0.00035370438
0000a0 c3 6f 85 bd f1 fd fa bd 1c 27 62 b9 6a 3d af 3c
       -0.065154575 -0.12255467 -0.00021567609 0.02139159
0000b0 78 3b a1 b8 e2 d1 ca bc 25 48 74 3c 7d 0e e2 b8
       -7.688155e-05 -0.024758283 0.014909779 -0.000107792184
0000c0 b4 cf ca b8 31 67 8c b9 4f 07 c1 3c fc 27 e0 b8
       -9.670798e-05 -0.00026779764 0.023563055 -0.000106886
0000d0 2b 36 cf b8 7a 75 86 b9 58 1c e3 b8 50 6c 3a 39
       -9.880619e-05 -0.00025645999 -0.00010829483 0.00017778692
0000e0 d5 ec b2 b8 f8 9b c5 b8 67 5d 6f 38 63 28 bb b9
       -8.531815e-05 -9.4227435e-05 5.7069028e-05 -0.0003569751
0000f0 8a 93 65 b9 31 56 1c 3d 0c 1a 29 b9 60 86 2f b9
       -0.00021894104 0.038168136 -0.00016126799 -0.00016739359
000100 a7 da 50 bd 9f c3 2c b8 f9 5c b1 b9 6e a9 1b b9
       -0.050989773 -4.1190182e-05 -0.0003382934 -0.0001484507
000110 89 94 a7 b9 e2 09 30 b7 84 6e c3 b9 a0 c7 f2 b8
       -0.0003196339 -1.04927185e-05 -0.0003727564 -0.00011576642
000120 b4 67 17 b9 40 ef a9 bc 3f 52 0f 38 9c e0 21 b9
       -0.00014439115 -0.020743966 3.4170454e-05 -0.0001543783
000130 bb d5 55 3e af 23 35 b8 ed 87 78 39 9e b1 48 b9
       0.20882313 -4.3186996e-05 0.0002370176 -0.00019139654
000140 f9 5d 5d 3d e6 f5 06 3d a8 bf b2 b8 2b 70 f5 bb
       0.054044697 0.03294935 -8.5234e-05 -0.007490178
000150 dd 52 07 b9 95 c2 6b 3d 7b 77 3e 3d 12 9a 68 39
       -0.00012905472 0.057558615 0.046500664 0.0002218264
000160 7c c8 54 b8 67 de c4 b9 60 53 e6 38 33 24 3d 3e
       -5.0731454e-05 -0.00037549736 0.000109827844 0.1847084
000170 b6 9e 09 b9 f6 32 af 3d 9a b6 58 b8 c8 42 20 b9
       -0.00013124463 0.08554642 -5.1668474e-05 -0.00015283667
000180 0d 1a 8e b9 5a cd d9 3d 32 34 c2 b8 88 f1 58 3b
       -0.0002710376 0.10634871 -9.260363e-05 0.0033102948
000190 5e 20 1f 3d 56 28 9a 38 63 cd 83 bb 67 44 32 3c
       0.038849227 7.3508054e-05 -0.0040222867 0.010880566
0001a0 80 67 11 3f 4e 17 c1 b9 ea fd 28 b9 1e df 0b be
       0.56798553 -0.00036829192 -0.00016116319 -0.13659331
0001b0 f9 ce ca b8 a7 be 97 bd 43 bf a0 38 8e 15 3f bd
       -9.670662e-05 -0.07409411 7.66502e-05 -0.046651416
0001c0 25 6e fb 3d 4b 9e 32 3d d1 a8 cb 37 40 e2 a9 bd
       0.12276868 0.04360799 2.4278097e-05 -0.08295107
0001d0 c0 21 8e 39 96 0f 72 b8 06 b4 80 38 5f e9 d2 b8
       0.00027109496 -5.771181e-05 6.1370476e-05 -0.00010057049
0001e0 d3 37 94 b9 24 83 49 39 32 d0 8b b9 c6 ba 21 b9
       -0.00028270352 0.00019217707 -0.00026667264 -0.00015423735
0001f0 41 30 bd bc c3 74 02 bc 3d 4e 45 b9 a0 38 5e bd
       -0.023094298 -0.0079624085 -0.0001881653 -0.05425322
000200 f5 bf b7 b9 06 01 ba bd 07 6e a0 bd b5 26 44 b9
       -0.000350475 -0.090822265 -0.07833486 -0.00018706436
000210 62 22 b6 38 ab fb 1a 3e 87 0f 82 3e 21 f7 23 39
       8.6848406e-05 0.15135066 0.2540247 0.00015636954
000220 cc cc 9d b8 6c 84 8a 3c 81 c8 af b9 93 b5 f6 36
       -7.52449e-05 0.016908847 -0.00033527988 7.3525093e-06
000230 da 87 02 b9 7b dc 8a b8 f2 87 89 bd b0 cc de 37
       -0.00012448375 -6.6214205e-05 -0.06715383 2.6559777e-05
000240 79 18 cb b8 55 b3 ea 38 90 bb 3b 3c da 05 b7 36
       -9.684353e-05 0.00011191393 0.011458293 5.454506e-06
000250 42 8d b3 bd b7 fa 93 bc a1 a6 6b bb ba 94 14 bc
       -0.08767177 -0.018063886 -0.0035957473 -0.009068662
000260 85 03 6f ba 4d b3 c2 b9 63 93 09 ba dc 4b 84 b8
       -0.0009117651 -0.00037136153 -0.00052480976 -6.3083804e-05
000270 cb ec 9e b9 72 61 46 3e 5a 83 e4 b8 9b bc f5 b8
       -0.00030312533 0.1937311 -0.00010896353 -0.00011717641
000280 cb e9 8f b9 68 03 7f b8 22 b6 38 38 97 4d 2c b9
       -0.00027449275 -6.079991e-05 4.4038643e-05 -0.00016432103
000290 1d 11 e5 3d df 89 82 b9 db d9 1d b7 37 3b bf 3d
       0.11184905 -0.00024898254 -9.408653e-06 0.09337466
0002a0 9f 8f e7 38 fd ff b2 b9 ba 7a 20 b9 ce 53 37 39
       0.0001104169 -0.00034141532 -0.00015304508 0.0001748346
0002b0 eb 8c a4 3d 9c 63 ae 38 16 4f 79 3d 03 36 36 39
       0.080346905 8.31552e-05 0.060866438 0.00017376993
0002c0 c4 f7 48 be 1a dc 28 39 ea f9 35 b9 c9 ea ad 37
       -0.19625765 0.00016103723 -0.00017354605 2.0732537e-05
0002d0 39 1c a8 bc 14 18 f5 bb cd a0 93 b9 53 51 b6 b9
       -0.02052127 -0.007479677 -0.0002815783 -0.00034774336
0002e0 61 c7 45 39 0a 1b 42 b9 95 00 eb 37 2e 5a f6 b5
       0.00018861658 -0.00018511355 2.8014454e-05 -1.8354674e-06
0002f0 42 a1 21 b8 01 d9 81 b9 80 7a a7 bd 90 7d 2f bd
       -3.8535574e-05 -0.00024766478 -0.08177662 -0.042844355
000300 44 da a9 b9 54 90 69 b9 95 2d d6 bd 73 21 54 3d
       -0.00032396812 -0.00022274378 -0.10457913 0.051789712
000310 4f a0 c8 b8 c7 a7 0c 39 96 80 82 b8 cd 88 01 39
       -9.566603e-05 0.00013413942 -6.222834e-05 0.00012353361
000320 08 2d c1 b7 aa 4f ae 37 aa 8b 8c 3e 7a 17 9b 39
       -2.3028362e-05 2.0779513e-05 0.27450305 0.00029581395
000330 3d ef 36 bc d1 19 fa b8 15 26 e0 35 76 de 41 b9
       -0.011165437 -0.000119257376 1.6700384e-06 -0.00018488787
000340 25 de fa bc e1 3f 3f 3c b8 48 01 b8 cc 7e 08 b9
       -0.030623505 0.011672945 -3.082372e-05 -0.00013017206
000350 61 d8 99 b9 d0 b7 09 ba d7 ae 06 38 0d 8f 03 39
       -0.0002934365 -0.00052535255 3.2110922e-05 0.00012546424
000360 13 53 92 3d cf 2c 1b 38 3c 61 59 b8 4c e9 05 b9
       0.071447514 3.699661e-05 -5.182739e-05 -0.00012770778
000370 41 06 fd bd a3 3c 6a bd 25 e4 b0 3d d2 1e fa b8
       -0.123547085 -0.057186734 0.08637265 -0.0001192667
000380 62 55 9d bc b0 56 18 b8 26 93 e7 b8 22 ec 68 bd
       -0.019205753 -3.6320358e-05 -0.00011042347 -0.05686582
000390 20 c5 08 38 bc 3f 05 b7 8a 91 43 b8 e2 4b 00 39
       3.2608514e-05 -7.942257e-06 -4.6627167e-05 0.000122353
0003a0 9f 70 eb 3d be 33 a1 bd f8 61 95 35 53 a1 22 37
       0.1149609 -0.07871197 1.1129878e-06 9.693514e-06
0003b0 f0 f3 07 b9 08 a4 b2 38 53 22 da b9 3a 1b 46 b9
       -0.00012965477 8.5182546e-05 -0.00041605774 -0.00018892894
0003c0 b3 bc 05 3e de 21 58 b9 9b c5 5d 3e 31 c2 19 bd
       0.13060264 -0.00020611982 0.21657412 -0.03753871
0003d0 ce 9d 1c 39 d3 27 b6 38 c8 86 25 3d 64 f8 0c b9
       0.00014936106 8.685854e-05 0.04041174 -0.00013443973
0003e0 9c 4a 0e b9 f1 21 85 b9 1a f5 a4 bb 95 e1 a9 38
       -0.0001356997 -0.00025393025 -0.005034101 8.100566e-05
0003f0 5a 70 28 3a 23 0e a4 bd 09 12 b7 38 db 71 77 b9
       0.0006425433 -0.08010509 8.729479e-05 -0.0002359817

StatefulPartitionedCall/sequential_1/dense_6/BiasAdd/ReadVariableOp:0 f4 [252]
000000 15 22 22 3e 9b f9 75 3f b5 cb 25 3c 75 32 91 bd
       0.15833314 0.9608399 0.010119368 -0.07089702
000010 63 db 65 bd f1 0c 4b bd e7 65 a3 bd 3b 49 a1 bd
       -0.056117427 -0.04957289 -0.07978421 -0.07875296
000020 9f 55 2a be 4d 3b 11 3f cb 3f 14 be a0 ec 80 3d
       -0.16634224 0.5673111 -0.1447746 0.06295133
000030 8a bf 10 be f3 ed 32 3f 7a c1 00 be 8d 61 67 3f
       -0.14135566 0.6989433 -0.12573805 0.90383226
000040 0d ea 55 3d ea 53 5f 3f 0f a5 f8 bd c4 5c df bd
       0.05222516 0.8723742 -0.121408574 -0.109063655
000050 ae fb 62 3f a4 58 91 3f bb 60 3d 3f a2 b9 be bd
       0.8866528 1.1355176 0.73975724 -0.093127504
000060 db 83 81 3f c4 7d 49 be 23 9b 01 be 42 7d 70 3f
       1.0118364 -0.19676882 -0.12656836 0.9394113
000070 d9 f0 45 3f b1 5e 1e 3e 82 da de bd a6 19 0f bf
       0.7732063 0.1546581 -0.10881521 -0.5589851
000080 aa 0e 90 3f c4 55 a8 3d 53 22 e7 bd 18 5b 0a be
       1.1254475 0.082194835 -0.11285844 -0.13511312
000090 85 3c 0f bf 08 bc b8 bd fc 1c 33 bf 37 4f a2 3d
       -0.5595172 -0.09020239 -0.699661 0.07925265
0000a0 bd b8 3a 3f c0 9b 06 bf ce 0e 0a 3e c2 2f 37 3f
       0.7293814 -0.52581406 0.1348221 0.7155725
0000b0 e0 09 cc bd 80 de 51 3f d6 80 04 bf bf 4b 08 be
       -0.09962821 0.81980133 -0.5175909 -0.13310145
0000c0 d2 95 db bd 80 fe 02 be b3 18 5c 3f 1e 54 7a bb
       -0.10721935 -0.12792397 0.8597519 -0.003819711
0000d0 96 b7 af 3d 3a 79 1f be 7e 80 72 bd 62 56 06 3e
       0.08579938 -0.15573588 -0.05920457 0.1311889
0000e0 1e 25 1b be b3 fd 1d be 35 34 9a 3d 78 7e 6d 3d
       -0.15150878 -0.1542881 0.07529489 0.057981938
0000f0 e9 2f 95 be 18 66 3d bf de 4d 5a be 75 ed 03 be
       -0.29138115 -0.7398391 -0.21318766 -0.12883551
000100 1d 6f 42 3f 32 71 74 3d 8c e9 04 be 44 32 eb bd
       0.75950795 0.059678264 -0.12979716 -0.11484197
000110 1f 8c 22 be d5 e8 41 3d 04 bf 3c be 2b 2d 0a be
       -0.15873764 0.047341187 -0.18432242 -0.13493793
000120 11 cd ba 3d 76 43 7f 3f a5 85 1e be 64 71 fb bd
       0.091211446 0.9971231 -0.15480669 -0.12277487
000130 f0 45 43 3f 5b f6 0a be f8 5c 12 3e c3 19 13 be
       0.7627859 -0.1357054 0.14293277 -0.14365296
000140 80 05 5b 3f c4 eb 4a 3f f8 68 8c 3d 80 d8 3a 3f
       0.8555527 0.79266 0.06855959 0.729866
000150 b1 11 24 3e 4a 30 3e bf e7 9c 87 3f c5 d9 79 3e
       0.16022374 -0.74292433 1.0594758 0.24399479
000160 79 1e cf 3d 2c 93 75 3d 14 9f bf bd 3a 0d 8a 3f
       0.10113234 0.059954807 -0.093565136 1.0785286
000170 f3 78 fd bd 29 b1 6a 3f 49 a9 4c be 03 eb 6d 3d
       -0.12376585 0.91676575 -0.19986452 0.058085453
000180 90 15 6a be 3e ac 30 3f ae 8a f6 bd 09 2c 36 3f
       -0.22859788 0.6901282 -0.1203817 0.7116094
000190 0b e4 34 bf 1d f1 33 3d 7c c4 17 bf cf f5 43 3f
       -0.70660466 0.043931115 -0.59284186 0.7654695
0001a0 47 66 0b 3f 58 b7 a4 bd 36 ae db bc 3f f4 5d 3f
       0.5445294 -0.080427825 -0.026816469 0.86700815
0001b0 39 a1 e2 bd f4 0b 47 3f 62 6a da 3d a4 29 85 3f
       -0.11065907 0.77752614 0.10664822 1.0403333
0001c0 9d 19 3a 3f 04 9c 21 bf b6 33 f7 bd f2 b8 47 3f
       0.7269533 -0.63128686 -0.1207041 0.7801658
0001d0 8b 0a ab bd 05 5d e0 bd 04 38 da bd 9b 9d 82 3d
       -0.0835162 -0.10955242 -0.106552154 0.06377717
0001e0 f2 9e 36 3e 08 43 16 be 05 16 e2 3c fa ac c3 3d
       0.1783407 -0.14674008 0.02759839 0.09554477
0001f0 df fe 3e 3f f4 79 0c 3f 73 61 bd bd 17 00 42 3f
       0.7460765 0.54873586 -0.092471026 0.7578139
000200 7a d2 fe bd 7e 52 f8 3e 8f 74 44 3f 19 ea 0f be
       -0.12442489 0.48500437 0.76740354 -0.14054145
000210 e3 c9 fb bd b6 01 05 3f a6 2f 2d 3f 10 96 fe bd
       -0.12294366 0.51955736 0.6765083 -0.12430966
000220 e7 4d 76 3d 00 32 51 3f 83 35 4d bd 91 8f d7 3d
       0.060132887 0.8171692 -0.05009986 0.1052543
000230 59 61 5c bd 82 17 01 3e 06 06 aa 3f 07 c3 99 bd
       -0.053803775 0.12606624 1.3283088 -0.07507902
000240 a5 56 96 bd 19 1e 86 3d 65 26 33 bf 08 90 15 be
       -0.07340745 0.065487094 -0.6998046 -0.14605725
000250 12 27 bd 3f c7 17 b9 3f 28 c1 b3 be ce e3 32 bf
       1.4777548 1.4460381 -0.35108304 -0.6987885
000260 e8 61 58 3d 64 f7 66 3d 85 9f 74 3c 90 ea 31 be
       0.052827746 0.056388274 0.014930611 -0.17374635
000270 0e df a8 3d a0 94 35 3f 63 66 27 3e 20 7a 0d be
       0.08245669 0.7092991 0.16347651 -0.13816118
000280 fd 99 92 3d ee 53 80 3d 5c 99 3b 3d c1 00 06 be
       0.07158277 0.06266008 0.04580055 -0.13086225
000290 09 1e fb 3e a6 7b fe bd 8c f3 0e be 23 b2 2f 3f
       0.49046353 -0.12425928 -0.13960093 0.6863119
0002a0 86 f5 f6 3d 3f 3b 9d 3d 49 2a 09 be 58 dd 91 3d
       0.12058549 0.07677316 -0.13395037 0.07122296
0002b0 ca c2 94 3f 28 05 e8 bd b0 dd 52 3f 5c c6 08 3e
       1.1621945 -0.113291085 0.8236952 0.13356918
0002c0 4d 87 94 3f a9 5e cd 3d 07 6c 7b be 9f 3c 5d 3d
       1.160379 0.100278206 -0.24552928 0.05401289
0002d0 74 d0 35 bf 06 61 20 bf 9a c9 f3 bd d8 45 bc 3d
       -0.710212 -0.62648046 -0.11903687 0.09193009
0002e0 06 ee 29 3e 2a dc 39 be bd 3f 28 be e4 f1 b9 3d
       0.16594705 -0.18150392 -0.16430564 0.0907934
0002f0 dd 24 01 be 9e 83 e0 bd 44 d6 f7 3e 33 46 23 bf
       -0.12611718 -0.10962604 0.4840566 -0.6377899
000300 14 2f b7 3d f7 7a 82 be 74 90 44 3f 4e 2e 26 bf
       0.08944526 -0.2548444 0.7678292 -0.64914405
000310 3b 97 21 be 12 bf 8e 3d cc d1 24 be 93 71 0c 3e
       -0.15780346 0.069700375 -0.16095656 0.137152
000320 d1 54 20 be 37 e0 17 be c4 b9 6d 3f 6d a6 d0 3d
       -0.15657355 -0.14831625 0.9286158 0.10187993
000330 b3 bf 1b bf c0 9d 0e be 36 ad 04 be 99 4e dc 3d
       -0.60839385 -0.13927364 -0.129567 0.10757179
000340 5f 0c 86 bf cc 8d 5e 3f dd 62 9a 3d 17 5b dc 3d
       -1.0472525 0.86935115 0.07538388 0.107595615
000350 b0 4d 08 3d c6 20 9c be bd 99 ac 3d e0 79 e9 bd
       0.033277214 -0.30493754 0.08427761 -0.11400199
000360 66 a4 39 3f fa 53 37 be 55 0a a0 3d f1 e6 0e be
       0.7251648 -0.17903128 0.07814471 -0.13955285
000370 84 6a 29 3f 2d 12 53 3f 9f 3f 4c 3f f1 e3 0f be
       0.66178155 0.8244961 0.7978458 -0.14051796
000380 66 e9 97 3f 4f 6d 15 be cd f5 1f be b7 d0 57 3f
       1.1868103 -0.14592479 -0.1562111 0.8430285
000390 bd a4 04 3d 95 5c b2 3d 99 b7 e6 bd 87 9e f2 3d
       0.03238367 0.08709065 -0.11265487 0.11846643
0003a0 6c 1f 4b 3f 65 75 34 3f 0d 70 d2 bd 58 38 1e be
       0.7934482 0.7049163 -0.10275278 -0.15451181
0003b0 21 0f fb bd 04 60 a3 3d 48 99 40 be f2 44 fa bd
       -0.12258745 0.07977298 -0.18808472 -0.122201815
0003c0 50 01 98 bf 56 c6 25 be a1 67 fa 3e d1 31 32 bf
       -1.18754 -0.1618894 0.48907188 -0.69607264
0003d0 b0 3f cc 3d b6 bb 1b 3e 5e 72 50 3f 69 59 ec bc
       0.09973085 0.15208325 0.8142451 -0.028851228
0003e0 cc 1b 11 be 69 64 99 bd 10 0f 4e 3f 2d f1 ca 3d
       -0.1417076 -0.07489855 0.80491734 0.09909282

StatefulPartitionedCall/sequential_1/dense_5/MatMul/ReadVariableOp:0 f4 [4, 252]
000000 ed d2 55 bf 50 00 4d 3e 4e c3 24 be 45 1c 0e bf
       -0.8352497 0.2001965 -0.16090128 -0.55511886
000010 25 a3 f6 3d 65 2d 00 3f 8e 2a 1b 3f c5 1f 87 bf
       0.12042836 0.50069267 0.6061181 -1.055657
000020 1b 33 2f be cd d4 00 3f 7d 74 b4 3e 80 22 0e bf
       -0.17109339 0.5032471 0.35245124 -0.5552139
000030 6e 0b 46 bf 4f c6 ff 3e fd 1d f6 be d5 bd 9f be
       -0.7736119 0.49955985 -0.48069754 -0.31199518
000040 8a 12 32 bf 9c a5 b7 bd 47 3d d5 3d a3 66 fa 3e
       -0.6955954 -0.08967134 0.10412078 0.4890643
000050 10 85 b2 3e 93 2a 24 bf 50 9a b2 3d 3a 4d fc be
       0.34867144 -0.64127463 0.08720839 -0.4927767
000060 ce cc 96 3d 95 0e f6 be d9 c4 f0 3e ce 88 0a 3e
       0.07363282 -0.48058 0.47025183 0.1352875
000070 c4 ff f0 be 31 cc b8 3e 9c d0 e1 be d4 e1 23 3f
       -0.47070134 0.36093286 -0.4410447 0.6401646
000080 f7 b2 6a bf d7 8d b9 3e ed 36 25 3f 5b 9e d0 3e
       -0.9167933 0.36241028 0.64536935 0.40745816
000090 ce 38 13 bf 3d cd cd 3e aa ab 79 be c6 2a 1b be
       -0.5750855 0.40195647 -0.24381891 -0.15153036
0000a0 d0 6f e3 be 4c c0 13 3e d6 22 95 bf b2 3a 9f be
       -0.44421244 0.14428824 -1.1651256 -0.31099468
0000b0 24 79 97 be 28 d6 4f bf 6a d5 de 3e fc b2 4e 3f
       -0.2958461 -0.8118615 0.43522197 0.8074186
0000c0 21 3f 76 bd c1 e3 5c bf 60 58 16 bf dc 52 98 3d
       -0.0601188 -0.86285025 -0.587286 0.07437679
0000d0 84 15 93 3c be 71 ee 3e d4 a0 2d 3f 3f 18 55 3e
       0.017954595 0.46571153 0.6782353 0.2081003
0000e0 5f 52 f9 3e c6 b0 c4 bc 53 c2 d7 3e 0c fd 53 be
       0.48695657 -0.024010073 0.42140445 -0.20701998
0000f0 1c 80 92 be 7f 5c 81 3b 48 d7 2f bd 14 ea 4c bd
       -0.28613365 0.003947794 -0.042929918 -0.05002792
000100 99 a4 d7 bd 81 cf 19 3f 3e 16 e0 3d 5a d8 de be
       -0.105294414 0.6008225 0.10941742 -0.43524438
000110 41 09 53 bd 15 d0 22 3f cf 50 6c 3f c9 cf 6a bf
       -0.051522497 0.6359876 0.92310804 -0.91723305
000120 dc 6c 40 be 53 59 08 3f 80 2a 22 3d 68 3d 67 3e
       -0.18791527 0.532613 0.039591312 0.22582018
000130 63 ed 0e 3f 59 06 3f bf 50 1c 87 3d 43 f3 53 bf
       0.55830973 -0.7461906 0.06597197 -0.8279306
000140 26 44 a3 3d 05 bb 07 3f 82 7d f2 be ce 73 b1 3f
       0.07971983 0.53019744 -0.4736138 1.3863466
000150 f5 88 a1 bf 6c 79 28 bf e3 f8 95 3e 67 46 90 be
       -1.2619921 -0.65810275 0.29291448 -0.28178713
000160 44 29 bf 3d 41 69 13 be cd 15 61 3f 19 f2 28 be
       0.09334043 -0.1439562 0.8792389 -0.16498603
000170 3e dc 85 bf 68 cc 1f bf be 27 2b 3e 8d 46 56 bf
       -1.0457838 -0.62421274 0.16714379 -0.837014
000180 67 c8 ba 3f 7e 1a 48 3e 48 42 cf be 42 5b 26 3e
       1.4592408 0.19541356 -0.40480256 0.1624575
000190 d8 71 4a bf 76 bc 4f 3d 5c e9 84 bf a6 22 48 3e
       -0.7907996 0.05071684 -1.0383716 0.19544467
0001a0 df bd 76 3e 10 2c 00 3f 0a 61 7f 3d 37 5d 17 3f
       0.24095868 0.50067234 0.062348403 0.5912661
0001b0 43 7f e2 3e 2c c0 0f bf de ef 22 3f 4e 68 9a be
       0.44237718 -0.56152606 0.6364726 -0.30157703
0001c0 35 80 11 3f e3 1a 1e bf e7 a4 c9 be 15 f8 72 3d
       0.56836253 -0.61759776 -0.39383623 0.05931862
0001d0 7b c3 f2 bd 4e 8a 0a 3f 59 10 8d 3e 1b fe 6d 3f
       -0.11853691 0.54117286 0.27551535 0.9296586
0001e0 d0 0a cd be c9 e6 6e 3d 21 a9 e6 3e 8e 43 54 3f
       -0.40047312 0.058325563 0.4505091 0.8291558
0001f0 a0 ce 28 bf e7 d5 95 3f 48 3b e8 bc c6 8c 03 3f
       -0.65940285 1.1705903 -0.02834858 0.5138668
000200 c2 3a d4 3e 5d 0a 1c 3f 2d e2 46 bf 39 63 d4 be
       0.4145108 0.60953313 -0.77688867 -0.4148195
000210 ee 57 17 3f c2 d7 63 3f cf cd e7 3d 73 18 33 3f
       0.59118545 0.89001095 0.11318552 0.6995918
000220 18 ac 98 3e 5f a2 00 3e 06 a1 68 3e f9 28 bb 3e
       0.29818797 0.1256194 0.22717676 0.36554697
000230 97 c8 ba be 36 92 8c bf 0b c4 12 3f 09 7a 1b 3f
       -0.36481163 -1.098212 0.5733039 0.60733086
000240 e0 ad 9e be 68 76 51 bf 6b 1e cf 3e b2 cb 55 3f
       -0.3099203 -0.818213 0.40452895 0.8351394
000250 75 c5 29 3f 34 a2 74 3f 46 26 19 3f 6a 8f 41 bf
       0.6631692 0.9556 0.59824026 -0.7560946
000260 27 bb 52 be 99 4d d7 be 13 89 b2 3d 7e c6 3f 3f
       -0.20579205 -0.4205139 0.08717551 0.7491225
000270 ad a1 a3 be 2b 18 cc bd 02 30 90 3e 7f 8a a0 bf
       -0.31959286 -0.09965547 0.28161627 -1.2542266
000280 6b 93 4b bf 20 eb 0a 3f 9b 1d dc be bb 92 38 3c
       -0.79521817 0.5426502 -0.42991337 0.011265452
000290 dd 29 b7 3e ed 6a d1 be ad cf a0 3d 9f a8 96 bd
       0.35774127 -0.4090189 0.07852111 -0.07356381
0002a0 c0 5d 66 3f 86 3a 8b be b4 50 ea 3d 89 a2 59 bb
       0.899868 -0.27193087 0.11441174 -0.003320845
0002b0 71 ce 27 3f f9 46 24 3e d6 c3 c1 3e 0f 9d 34 3f
       0.6554938 0.16042699 0.37844723 0.7055215
0002c0 72 e4 8a 3e 37 40 9f bd 65 e5 e2 be b4 9e b1 3e
       0.27127415 -0.0777592 -0.4431564 0.34691393
0002d0 bb ac 52 be ce 62 4a 3f 2d 74 71 3e bc c1 6b be
       -0.20573704 0.79057014 0.23579474 -0.23023123
0002e0 f9 9b 4f bf 3b 43 20 3f 55 0e 80 3f 00 7a 83 3e
       -0.8109737 0.62602586 1.0004374 0.25679016
0002f0 4d ec 48 3f e7 06 77 be 87 c4 53 bf d0 ad 03 3e
       0.78485566 -0.24123727 -0.8272175 0.12859273
000300 49 01 e3 3e e1 4e 1f 3e fb 47 14 3e 85 69 85 bf
       0.44336918 0.15557434 0.14480583 -1.0422827
000310 3d 26 46 bf 9f 52 59 be fe 78 9a 3f 4e 7c 25 be
       -0.77402097 -0.21222924 1.2068174 -0.161607
000320 67 ba f4 3d 4d 6e a8 3e d7 50 a2 be 05 c2 0d be
       0.11949616 0.32896653 -0.317023 -0.13843544
000330 18 0b 35 3f 8d 53 e8 be 2a b0 04 bd 11 94 81 3e
       0.7072005 -0.45376244 -0.032394566 0.25308278
000340 53 f6 00 bf 65 40 04 bf bf f8 20 be 32 20 42 bf
       -0.5037586 -0.5166076 -0.15719889 -0.75830376
000350 cc f7 1b bf c1 51 e1 3e 78 a5 3a 3d 89 12 2d be
       -0.60924983 0.44007686 0.04556796 -0.16901602
000360 74 02 22 3f ac 58 d5 be 52 78 9b be 45 80 88 bf
       0.63284993 -0.41669214 -0.30365235 -1.0664145
000370 09 be 0f bf 6e ab a6 be 6c 9a e0 3d 5d 3e 58 bf
       -0.56149346 -0.32552665 0.10966954 -0.8447016
000380 1f 11 9a 3e 24 25 be be 55 ef da bf 60 7d 19 bf
       0.30091187 -0.3713771 -1.7104288 -0.5995693
000390 20 ff 6e be 28 96 f0 3d 22 76 0e bf 0b 8a 97 3e
       -0.2333951 0.1174739 -0.55649006 0.29597506
0003a0 54 26 3e 3f 59 b8 9c be 53 52 8b 3e 7c 7c 33 bf
       0.74277234 -0.30609396 0.27211246 -0.70111823
0003b0 78 aa fa be 8f 70 26 3e 91 43 f1 3e 51 9f 14 bf
       -0.48958182 0.16253875 0.47121862 -0.580556
0003c0 71 45 42 3e 8b f4 75 3e b5 85 dd 3c 07 80 47 3f
       0.18971802 0.24019067 0.027041296 0.7792973
0003d0 13 38 5e be 5d 8a 20 3f b9 95 db 3e 79 da 6a 3f
       -0.21701078 0.62711126 0.42887667 0.9173961
0003e0 fb df 2a bf 3c 2e 24 bf 7a 44 1e bf c6 0f 12 3f
       -0.6674802 -0.6413305 -0.61823237 0.5705532
0003f0 14 2e 5b bf f8 63 3f 3e e3 b5 6e 3e 96 75 98 be
       -0.85617185 0.18690479 0.23311572 -0.2977721

StatefulPartitionedCall/sequential_1/dense_5/BiasAdd/ReadVariableOp:0 f4 [252]
000000 cf e5 01 bf aa ca 31 bf 33 1a 35 3f f3 99 50 bf
       -0.50741285 -0.69449866 0.707431 -0.8148491
000010 89 98 1a bf 95 a8 86 3f de 23 47 3f 1b 6a d7 be
       -0.60389 1.0520197 0.77789104 -0.4207314
000020 40 cf b5 be 2a 02 5b 3f c6 4b f3 be ec 2d 09 bf
       -0.35509682 0.8555018 -0.47518748 -0.53585696
000030 c0 45 36 3f 9b 8d 34 3f d9 32 55 bc 4f 4c 3f bf
       0.7120018 0.7052857 -0.013012611 -0.7472581
000040 1a 00 1e 3f c9 4e 3b 3f 9d 59 fb be c5 80 4e 3f
       0.61718905 0.7316709 -0.49091807 0.80665237
000050 69 0e 11 3f 37 43 0e 3f 9d b2 0b 3f b0 aa 54 bf
       0.56662613 0.5557131 0.5456942 -0.8307295
000060 5b 64 ec bd d4 9a 85 bf a5 60 4d 3f 49 b9 59 bf
       -0.11542579 -1.0437875 0.8022559 -0.8504835
000070 02 98 66 3f 17 0d 3c 3e 59 e7 0a 3f 7a f4 08 3f
       0.90075696 0.18364368 0.5425926 0.5349804
000080 03 b7 80 bf e6 7b 85 3f 2d e0 3e bf 1c e2 36 bf
       -1.0055851 1.0428436 -0.74560815 -0.71438766
000090 b5 47 18 3f c7 d8 fa be 1d 49 40 3f 6b 89 89 3f
       0.59484416 -0.48993513 0.7511156 1.0745062
0000a0 75 99 b6 3e ee 8d 66 bf fc 88 50 3e a4 e5 95 3f
       0.35663953 -0.9006032 0.20364755 1.1710706
0000b0 77 62 a2 3d 2d 0d 77 bf 9e 4b 4e bf 21 95 26 3f
       0.07928937 -0.9650448 -0.8058413 0.650713
0000c0 10 fa 9a 3f 18 93 be bd ed c3 30 3f bc 9c 8c bf
       1.2107563 -0.093054 0.6904896 -1.0985332
0000d0 9e 56 41 3f fb 8b 27 bf 4e 8c 45 3f bb e1 3e 3f
       0.7552279 -0.6544797 0.7716721 0.7456319
0000e0 f9 43 70 3f bc 52 02 3f b0 13 48 bf 4b 65 59 3f
       0.9385372 0.5090749 -0.7815504 0.84920186
0000f0 6a dd 29 3f f0 d2 49 bf 0f 57 69 bf a0 2b 6f bf
       0.66353476 -0.7883749 -0.91148466 -0.9342594
000100 5f 43 86 3f 5b 05 68 3f 4d 99 7c 3e 1e 65 96 3f
       1.048931 0.9063317 0.24667855 1.1749609
000110 c3 d3 23 bf d6 8e 69 bf a4 f9 64 bf e9 0e 35 bf
       -0.63995 -0.91233575 -0.8944342 -0.70725876
000120 f0 9e 77 3f 6c c1 0a 3f c5 a6 42 3f db f4 5a bf
       0.96726894 0.5420139 0.7603572 -0.8552987
000130 11 ea 77 3f d1 a3 56 3f ba 87 13 3f e7 40 8f 3f
       0.9684153 0.83843714 0.5762898 1.1191682
000140 d7 d1 4c 3f 91 e2 19 3f ca 1a 35 3f 6d 50 54 bf
       0.8000769 0.6011134 0.70744 -0.8293522
000150 4f e6 18 3f 50 c5 75 3f 41 f0 47 bf 9c f1 3d 3f
       0.59726423 0.960042 -0.78100973 0.7419679
000160 c2 41 b2 be 47 08 09 bf 36 af 8e bf d6 66 ba be
       -0.34815794 -0.53528255 -1.114722 -0.36406583
000170 48 6d e6 3e 7a bd 38 bf b4 12 66 3f 11 1b 92 bf
       0.4500525 -0.7216412 0.8987229 -1.141451
000180 e2 7c 02 3f 7c 2c 4c 3f 56 86 c5 be ac 3d 84 bf
       0.50971806 0.7975538 -0.38579053 -1.0331321
000190 4f c8 90 bf 97 be 3a bf 68 b9 05 3f ed a1 85 bf
       -1.1311129 -0.7294707 0.5223603 -1.0440041
0001a0 94 75 7d 3f 49 dd 60 bf 2c 38 2e bf 5f 71 85 bf
       0.99007535 -0.87837654 -0.6805446 -1.0425223
0001b0 da af 89 3f 3e f6 87 3e e2 9a ec be ff 42 8a 3f
       1.0756791 0.26555055 -0.46211916 1.0801696
0001c0 4e 46 e9 3e 8e fd 65 bf 20 a7 3a bf 2a d7 1c 3c
       0.4556145 -0.8984002 -0.7291126 0.0095727835
0001d0 8e f6 61 3f be dd 78 bf 2c aa 51 be a9 b6 0d 3f
       0.8826684 -0.9721335 -0.20475072 0.5535684
0001e0 25 2a a6 be f4 d1 06 3f 29 0e 93 3f 87 56 b4 3e
       -0.3245403 0.52664113 1.1488696 0.35222265
0001f0 10 3e 87 3f 4b 53 2f 3f 95 05 87 3f 44 52 36 bf
       1.0565815 0.6848647 1.0548579 -0.7121928
000200 0c 8b 15 3f 22 e4 5c bf 2e 7a 58 bf 7f b1 51 bf
       0.58415294 -0.86285603 -0.8456143 -0.8191146
000210 f7 5d 24 bf 92 f6 0f 3f 48 4a 80 bf 1e b2 3a bf
       -0.6420588 0.5623561 -1.0022669 -0.72928035
000220 72 77 23 bf d0 0e 9e bf fe bd 4c bf fa 32 7d bc
       -0.63854134 -1.234827 -0.79977405 -0.015454048
000230 b1 2a 1d bf fb 9a 0f bf d9 5a 35 3f 27 79 73 bf
       -0.61393267 -0.56095856 0.7084175 -0.9510674
000240 72 71 1d bf f1 3c 4c bf 8a 81 66 bf bc 7f 59 3f
       -0.6150123 -0.7978049 -0.9004141 0.8496053
000250 fe 02 c4 be 5d 59 24 bf 26 e4 51 bf 80 13 3f bf
       -0.38283533 -0.6419886 -0.8198875 -0.7463913
000260 b5 1d 5f 3f cc dc 48 bf d0 91 95 3d 4b 3f 16 3f
       0.87154704 -0.7846191 0.07303202 0.5869033
000270 ee 69 ed 3d 9b 17 52 3f c5 74 69 3f ea 2f 83 bf
       0.1159247 0.8206727 0.911938 -1.0248997
000280 c1 69 05 3f e6 ba 51 bf d7 da 1d bf 52 f3 fd 3e
       0.5211449 -0.8192581 -0.6166205 0.495997
000290 8f 33 98 bf d4 8d 28 bf e3 85 89 3f c6 c3 a8 3f
       -1.1890734 -0.6584141 1.0743984 1.3184745
0002a0 6b 71 10 3e e6 9a 52 3f 97 c8 8b 3f 05 12 9c 3f
       0.14105766 0.82267606 1.092059 1.2192999
0002b0 17 6e 52 3f ee 3c 9e 3f c5 c8 5e 3f e2 19 97 bf
       0.82199234 1.2362344 0.870251 -1.1804774
0002c0 96 d9 52 3f f3 17 79 bf 07 0b 81 3f f6 6f 66 3f
       0.8236326 -0.9730217 1.008149 0.9001459
0002d0 08 9d f5 be 93 52 25 3f 08 1e 8a bf 5d c7 51 3f
       -0.47971368 0.64579123 -1.0790415 0.8194483
0002e0 37 c8 72 be ad 35 74 3f 29 cd 63 bf ad 58 8f 3f
       -0.23709188 0.953944 -0.88984925 1.1198937
0002f0 1a 42 7b 3f 6e a6 82 3e 33 76 13 3d 04 41 49 bf
       0.9814774 0.255176 0.036001395 -0.7861483
000300 d1 cc 4d 3f 08 94 6c bf ad 2d 95 bf 66 31 2f bf
       0.8039065 -0.9241338 -1.1654564 -0.6843475
000310 3a 2f 64 3e 86 aa f9 3e 58 0c 2e 3f 71 c6 1c 3f
       0.2228364 0.48762912 0.67987585 0.612403
000320 da 2f 4a 3f e7 bd 2b bf 67 42 4f 3f 76 3f 4e bf
       0.78979266 -0.67086643 0.80960697 -0.80565584
000330 78 9c 88 bf a8 2f c2 be dd dc 26 3f 27 c5 89 3f
       -1.067275 -0.37926984 0.6518076 1.0763291
000340 5b 42 2b bf 3a 42 36 bf d9 f8 92 bf 51 cb 72 bf
       -0.66898125 -0.71194804 -1.1482192 -0.94841486
000350 5f ec 6a bf bb 0a 70 3f 42 47 31 3f 78 24 3d 3f
       -0.91766924 0.93766373 0.69249356 0.7388377
000360 54 f2 a7 be b7 ab 0d bf 0f fd 3e 3f 34 99 1d bf
       -0.3280207 -0.5534014 0.74604887 -0.61561894
000370 ea 0a 56 3f 54 16 11 bf 50 c7 3e bf c1 fc 5e 3f
       0.83610404 -0.56674695 -0.74522877 0.8710442
000380 40 f4 88 3f 86 f0 6a bf 57 e9 2c 3f 6a 26 79 3f
       1.0699539 -0.9177326 0.6754355 0.9732424
000390 78 1e 27 3f 89 75 80 3f 37 97 85 3f 27 b9 08 3f
       0.65280867 1.0035869 1.0436772 0.5340752
0003a0 95 20 61 bf 3f b6 81 be 72 1b 19 3f d9 f9 fc 3e
       -0.8794034 -0.25334355 0.59807503 0.4940937
0003b0 c4 f3 31 3f 06 23 48 bf a3 21 80 bf 01 45 41 3f
       0.6951258 -0.7817844 -1.0010265 0.75495917
0003c0 85 f8 8e 3f 1e 35 23 bf 30 e9 dd bc 09 82 67 3f
       1.1169592 -0.63752925 -0.027088732 0.9043279
0003d0 45 33 ad 3f 23 de 5d bf f3 c6 e7 be 69 eb 74 bf
       1.3531271 -0.8666708 -0.45268974 -0.9567171
0003e0 02 57 5b 3f af 0c 7d 3f bd 79 53 3f 39 f2 20 bf
       0.8567964 0.9884748 0.8260763 -0.628696

StatefulPartitionedCall/sequential_1/dense_4/MatMul/ReadVariableOp:0 f4 [4, 4]
000000 da 37 6b 3d a0 a4 46 bd 8e c0 e7 3d d1 a1 37 bb
       0.05742631 -0.048496842 0.11316024 -0.0028020034
000010 8a 42 44 3e e1 58 36 be 51 c7 1c be b6 72 4a 3d
       0.19166008 -0.17807342 -0.15310408 0.049425803
000020 fa 62 c5 be 7b e3 dd be e0 fd b1 3d 23 6f 2c 3e
       -0.38552076 -0.43337616 0.08691001 0.1683927
000030 15 8b 9e 3d b8 6b d0 3e 92 89 5c 3d 5c 83 16 3e
       0.077413715 0.40707183 0.053842135 0.14698547

StatefulPartitionedCall/sequential_1/dense_4/BiasAdd/ReadVariableOp:0 f4 [4]
000000 c2 24 d4 be a5 15 96 be 10 43 89 bd 6c 51 32 3f
       -0.41434294 -0.29313388 -0.06702244 0.6965549
