test/database_onnx/13TeV/ATLAS/ATLAS-SUSY-2018-04-eff/SRlow/TStauStau.onnx (onnx, 146257 bytes, 16 tensors)

StatefulPartitionedCall/model/sequential/dense_3/MatMul/ReadVariableOp:0 f4 [128, 1]
000000 17 4e ef b8 9e 71 ea bd 28 3a 1f b9 3c 46 da 3e
       -0.000114109534 -0.11447452 -0.00015185087 0.4263171
000010 69 23 0b be 24 7e 30 3e 95 f6 ff be 5e d5 83 3e
       -0.13587727 0.17235619 -0.49992815 0.25748724
000020 cf dc ad bd 2c eb 43 3a b0 fe 49 bf a8 52 b9 39
       -0.084893815 0.0007473703 -0.7890425 0.00035347533
000030 4f 40 c1 bf 59 71 50 3e c9 51 1a ba 76 cf f5 b9
       -1.509775 0.20355739 -0.0005886821 -0.00046884612
000040 b5 cb 91 39 11 39 9f 3e 13 fe 24 3e 7d b0 99 be
       0.0002780833 0.31098226 0.16112547 -0.30017462
000050 b9 0d 75 39 0f a3 f8 bd 25 15 c3 3d 99 50 55 b9
       0.00023370133 -0.12140476 0.095255174 -0.00020343288
000060 69 a0 9c 39 9f 7e 82 be b5 ce 4c ba d1 27 e6 3e
       0.00029874154 -0.2548723 -0.0007812784 0.44952253
000070 1a 4f 93 be 2f bf 43 b9 a7 8c da be 76 16 cd 39
       -0.28771287 -0.0001866787 -0.42685434 0.00039117382
000080 f6 aa 27 3f 01 ff 86 be 93 8a af 3d 72 ed 66 bd
       0.6549524 -0.26366428 0.08571353 -0.05637879
000090 b1 77 97 39 16 38 61 be 9d 13 c1 3e 43 6c 57 be
       0.0002889014 -0.21994051 0.37710276 -0.21037392
0000a0 06 da 09 be 97 6b ca 3d 3c 10 95 be ae df 24 3e
       -0.13462076 0.098838024 -0.29113948 0.16100952
0000b0 29 73 2f be 84 2d 40 bf fd 9f 21 3e 28 84 13 be
       -0.17133774 -0.7506945 0.15783687 -0.14405882
0000c0 34 71 88 be 88 18 af bd 1c 31 8a b8 1e b1 b5 be
       -0.26648867 -0.08549601 -6.5895e-05 -0.35486692
0000d0 e8 29 92 3e ee 31 a5 b8 09 70 15 ba 0b 81 1b 3e
       0.28547597 -7.877113e-05 -0.00057005935 0.15185945
0000e0 b8 d3 37 be 42 23 70 3e ac ce 3f be 41 67 26 be
       -0.17951858 0.2345095 -0.18731183 -0.16250326
0000f0 f3 7e 1b 3e 05 79 35 3e 86 27 7f be 74 86 b2 be
       0.15185146 0.17721947 -0.2491742 -0.34868205
000100 9c bb 55 b9 af 0f 3c 3e 0a 54 8e be 8c e5 04 3d
       -0.00020383153 0.18365358 -0.27798492 0.032445475
000110 64 34 ad be 63 7d 22 3e c1 88 a8 39 eb 22 ee 3d
       -0.33829033 0.15868144 0.00032145347 0.11627754
000120 3c 62 eb 3e b5 4f 06 be d0 4b 87 be e4 f8 d9 3e
       0.45973384 -0.13116343 -0.26425028 0.425727
000130 82 53 95 39 ea 46 9b 3e 0a b5 85 39 2e dc 0a 3e
       0.00028481713 0.3032754 0.0002550262 0.13560554
000140 da 59 39 3e 7c 40 19 be 4b 7c 70 be c6 46 27 b9
       0.18100682 -0.14966005 -0.23484914 -0.00015952726
000150 f2 00 55 3a 21 45 a0 3e 22 67 42 be 54 08 8e 3e
       0.0008125446 0.3130274 -0.18984655 0.2774073
000160 b1 e3 d5 bd 02 62 0e be b2 46 4c bf 5b 63 e0 be
       -0.10443819 -0.13904575 -0.7979537 -0.43825802
000170 62 fb e1 38 b4 28 b2 bd 63 86 7e bf ef 0d ac 3e
       0.0001077566 -0.0869917 -0.9942381 0.3360438
000180 eb 29 27 be f2 e4 3a 39 8f e4 79 38 8a 4f eb 39
       -0.16324584 0.00017823631 5.9579088e-05 0.00044881954
000190 a3 b7 90 bd 15 c3 fc be 76 78 a0 b9 11 44 ab be
       -0.07066276 -0.49367586 -0.00030607329 -0.33450368
0001a0 e4 ba a3 39 d2 c5 db b9 bd e9 0d 39 d1 08 b4 3e
       0.00031229027 -0.00041918323 0.00013533882 0.35162976
0001b0 f9 e7 dd 37 2c 78 1b be c1 47 52 bd ab 80 f8 bd
       2.6453274e-05 -0.1518256 -0.05133796 -0.121339165
0001c0 4f ab b0 39 f3 23 8a bd 24 6a 82 b7 e2 e0 88 be
       0.0003369697 -0.06745138 -1.5546633e-05 -0.26734072
0001d0 4b 46 da 39 68 0c 45 be b3 b0 52 be d4 72 2c bd
       0.00041632573 -0.19243014 -0.20575218 -0.042101696
0001e0 8a 37 13 bf f8 95 38 38 9e ca 62 b8 eb 13 17 be
       -0.5750662 4.4008688e-05 -5.40713e-05 -0.14753692
0001f0 b8 0f 1a be 35 73 e2 39 c6 b5 48 3e da dc 98 bd
       -0.15045059 0.00043191915 0.19600591 -0.07463999

StatefulPartitionedCall/model/sequential/dense_2/MatMul/ReadVariableOp:0 f4 [128, 128]
000000 32 4c 0a be 53 99 92 3c 29 c3 61 bd 3a b3 d1 bb
       -0.13505629 0.017895376 -0.05511776 -0.0063995393
000010 ad 7c 90 be e6 22 59 3e b5 c6 db be 6d 43 a2 3d
       -0.2822012 0.21204719 -0.4292504 0.07923017
000020 74 af 38 bc f2 4d b3 b8 fc dc 4f be 13 e8 7e bc
       -0.0112723 -8.5499036e-05 -0.20299143 -0.0155582605
000030 8f a6 90 bd e3 7b 38 bd 19 f7 32 be 1d 27 04 3d
       -0.070630185 -0.045040023 -0.17477073 0.032263864
000040 c1 08 32 be bf bd 36 be 9b 24 9a 3d 29 4d 0a be
       -0.17386152 -0.1784582 0.07526513 -0.13505997
000050 87 2c 4b 3d 59 be 3a 3e f6 f5 87 bb 2a 5e ac bb
       0.04960301 0.18236674 -0.004149194 -0.0052602487
000060 55 5e 14 3e 68 39 44 be d1 ee 7f bd f9 ad 5d 3d
       0.1448911 -0.19162524 -0.062483612 0.05412099
000070 bb 7b 78 3d 67 c0 47 3c 75 fe e8 bd 98 9c 5a 3c
       0.060664874 0.012191868 -0.11376659 0.013342999
000080 2d e3 b5 3d 0c f9 6f 3d b8 89 06 3e 46 1c 45 bd
       0.08881221 0.05858712 0.13138473 -0.048122667
000090 2f 04 c0 bd 7b c9 82 be 94 01 38 3e ed 0b bf bc
       -0.09375798 -0.25544342 0.17969352 -0.023321116
0000a0 e4 d9 2b be 13 c0 51 3e a6 88 93 3e ee a4 06 be
       -0.16782337 0.20483427 0.28815192 -0.13148853
0000b0 f5 9e 5e bd d3 71 e7 bd e9 ce 27 3e 5c a7 13 3e
       -0.054350812 -0.11301007 0.16387524 0.14419311
0000c0 8e c2 06 bd a9 a1 aa bd 08 ca 51 be 4c 4f 27 3e
       -0.032900386 -0.083316155 -0.20487225 0.16338843
0000d0 7f 07 fe 3d 73 20 1a be dd 07 7d bd 93 3a b2 3b
       0.124037735 -0.15051441 -0.061775077 0.0054391115
0000e0 bc 33 18 3e 0c e4 8e 3d 5b 1c 90 bd 3f 34 08 3e
       0.14863485 0.0697709 -0.070366584 0.1330118
0000f0 30 56 20 3d f7 65 4c bd d3 04 26 be 7e a3 20 bd
       0.039144695 -0.04990193 -0.16212778 -0.03921842
000100 ab ad bd bc 12 26 26 3e 89 26 4f be 71 be ae 3e
       -0.0231541 0.1622546 -0.20229544 0.3412967
000110 17 2f 94 bc 03 f0 a8 38 50 50 c4 bb 02 de c8 3d
       -0.01808886 8.05557e-05 -0.0059910193 0.0980797
000120 cf 2f 86 be ef 72 29 3d 55 24 46 be 78 82 78 3d
       -0.2620835 0.041369375 -0.19349797 0.0606713
000130 fb af ce 3d d5 ee 72 be 1f cc 60 3d 77 63 bf 3b
       0.10092159 -0.2372392 0.054882165 0.0058407146
000140 7c ee ad ba e9 db 1b 3e ca 89 01 be 9f 92 38 be
       -0.0013269926 0.15220608 -0.12650219 -0.18024682
000150 08 2a fa bd 3c 90 ee bd cc 6f 50 3e ee 65 b7 bd
       -0.12215048 -0.11648604 0.20355147 -0.089549884
000160 8c 20 af bc 6f 32 26 3e 8a 83 ad 3b 2b 41 2f be
       -0.021377824 0.16230176 0.0052952217 -0.17114703
000170 24 e8 7b 3d b2 63 e4 be 64 7d a0 bc 37 b9 88 3d
       0.061500683 -0.4460731 -0.01959104 0.06675952
000180 9d 0b 9f be e9 fc fc 3d bb 16 e6 3d 21 44 b3 3d
       -0.31063548 0.12352926 0.11234804 0.08753229
000190 b1 66 6b be 49 d4 7b bc 46 bb c6 3b 86 2d 09 3e
       -0.22988392 -0.015370437 0.006064805 0.13396272
0001a0 61 78 92 bc 07 4a fd 3d ca 06 84 bd f7 e9 72 3e
       -0.017879667 0.12367635 -0.064466074 0.23722063
0001b0 7e c3 9c bd cb 6b e8 3d 14 d3 d0 3c 01 6e c0 be
       -0.07654475 0.11348685 0.025491275 -0.37583926
0001c0 88 0f db 39 7a 14 59 3d 2f e2 4b bd 07 a5 22 3d
       0.00041782507 0.052998044 -0.049776252 0.039708164
0001d0 91 6b d6 3d c6 ca 59 bd cf 19 5c 3d 7b f9 3a 3e
       0.104697354 -0.053171895 0.05373555 0.18259232
0001e0 e8 5a 3f bc fd 2b e6 3b 14 01 41 bd 8c 46 81 bc
       -0.011679389 0.007024287 -0.04712017 -0.01578071
0001f0 ba 43 80 be e4 db d1 bd 27 b8 33 3d 89 bc 9a bd
       -0.2505167 -0.10247019 0.043876793 -0.075554915
000200 d4 dc 5d 3d f5 0b 5a be 97 04 44 3d 09 c2 18 3d
       0.054165676 -0.21293624 0.04785594 0.03729442
000210 c7 2b 0c 3e f9 b5 10 3e 60 2c 8b 3e 7a db ed bd
       0.13688575 0.14131917 0.27182293 -0.116141275
000220 37 39 31 3c 8f d0 36 be 3a 42 78 be 6b 02 13 3d
       0.010816864 -0.17852996 -0.24244013 0.035890978
000230 d9 bf 98 3d bc 26 5d 3e 36 b6 1d 3e 22 7f 7a bd
       0.07458467 0.21596807 0.15401539 -0.0611564
000240 d3 07 19 3e 2b 70 44 3d 5a 7d 42 be cb d1 40 be
       0.14944391 0.047958534 -0.1899313 -0.1883003
000250 9f a8 2a 3d 0a 90 52 3d ec b1 43 3e 69 9a 3e be
       0.041664716 0.051406898 0.1911084 -0.1861359
000260 7c d0 d7 3d 2e 50 ca bc 57 e8 14 bd ee dd 81 bd
       0.10537812 -0.024696436 -0.03635439 -0.06341158
000270 7d 63 99 bc bf 4c 29 be 4d e8 2f 3d 44 a1 51 3e
       -0.018724198 -0.16533183 0.04294615 0.20471674
000280 94 98 c4 be d9 0e 30 bd 99 d0 aa bc 96 eb 01 3e
       -0.38397658 -0.04298291 -0.02085142 0.12687525
000290 be 69 2e 3e d7 18 5c 3d da 98 0a be 19 6f d5 bc
       0.17032525 0.053734627 -0.1353487 -0.026053952
0002a0 13 0a 5e 3c ac 90 ba 3c 31 83 af bd 03 fc aa bd
       0.013552207 0.022774063 -0.08569945 -0.08348849
0002b0 8d 3f 3b 3d b1 a0 5b 3d 7c e3 08 3e dc ff 26 3e
       0.045714904 0.053620044 0.13368028 0.1630854
0002c0 6c d4 3a be d9 71 fd 3b 93 c9 1d 3e 6d ec d5 be
       -0.18245095 0.007734519 0.15408926 -0.4178194
0002d0 d1 e4 d9 3c 5a 72 55 be c2 9d 4d bc ca 92 9c bd
       0.026598366 -0.20844403 -0.012549819 -0.07645185
0002e0 a6 83 0e bd d5 54 8c bd c4 84 7b 3e fa 70 83 be
       -0.03479352 -0.06852118 0.24562365 -0.25672132
0002f0 a9 b0 3c 3e 6f a6 b9 bd 4f ce 7f be 01 ef 52 bd
       0.18426766 -0.09064948 -0.24981044 -0.051497463
000300 7a da 2b be ff 20 8c bd e5 1b cf 3d 8d a3 46 3d
       -0.16782561 -0.06842231 0.10112742 0.048495818
000310 68 11 94 3d b9 a5 b0 bd c9 d7 d0 bd ce f5 28 be
       0.072298825 -0.08625359 -0.10197408 -0.16500017
000320 1f 6c 9c bd 32 7d d3 3d cc ee ca be 1c 97 37 bd
       -0.0763781 0.103266135 -0.39635313 -0.044821844
000330 3a 2f 2a be 9a e3 c9 3e bf fd 27 3e 41 12 4d 3e
       -0.16619578 0.3943146 0.1640539 0.20026495
000340 b0 68 52 be d4 bc 9a 3d a2 01 f4 3c a5 7b 5e bd
       -0.20547748 0.07555547 0.029785935 -0.054317135
000350 e8 83 39 3e 83 f2 d7 3d 3d 2e 8e 3c 49 35 68 bb
       0.18116724 0.10544302 0.017356033 -0.003543215
000360 3d aa 03 be df 9d 01 be dd 6d 2c 3e d8 fd 0e bd
       -0.1285791 -0.1265788 0.16838785 -0.034910053
000370 8d 8b de 3c ad 28 25 3e fc 1d ea 3d 7a 8f c4 3c
       0.027166152 0.16128798 0.114315 0.023994196
000380 3b 43 28 3d 2c 4d 9c bc c6 2c 1b 3e 91 fc d4 3c
       0.04107974 -0.019079767 0.15153798 0.02599934
000390 0b b5 7b 3e 06 c6 64 be 49 39 6e bd 67 4b 52 bd
       0.24580781 -0.22341165 -0.0581601 -0.05134144
0003a0 35 3d e4 bd 1a 43 2c 3e 65 34 86 3d 31 4a 5b bd
       -0.11144487 0.16822472 0.06552962 -0.05353755
0003b0 41 3a 81 3d 07 8f 20 be d5 6a e0 3c 0e 93 5b be
       0.06309939 -0.1567956 0.027394691 -0.21442816
0003c0 f7 54 7a 3d 85 a7 b4 bd f5 f1 0f 3e e4 53 93 be
       0.061116185 -0.08821014 0.14057143 -0.2877494
0003d0 7d fa 50 3a 5b bf 29 be ee 21 12 be a5 8b 56 3e
       0.0007971896 -0.16576903 -0.14270756 0.20951708
0003e0 41 fc f7 3d f6 fb b5 bb 9d ac b4 bd f1 46 59 be
       0.121086605 -0.0055537177 -0.08821986 -0.21218468
0003f0 43 16 84 3e c9 e7 b3 bc d5 a7 2f bd 3a b6 0f 3e
       0.25798234 -0.02196111 -0.042884666 0.14034358

StatefulPartitionedCall/model/sequential/dense_2/BiasAdd/ReadVariableOp:0 f4 [128]
000000 2f 0a 5d bc 85 2b 5d bc d9 7d 3d bd e2 7c 4b bd
       -0.0134911975 -0.013499145 -0.046262596 -0.049679644
000010 20 4d c8 3c 20 c0 fb 3c 95 72 d4 bd 1a 6c 93 be
       0.024450839 0.03073126 -0.10373417 -0.28793412
000020 74 ad 67 3e f7 ec 17 be bd 5e 40 bd 61 92 31 be
       0.22624761 -0.14836489 -0.04696535 -0.17340995
000030 3c b4 4d bc 90 7c 81 be 66 73 98 bb ad d9 91 3c
       -0.012555178 -0.25290346 -0.0046524284 0.017803991
000040 ac c9 0b bd cd c5 9c bd fe ae 24 bd 26 59 6d bd
       -0.034127876 -0.07654915 -0.040205948 -0.057946347
000050 d2 25 41 bd 59 08 10 3e 36 0f 1e bd 9b bd d2 bd
       -0.04715521 0.14065684 -0.038588725 -0.102900706
000060 c7 28 bf bd 1f 36 17 3e d9 8f 15 bd b5 fd db bc
       -0.093339495 0.1476674 -0.036514137 -0.026854375
000070 3a 79 68 be d6 f8 33 3d a2 88 7c bd 2b 99 8f bd
       -0.22702494 0.04393848 -0.06165374 -0.07011636
000080 5c 9e 8f 3d 6d 31 aa 3d e6 d2 81 bd a7 de 39 bd
       0.070126265 0.083102085 -0.06339054 -0.045378353
000090 5b bb 3f bd fb 09 ef 3e f5 01 81 bd dc 86 15 bd
       -0.046809535 0.46687302 -0.062992014 -0.036505565
0000a0 05 b3 3d 3d 98 7c 1a bd 54 7d 22 3e b8 e7 28 bd
       0.046313304 -0.037716478 0.15868121 -0.04123661
0000b0 5f fc 35 3f 60 1b e7 be 2b e1 0c be a6 95 39 3e
       0.7108821 -0.45138073 -0.1375777 0.18123493
0000c0 95 5a 0f 3e f7 6c 35 3d 08 e0 3f bd c6 1e 41 3e
       0.13999398 0.04429337 -0.046844512 0.18859395
0000d0 57 ee ae bd 47 ef 0f 3d be e2 57 bd ee 30 26 3d
       -0.085415535 0.035140302 -0.052706473 0.040574007
0000e0 cf 59 8c bd f5 b8 a1 bd 64 49 7b 3e 7d 29 93 3d
       -0.06853067 -0.07896606 0.24539715 0.07185648
0000f0 d4 1a cb bd 9f 36 24 bd 70 05 c5 3d fc d1 37 be
       -0.099172264 -0.040091153 0.09620178 -0.17951196
000100 07 c0 86 ba 6d 42 d6 bd 4c a8 d3 3e ed 55 47 bd
       -0.0010280617 -0.104618885 0.41339338 -0.04866593
000110 ce 23 85 be d7 80 8b bd 02 a4 75 bc 90 8c f5 bd
       -0.2600388 -0.068116836 -0.014992716 -0.11989701
000120 58 c3 a0 bb f4 d8 09 be c6 4d b0 3d b6 3c b9 39
       -0.0049060993 -0.13461667 0.08608584 0.00035331183
000130 4f e8 f1 bc 56 ae b0 3c 31 88 c1 bd cc 5a 4c be
       -0.029529719 0.021567505 -0.094498046 -0.19956511
000140 2b ff 28 bd 33 15 0c be fc ac cb bd 8f 9b b7 bc
       -0.041258972 -0.13679962 -0.099451035 -0.022413043
000150 a1 49 e5 bd 8c a9 88 bc 51 26 06 3e 54 11 90 be
       -0.11195684 -0.016682409 0.13100554 -0.2813822
000160 8a bc 92 bd 92 f1 27 3d 65 1b 52 bd 9c db 8e bc
       -0.07164867 0.041001864 -0.051295657 -0.017438702
000170 88 3d 24 bc 45 0e 13 3d 27 9c 65 bd 99 ce 39 bc
       -0.010024436 0.03590228 -0.05605712 -0.011340761
000180 4c 0f 37 3e 2f aa ed bd 1f d4 a1 bb 9f dd 24 3d
       0.17876929 -0.116047256 -0.004938617 0.040250417
000190 75 8c 22 3e 55 09 65 bc 5f de c3 3c a4 f7 8b bd
       0.15873893 -0.013979276 0.023909746 -0.06834343
0001a0 c6 7f 84 bd 92 83 da 3c 2f 4e ec 3c 0b 9d ea bc
       -0.06469683 0.026674066 0.028845875 -0.028639337
0001b0 e1 6e 91 bd 90 b0 da bd 50 59 2c 3d 74 d1 80 bd
       -0.071012266 -0.10678208 0.042077363 -0.0628995
0001c0 8a 7c 98 bc 07 a8 05 bd 55 e7 b8 bc 7a f9 01 3e
       -0.018614072 -0.032630946 -0.022571245 0.12692824
0001d0 c9 54 1b bc 2d 09 2f bd a4 d9 c6 bd 80 f4 b4 3d
       -0.009480664 -0.04273336 -0.097094804 0.08835697
0001e0 1b 32 89 be 6a 8d 68 bd 23 88 7e bc 0b f9 3d 3d
       -0.2679604 -0.056775488 -0.015535387 0.046380084
0001f0 a3 13 ad 3d 4d da 8e bc 78 0e c6 bd f9 1d b4 3c
       0.08451011 -0.017438078 -0.096707284 0.021986948

StatefulPartitionedCall/model/sequential/dense_1/MatMul/ReadVariableOp:0 f4 [4, 128]
000000 af f6 83 3e 06 41 59 be 31 6e 2a 3f 2f 1c 41 3f
       0.25774142 -0.2121621 0.6657439 0.7543363
000010 cc 4b 77 bf fb ce bf 3e 56 8a 84 be d9 10 1c bf
       -0.9660003 0.374626 -0.25886792 -0.6096321
000020 c9 b3 d3 3d 93 81 95 bf b1 f3 49 bf 00 8f 2a 3e
       0.10337026 -1.1680168 -0.7888747 0.16656113
000030 2f 33 d2 be b5 d2 46 3f be 25 b9 3e 31 e0 d8 3e
       -0.41054675 0.77665263 0.36161608 0.42358544
000040 66 dc 60 be 89 da 97 bf 0c e0 20 bf 62 74 83 3f
       -0.21959075 -1.1863567 -0.6284187 1.0269892
000050 27 ba 96 be ec a4 70 3f fb af ea be 98 3c d8 be
       -0.29438898 0.9400165 -0.45837387 -0.4223373
000060 3d b0 2c 3e 03 f9 9a 3d 23 a2 75 bd 5a d1 54 bc
       0.16864105 0.075670265 -0.05996908 -0.012989366
000070 c8 f6 84 3e 26 8f 98 be 31 22 d4 be b9 68 24 3f
       0.2596953 -0.29796714 -0.41432336 0.64222294
000080 0e 8a d6 be 84 f1 35 3e c0 1e 82 be 2c b7 c6 be
       -0.41902202 0.17767912 -0.25414085 -0.38811624
000090 5c f5 4b bf 6b 6f b3 be c4 06 4e bf 97 6e 1f bd
       -0.79671264 -0.35045943 -0.80479074 -0.038923826
0000a0 b6 5e bc be eb 80 5c 3d 80 da 7d 3f 75 f8 81 3f
       -0.3679101 0.053833883 0.9916153 1.0153948
0000b0 7c 09 2a 3d 69 47 11 3f 5e 94 a5 3e 94 db 29 bf
       0.04151295 0.5674959 0.32339758 -0.66350675
0000c0 e1 5b 09 3e 27 64 bb 3e 0b 4a ec be 26 df 9d bd
       0.13413955 0.36599848 -0.4615024 -0.07708578
0000d0 fa e3 93 bf 4d 5b 20 be d3 54 79 bf b7 64 a2 bb
       -1.1553948 -0.15659828 -0.97395056 -0.004955854
0000e0 0e b4 d6 3e c8 d7 e7 be 10 97 28 3f f4 32 5e 3f
       0.41934246 -0.45281816 0.65855503 0.867965
0000f0 b4 5a 33 bf 54 06 69 3f 90 f1 87 3f 65 bc 84 3f
       -0.70060277 0.9102528 1.0620594 1.0369993
000100 82 21 81 3e 1e df 61 bc f9 d8 ba be a0 d7 56 3f
       0.25220877 -0.013786105 -0.36493662 0.8392277
000110 fe 83 1f 3f 37 cf 30 3f 51 d2 0c be 7e e1 0e 3e
       0.6231078 0.69066185 -0.13752104 0.13953206
000120 77 5f 0f be 55 09 14 bf f2 8d 40 bf 09 17 99 3f
       -0.1400126 -0.5782674 -0.7521659 1.1960155
000130 a8 39 83 be 91 f3 46 be 09 00 17 3f cd d6 06 3e
       -0.25629926 -0.1942885 0.5898443 0.13167877
000140 3d 6f 22 be 80 96 6f bf 1b be c1 bf 6d 5a 56 3f
       -0.15862747 -0.9358902 -1.513614 0.8373173
000150 9f ad 0f bf ae 6f 1a 3f a8 04 58 be 89 c7 ab 3c
       -0.561243 0.6032666 -0.21095526 0.02096917
000160 8e 50 12 bf b0 56 2e 3f 5a 3d 6b bc b7 9f 83 bf
       -0.57154167 0.68101025 -0.014357889 -1.0283116
000170 d6 b8 4d 3f fd 84 d5 3c a1 e5 5f 3f ee 08 98 3f
       0.8036016 0.02606439 0.8745976 1.1877725
000180 b3 06 01 3f b3 38 9f 3e c6 65 1e bd 52 bd 0f 3f
       0.5040085 0.31097946 -0.038671277 0.56148255
000190 a6 5c a9 3e 6d 72 6e be 4c 4e 33 bf 51 36 58 3f
       0.33078498 -0.23285837 -0.70041347 0.8445788
0001a0 6d 6a 34 3f 1c d0 80 3f 7b 2e 82 bf 77 e0 03 bf
       0.7047489 1.006351 -1.0170435 -0.5151438
0001b0 85 ef e8 3e 6e 2a 87 3e 32 a2 21 be f8 d7 42 3e
       0.4549524 0.2639956 -0.15784529 0.19027698
0001c0 13 66 d7 3e 62 1a 9d bf 7c 18 59 be e2 94 d3 3e
       0.42070064 -1.2273676 -0.21200746 0.41324526
0001d0 e3 5c c0 3e ef ed 85 bf 70 a2 85 bd 6b c8 4f 3f
       0.37570867 -1.0463237 -0.06525123 0.8116519
0001e0 f0 2d 98 3d 10 a6 56 3f 82 0b 34 bf cf 6b 4e 3f
       0.07430637 0.8384714 -0.7033006 0.8063325
0001f0 30 e8 15 3e 8a 30 ed 3b fe 0f 4a be 6a c4 0a 3f
       0.14639354 0.0072384523 -0.19732663 0.54205954
000200 30 ba 20 3f 8d ff 6c bf 4b e3 1b bf 3a 4b db 3e
       0.627841 -0.9257744 -0.60893697 0.4283083
000210 89 a7 fd be 76 be b8 bf 9b 6d ad be 95 3e 91 bd
       -0.49541882 -1.4433124 -0.33872685 -0.07092015
000220 a2 bb 4c be 24 96 7d bf c5 66 7d bf ad b4 93 bf
       -0.19993451 -0.9905722 -0.9898494 -1.1539513
000230 4b c5 a2 bf 13 fd ba bf f1 49 47 3e 4e 15 c5 3e
       -1.2716459 -1.4608482 0.194618 0.38492817
000240 9e f4 9c 3e 12 72 84 bf cd 4c 8f bf 0b 82 93 3f
       0.30655378 -1.0347311 -1.1195313 1.1524061
000250 94 c4 70 bf fc a1 18 bf 4c b2 18 bf 40 1d 94 3f
       -0.94049954 -0.5962217 -0.5964706 1.1571426
000260 00 b3 3a bf 14 85 00 3f b0 66 7b 3f 47 18 c4 3e
       -0.7292938 0.5020306 0.98203564 0.38299772
000270 a5 5f 41 3e e9 bf 72 bf 85 30 95 be 51 6d 05 bf
       0.18884142 -0.9482408 -0.2913858 -0.5211993
000280 41 bf 5c 3f 85 e6 5b 3f de 48 34 3d b3 88 33 3f
       0.8622933 0.8589862 0.044014804 0.7013046
000290 1f 37 da 3e d6 0a c5 3e fc 67 45 bf 70 ec 2f be
       0.4262018 0.3848483 -0.7711179 -0.17180037
0002a0 ea 5d 02 3f 13 d8 74 3d fb d7 20 bf 0f de 32 bf
       0.5092455 0.059776377 -0.6282956 -0.69870085
0002b0 17 69 ad be 37 d8 65 3f e6 68 a4 bf 6f 75 99 bf
       -0.3386924 0.8978304 -1.2844512 -1.1988963
0002c0 cd 14 6f ba 05 8c 1e bf 72 1f e6 3d 01 7f 7d 3f
       -0.0009120226 -0.619324 0.112364665 0.9902192
0002d0 88 91 79 bf f2 e2 69 3d f7 68 2f 3f f5 dd 22 bc
       -0.9748769 0.057101198 0.6851954 -0.009940614
0002e0 32 61 10 bf 2f ef 81 bf a3 51 85 3c 49 33 7b 3f
       -0.5639831 -1.0151118 0.016274279 0.9812513
0002f0 19 69 87 3d 38 f7 a5 bf 2b 65 81 be ac f4 5a 3f
       0.06611843 -1.296607 -0.25272498 0.8552959
000300 ac 2c 26 3f af df 89 bf 69 4f 1e bf ba b6 c2 be
       0.64911914 -1.0771388 -0.6183992 -0.38030034
000310 9f b6 1e be f5 da 7a 3f 94 a9 a7 3d 12 9b 40 3f
       -0.15499352 0.9799035 0.08186641 0.7523662
000320 d0 ef 49 bd 2b 65 19 bf 96 99 dc be 4f 66 dd 3e
       -0.04930097 -0.59919995 -0.43085927 0.43242118
000330 dc 46 1d bf 43 7c 87 be 6f ee 84 3f 95 19 13 bf
       -0.6143625 -0.26461992 1.0385264 -0.5746091
000340 da a8 88 3e a1 2c 96 3f 52 21 5e 3e e4 6c 07 be
       0.26691324 1.173237 0.21692398 -0.13225132
000350 78 47 04 be fa 8e fc be 3e b6 94 bf d9 d3 58 be
       -0.12917888 -0.49327832 -1.1618116 -0.21174563
000360 b1 91 a8 3e 76 e6 46 3f 3a 51 9c be 71 f3 1c bf
       0.32923654 0.77695405 -0.3053072 -0.6130896
000370 dc 12 3a 3f 38 44 76 bd 55 89 d9 3e 0a cc 36 3f
       0.7268503 -0.060123652 0.4248759 0.7140509
000380 08 48 34 3f 6b 8b 6b be 14 bd 1f 3f d8 11 7c 3e
       0.7042241 -0.23002402 0.62397885 0.24616182
000390 58 2b ab 3e 45 08 42 bf 61 e2 8d 3f 2f 59 2f bf
       0.33431506 -0.7579387 1.108471 -0.6849546
0003a0 37 6e 61 3f 4c f6 ea 3e 7a 42 82 bf d4 74 69 bf
       0.880588 0.45891035 -1.0176537 -0.9119389
0003b0 e1 e0 27 be 4a f3 01 3f 10 d5 14 be 65 d4 19 3f
       -0.16394378 0.50761855 -0.14534402 0.60089713
0003c0 3d 21 75 bf 06 e2 6c 3f f5 0b b6 be af 3c 8a 3f
       -0.9575384 0.92532384 -0.35555997 1.0799769
0003d0 82 fe ca 3e 77 5b d4 be 98 19 2e 3f 65 f3 3f 3f
       0.396473 -0.41476032 0.680078 0.74980766
0003e0 1a 49 f9 be 0c 61 5e 3e 81 cf 2a be e9 6c d2 3e
       -0.48688585 0.21716708 -0.16680719 0.41098717
0003f0 7e e3 e6 bf 0e 3b 47 bf 54 d7 80 bf f5 65 c2 3e
       -1.8038175 -0.77824485 -1.0065713 0.37968412

StatefulPartitionedCall/model/sequential/dense_1/BiasAdd/ReadVariableOp:0 f4 [128]
000000 ec c8 92 bd 2b de 56 3e 29 a4 4d be 1c 04 c3 be
       -0.07167229 0.20983188 -0.20082153 -0.38089073
000010 23 35 31 3e 04 37 fd 3c 87 c0 f5 3d 02 33 97 bd
       0.17305426 0.030910023 0.11999612 -0.07382776
000020 f0 24 0d 3e 7e 76 62 3e bb 1d e8 be 7c d3 67 3d
       0.13783622 0.22115514 -0.45335183 0.05659817
000030 05 7c 7f 3e 08 d3 c1 bd 4e 7c 9f 3e d2 36 46 3c
       0.24949653 -0.09464079 0.31149524 0.012098031
000040 7a ec a4 be 44 5c 8e 3e a8 cb 32 bd 5c ea f4 be
       -0.32211667 0.27804768 -0.043651253 -0.47835052
000050 89 cf b4 bd 93 31 eb be 91 a8 9a 3f a0 ee cc be
       -0.08828647 -0.4593626 1.2082692 -0.40025806
000060 bb 5d 0c bf 45 5f 81 be bc ad b7 3e a5 02 4b bd
       -0.5483052 -0.25267997 0.35874736 -0.04956307
000070 1c 69 c7 be d2 66 00 3e cf 19 09 bc 87 cd 40 be
       -0.3894738 0.12539223 -0.00836797 -0.18828402
000080 2a b7 f2 be 26 50 15 3f 2a 3d bc be b0 8c e1 bd
       -0.47405368 0.5832542 -0.36765414 -0.11013162
000090 bb 39 9c be 0d 0f bd bd a9 59 b7 bc e6 ce 70 3e
       -0.30512795 -0.09231386 -0.02238162 0.23516425
0000a0 05 08 eb bc 84 a8 25 bd e6 e3 b3 bd ef ec a7 be
       -0.028690347 -0.040443912 -0.087837026 -0.32797953
0000b0 81 92 0f 3d d4 59 81 be a4 ea 06 be f4 a7 63 3e
       0.035051826 -0.25263846 -0.13175446 0.22232038
0000c0 58 e0 55 be da 6f 93 bd bd 01 2b be 4e 30 79 bd
       -0.20886362 -0.07199068 -0.16699882 -0.060837083
0000d0 a4 1a 58 3e be 33 57 be 5e 58 8e be 11 35 23 3b
       0.21103913 -0.21015832 -0.27801794 0.0024903456
0000e0 ee 71 38 3e 29 1c 6e 3e ca e4 99 be 21 71 bb be
       0.1801221 0.2325293 -0.30057365 -0.36609748
0000f0 58 0f 58 bb dc f1 f0 be cf 3c 1f bf 37 5e d6 be
       -0.003296813 -0.47059524 -0.6220216 -0.41868755
000100 c4 22 8b be 26 26 09 3d cb 09 55 bc 1e 00 b8 be
       -0.27174962 0.033483647 -0.013002823 -0.3593759
000110 1c a0 ba bd 2d 16 24 3e 0c 0b e6 be 0e df 56 be
       -0.0911257 0.16024084 -0.44930303 -0.20983526
000120 b8 60 96 3c 46 05 1b be d0 69 2b 3e 9d 4a 46 bd
       0.018356666 -0.1513873 0.16739583 -0.048411
000130 a6 db da 3d f0 71 85 3d 0c 42 96 be d9 c5 6d bd
       0.10686426 0.065158725 -0.29347265 -0.05805001
000140 89 f9 8e bd 85 a3 66 be fb 0f 80 bd 01 cc 7a 3d
       -0.06981189 -0.22523315 -0.06253048 0.06122971
000150 6f 96 9d be b2 7e 25 be 69 92 11 bf 29 1f ae bc
       -0.30778834 -0.16161612 -0.5686403 -0.021255093
000160 56 52 6a bd 7e ab d9 be 40 23 05 3d 8a ba 2f bf
       -0.057207428 -0.4251365 0.03250432 -0.6864401
000170 33 a1 36 bc 80 24 3c 3d df 1e 07 3f b4 6c 20 bc
       -0.011146831 0.045933247 0.5278148 -0.009791542
000180 1d 12 7a be f2 b5 5e bd e3 ad 38 be 64 6f 8e be
       -0.24420972 -0.054372735 -0.18035083 -0.2781936
000190 59 6d 63 be bd 41 a0 bd 3d 21 f1 be db f4 f6 be
       -0.22209682 -0.078250386 -0.4709567 -0.48233685
0001a0 57 bb 77 be 5d 7f a5 be e5 93 8c 3e ae fe 68 3e
       -0.24192558 -0.32323733 0.27456585 0.22753403
0001b0 33 9a f5 3d a1 60 46 be 55 b9 70 be fe a8 7a be
       0.11992302 -0.19372799 -0.23508199 -0.24478528
0001c0 55 b0 70 3d 1e 03 cd be f6 42 9f bd 48 b5 b4 be
       0.058761913 -0.4004144 -0.07776444 -0.35294557
0001d0 eb 97 72 be f8 03 ff 3d ab 45 62 be e7 b4 37 be
       -0.23690765 0.12451929 -0.22096889 -0.17940103
0001e0 54 f3 12 3c 9d 76 28 3d 8b 22 0c 3e af ed 91 be
       0.008969147 0.041128743 0.13685052 -0.2850165
0001f0 7b c8 bb bd 5d 78 22 be d2 d3 84 3e a5 87 bd be
       -0.09169098 -0.15866227 0.25942856 -0.3701755

StatefulPartitionedCall/model/sequential/dense/MatMul/ReadVariableOp:0 f4 [4, 4]
000000 05 77 bf be 08 35 45 bd e0 f9 ff be cf 37 f5 be
       -0.37395492 -0.048146278 -0.49995327 -0.4789414
000010 c1 f9 3c 3f d9 62 f6 be 84 a8 25 3e 97 4c a6 be
       0.73818594 -0.4812229 0.16177565 -0.32480308
000020 f5 98 e5 3e 69 5c 63 3e 30 5b ab be 9d eb 32 3d
       0.4484326 0.2220322 -0.33468008 0.04368173
000030 ef 3e d7 be 6b 7e 85 3e 98 e9 bc be f2 20 09 3f
       -0.42040202 0.26073012 -0.36896968 0.53565896

StatefulPartitionedCall/model/sequential/dense/BiasAdd/ReadVariableOp:0 f4 [4]
000000 d3 53 9f bd 8e b2 b0 3e 5a b5 80 be ff 90 c3 be
       -0.0777966 0.34511226 -0.2513836 -0.3819656

StatefulPartitionedCall/model/classifier/dense_3/MatMul/ReadVariableOp:0 f4 [128, 1]
000000 57 3a e4 be 6a 96 84 3e c5 f9 9a 3e 63 a0 10 3e
       -0.4457576 0.25896007 0.30268684 0.14123683
000010 87 5a 5e be fe 8b 10 3e 89 96 69 bf 91 2a 71 3e
       -0.21714221 0.14115903 -0.91245323 0.23551394
000020 02 ef 82 3e 3a 6d 9b be 0b 21 b8 3d 54 ee 75 3e
       0.25572973 -0.3035677 0.089906774 0.24016696
000030 9f a0 2d be 68 eb 06 3f 9f 71 53 3e 07 02 25 bf
       -0.16955803 0.5270295 0.20648812 -0.6445622
000040 c6 f3 b2 3d 59 ed 46 be 0b 99 cf b9 89 2b 9d be
       0.08737902 -0.19426478 -0.00039596143 -0.30697277
000050 d9 ce d9 3e 57 32 a1 3e 24 9f 6f be dc bf 22 bf
       0.42540625 0.3148372 -0.23400551 -0.63574004
000060 f5 eb 4e 3e 99 0f ff 3e c6 4d 38 3e 26 bf 74 3e
       0.20207198 0.49816588 0.17998418 0.23901042
000070 4b de 44 3e be 58 58 3e 68 f2 60 be f6 d6 08 bf
       0.19225423 0.21127602 -0.2196747 -0.53453004
000080 aa d6 f9 be e8 67 11 bf 77 8b 36 bf 2f b6 cb be
       -0.48796588 -0.56799173 -0.71306556 -0.39787433
000090 cb 1a d6 3e c8 5c 77 bf c1 9b 11 3f a2 c7 8b 3e
       0.41817316 -0.9662595 0.56878287 0.27300745
0000a0 66 53 4d be 05 19 86 3e 16 f5 10 bf b7 7f 4a 3e
       -0.20051345 0.26190963 -0.5662397 0.19775282
0000b0 8c ca 30 bf 6b a9 b1 3e 5b 6c 84 be 98 03 8a 3e
       -0.6905906 0.34699568 -0.2586392 0.26955867
0000c0 f1 98 9f 3e f9 d4 1e bf e4 8e a6 3e b7 10 c5 be
       0.31171373 -0.6204372 0.32530892 -0.38489315
0000d0 43 0e 26 3e 4c 45 4b bf ef 01 ae 3e f5 d6 29 bf
       0.16216378 -0.79402614 0.3398585 -0.66343623
0000e0 30 42 e2 3d 99 6e 53 be 3d b7 3e 3e f3 47 72 3e
       0.110477805 -0.20647658 0.18624587 0.23660259
0000f0 c3 22 2f 3e e4 37 08 3f e3 2c 25 bf 66 29 60 bf
       0.17103104 0.5321028 -0.64521617 -0.8756317
000100 04 30 8d bf 0f ec 41 be 93 16 be be 85 ac 80 3e
       -1.1030278 -0.18937705 -0.37126598 0.25131622
000110 d0 4f dc be e1 c0 6c be 61 1c b7 3e 4c 9f 4b bf
       -0.43029642 -0.23120452 0.3576384 -0.7953994
000120 5f d2 76 bf 11 5e 13 3e 92 1a dd be 6d 90 39 3e
       -0.9641475 0.14391352 -0.43184334 0.181215
000130 2e a3 5f bf 3f 1a 9f be 7e 38 24 bf 43 dc 62 bf
       -0.8735837 -0.31074712 -0.641487 -0.8861734
000140 ae 02 bd 3e 7d 3b b6 be 28 96 a7 bf 93 b3 4a bf
       0.36916107 -0.3559226 -1.3092699 -0.7918026
000150 7b 41 d2 be 8b b2 9a 3e e5 f9 b1 3e 49 23 06 3e
       -0.41065583 0.30214342 0.34760967 0.13099398
000160 17 f7 0d 3f 06 93 51 3e dc 5e 65 bf 54 e5 ef 3e
       0.55455154 0.20466241 -0.8959787 0.4685465
000170 b3 fe 07 bf 4d 47 ba 3d c4 e6 99 be 47 a3 8a bf
       -0.53123015 0.09095631 -0.30058873 -1.0831078
000180 35 de 5e be a6 05 7b bf 78 2e d8 bf b9 9c c1 be
       -0.21764453 -0.98055494 -1.6889181 -0.37814882
000190 8d aa 86 3e fc 50 fb be be 0b db bd 07 d1 b0 3e
       0.26301995 -0.49085224 -0.10695599 0.34534475
0001a0 cf 8b 4f bf b6 a8 ef 3e 18 26 4e be a6 98 59 bf
       -0.81072706 0.46808404 -0.20131719 -0.8499855
0001b0 9c 7e 98 3e b9 e3 c6 3e 0b 59 ac be 2f ff c5 be
       0.29784095 0.38845614 -0.33661684 -0.38671252
0001c0 dc 54 3e 3e dc d9 4a 3e f7 b9 24 be b5 64 56 3e
       0.18587059 0.1980967 -0.16086565 0.20936854
0001d0 62 e0 2b bf 51 ba 3b 3e 7b 84 03 3e 27 bc 2d bf
       -0.67139256 0.18332793 0.12843506 -0.6786522
0001e0 ae 12 6d 3e 61 56 6d 3e 1a 19 bb 3e dc ce 19 3e
       0.23151657 0.23177482 0.36542588 0.15020317
0001f0 8f 3d 8f be f7 d1 f8 3c 2f de a3 be 28 26 ea bd
       -0.27976653 0.030373557 -0.3200545 -0.11433059

StatefulPartitionedCall/model/classifier/dense_2/MatMul/ReadVariableOp:0 f4 [128, 128]
000000 66 86 c4 bd 18 25 f0 bd 5b e4 67 bd 10 e1 5e 3e
       -0.09595947 -0.11725825 -0.05661426 0.21765542
000010 d7 82 8b 3e f1 85 ce bd 0c 9a 5e 3e 71 7f 33 3e
       0.2724826 -0.10084141 0.21738452 0.17529084
000020 dd c6 3e 3e 8c 14 34 be bb 4c 12 3e f1 39 07 3e
       0.18630548 -0.17585963 0.14287083 0.13205697
000030 db 7b 10 3e d9 0e ef bd 6d 15 0d be 93 d5 b1 bd
       0.14109747 -0.11672754 -0.13777705 -0.08683314
000040 96 85 fd 3c 30 c4 41 bc c4 f9 5f be fb 47 d8 bd
       0.030947488 -0.01182656 -0.21872622 -0.10560604
000050 3e 46 42 3e dc e4 3e 3e 46 9b 01 be 5b af 86 3d
       0.18972108 0.1864199 -0.12656888 0.06576415
000060 59 e3 4a 3d 88 92 21 3e 50 c8 a8 bd 00 ca 20 3e
       0.049533222 0.15778553 -0.082413316 0.15702057
000070 c0 80 3a 3e 50 95 00 3e 39 36 0c 3e af a6 f6 3d
       0.18213177 0.12556958 0.1369256 0.12043511
000080 a9 b5 b2 bc e2 13 a4 3d 90 91 32 3a f0 3d be bd
       -0.021815138 0.08011605 0.00068118516 -0.092891574
000090 c9 aa 24 bd 12 b1 49 3d 95 8d fe 3d 6c b5 39 3e
       -0.040201936 0.049241133 0.124293484 0.18135613
0000a0 a8 1e 70 bd 93 a7 a4 bd 2e 70 19 3e 45 ae 2c 3e
       -0.058622986 -0.08039775 0.149842 0.16863354
0000b0 e1 8f 3b be 59 a6 ab 3e 60 af 4b bd 77 01 ba 3d
       -0.18316604 0.3352535 -0.049727798 0.09082311
0000c0 35 85 4f 3d 17 1d 37 3e 82 72 67 bc de db f1 3d
       0.050664145 0.1788219 -0.014126422 0.118095145
0000d0 db cc eb 3c d0 a7 1a be c5 19 a7 3e 8f fb 9f 3d
       0.028784206 -0.15103078 0.32636848 0.07811653
0000e0 72 d9 45 be 2d 00 ae bc ba 9d 77 bd 9a 05 66 3d
       -0.1932123 -0.021240318 -0.060453154 0.056157686
0000f0 db 7d 2e 3e 56 8c 92 bd 08 94 5b 3c 13 1d 86 bd
       0.17040198 -0.07155673 0.013401993 -0.06548514
000100 d7 ac 50 be 04 07 29 3e be ae 86 bd 69 c5 17 3e
       -0.20378433 0.16506582 -0.06576298 0.148214
000110 84 57 91 bd 83 a8 1c be b6 e0 19 3d 5d 24 c6 bd
       -0.070967704 -0.15298657 0.037567817 -0.096749045
000120 d8 d8 10 3e 79 74 a7 3d 06 cc 5c be 9b 46 86 bd
       0.1414522 0.08176512 -0.21562204 -0.06556436
000130 3d 5f f7 bd 6e e6 5b bd 8a ce 01 be 54 63 b3 3d
       -0.12078712 -0.05368655 -0.12676445 0.0875918
000140 a0 7e 94 3d b7 81 d1 bc 2e c6 d3 bd 9a 5b df bb
       0.07250714 -0.025574548 -0.10340534 -0.0068163397
000150 b1 2f 0c be 55 2c 64 bd e1 e7 79 3e 3f 88 a3 3d
       -0.13690068 -0.05570634 0.24404861 0.07984971
000160 a2 07 2f 3e 71 b0 3b 3e 4a 66 87 be 15 5a f2 3d
       0.17092755 0.18329026 -0.26445228 0.11833588
000170 7b 9f 3e 3d 97 6b c4 3c ab 5b 0b be f6 a2 a2 bd
       0.04653881 0.023977084 -0.13609187 -0.079412386
000180 45 c0 7b bd 17 3e 58 3d 13 d4 fd be 4e 71 dc 3d
       -0.06146266 0.05279359 -0.49575862 0.10763799
000190 c1 db a8 bc f1 82 17 be 23 37 06 3e 22 9a 90 bd
       -0.0206126 -0.14796044 0.1310697 -0.070606485
0001a0 9f 57 46 3d b3 e5 33 3e d0 22 76 3c 71 f7 8c be
       0.048423406 0.17568092 0.015022948 -0.27532533
0001b0 ee 68 78 3d 28 05 d2 bd 65 e9 21 be 17 a8 5d 3e
       0.060646944 -0.1025489 -0.15811689 0.21646152
0001c0 27 43 93 bd c6 ce 82 3e 55 de 49 bd 5d fe 65 3c
       -0.07190543 0.2554838 -0.049284298 0.014037696
0001d0 c6 d4 31 3e 5e f7 c9 3d 80 03 c3 3d f0 45 51 bd
       0.17366323 0.09861635 0.09522152 -0.05109209
0001e0 02 a3 cd bd a8 93 67 3e c3 71 cf bd be f2 07 3e
       -0.10040857 0.2261492 -0.1012912 0.13276193
0001f0 d5 2e d1 3c c5 a6 11 3e a0 58 5d 3d f1 79 e6 bd
       0.025535027 0.14223774 0.054039598 -0.11253727
000200 e4 bb 34 3f 6c 10 22 bf c9 da 44 bf 59 ed 95 be
       0.705992 -0.6330631 -0.7689634 -0.29282644
000210 60 fc 19 3e d6 58 d2 be 7c df 1a 3e 5c da 80 be
       0.1503768 -0.410834 0.15124315 -0.25166595
000220 55 0d a0 be 1f b6 02 3f ec fa 57 be c5 53 11 bf
       -0.31260172 0.51059145 -0.21091813 -0.5676845
000230 89 98 c5 3e 8d 53 72 be c0 a4 b2 be 8c 2e c9 be
       0.38592938 -0.23664685 -0.3489132 -0.39293325
000240 09 52 b6 bd 00 2c ed 3d 37 6e 22 3c 5c c5 1c 3f
       -0.08902366 0.11580658 0.009913973 0.61238647
000250 a1 13 06 bf c1 02 39 bf cc ed ed 3e bc bf 18 3e
       -0.523737 -0.7226983 0.46470487 0.14916891
000260 7e 2d 1c bf 94 93 d3 be cb f6 c3 be df 03 ca be
       -0.61006916 -0.4132353 -0.38274226 -0.39456078
000270 6c 76 90 be d1 e7 63 bf a4 3a 11 3f 38 8a 83 be
       -0.2821535 -0.890256 0.56730103 -0.2569139
000280 8d c9 04 3f 91 6d 6f 3e 44 30 0a 3e d6 e5 a1 3e
       0.5187004 0.2338164 0.13494974 0.31620663
000290 3d a4 c2 bd 38 ce 84 3d 42 d0 27 bf d4 f9 f6 be
       -0.09503982 0.064846456 -0.6555215 -0.4823748
0002a0 27 3a f6 3d fa f3 cd be 82 1d e1 be f4 92 ee be
       0.120228104 -0.40225202 -0.43967825 -0.4659649
0002b0 7d 25 64 3f d6 51 c3 be 2d cf 26 3f 86 90 74 bd
       0.891197 -0.38148373 0.65159875 -0.05970814
0002c0 b5 fa a6 be cf 1f af be 60 21 a4 be 55 22 17 3f
       -0.3261315 -0.34203956 -0.32056713 0.5903676
0002d0 8d 09 35 be 2a 13 56 3e 27 da 99 be 18 35 9a 39
       -0.17679425 0.20905748 -0.3004925 0.00029412727
0002e0 39 92 d4 be be b5 ea 3e ca 05 00 bf 02 f7 09 bf
       -0.4151781 0.45841783 -0.50008833 -0.5389253
0002f0 55 9c 92 be ee f9 68 bf 8b bc a8 3e df e2 38 3e
       -0.28634897 -0.9100636 0.32956347 0.18055294
000300 07 f2 55 3e 7f 55 89 3e 37 69 fb be c5 c7 20 bf
       0.20893107 0.2682304 -0.4910371 -0.62804824
000310 25 d6 b5 3e 97 21 08 3e f8 4a 12 bf a0 b3 45 3e
       0.35514942 0.13294064 -0.57145643 0.19306803
000320 24 00 0c 3e a7 0e 00 bf 48 e5 5b 3f 64 ff 22 bf
       0.13671929 -0.5002236 0.8589673 -0.63670945
000330 08 91 32 3e 83 ec d2 be 40 97 68 bd 7c 73 0b be
       0.17438138 -0.4119607 -0.05678487 -0.13618273
000340 9d cd 51 bf 2c d1 1c 3f 48 6e 31 3f 19 e1 49 3e
       -0.81954366 0.6125667 0.693089 0.19714774
000350 86 55 01 3f db 61 3f bf 74 c8 d7 be 9b 15 b7 be
       0.50521123 -0.7475869 -0.4214512 -0.3575867
000360 c3 4c 1a bf 89 10 95 be 1e 45 28 3e 5b 06 3e bf
       -0.6027338 -0.29114178 0.16432616 -0.7422845
000370 0d 2d bd bd 22 a4 77 be 30 f8 e8 3e dd e9 02 3e
       -0.092371084 -0.24183705 0.45501852 0.12784524
000380 5f dc 41 3e 23 eb 81 3e d7 ef f0 3e b4 d1 8c bc
       0.18931721 0.25374708 0.47057983 -0.017189838
000390 40 54 38 bf 5e b2 40 3f e4 4d 6e 3e 2b c6 0f bf
       -0.72003555 0.75272167 0.232719 -0.56161755
0003a0 68 29 69 3e 75 08 01 bf 65 62 5e 3e 15 94 4e 3e
       0.22769701 -0.5040353 0.21717222 0.20173676
0003b0 34 13 98 be e1 78 12 bf aa fa ee 3e d1 41 1b 3f
       -0.2970215 -0.57215697 0.46675617 0.606473
0003c0 b6 21 df be 72 5e 74 be 9b c2 9e bc 5d dc 10 bf
       -0.43580407 -0.23864153 -0.019379904 -0.5658625
0003d0 33 19 8c 3d 9b 2f 2f bf 1e 52 77 be 72 03 36 3e
       0.06840744 -0.68432015 -0.24152419 0.17774752
0003e0 82 e7 1b bf 33 cd 03 bf de 63 ba be 7a de ae be
       -0.6090013 -0.51484984 -0.36404318 -0.3415411
0003f0 9c 05 cc 3e 60 f5 75 be ba e7 b8 be af 91 23 3e
       0.3984803 -0.24019384 -0.36114293 0.15973543

StatefulPartitionedCall/model/classifier/dense_2/BiasAdd/ReadVariableOp:0 f4 [128]
000000 d9 ec 56 be 50 bc 3c 3e b6 3f a2 3e b7 a7 8d 3e
       -0.20988788 0.1843121 0.31689233 0.2766702
000010 2f 8c 8c be f6 55 56 3e 61 b3 c4 be 88 19 66 3e
       -0.27450702 0.20931229 -0.38418105 0.22470677
000020 2b 2b 9c 3e 5a a7 41 be 67 7c fb 3d 84 8b ae 3e
       0.30501685 -0.18911496 0.12279587 0.34090817
000030 05 4a 01 bf e4 47 03 3f 92 33 8e 3e 51 3e d4 be
       -0.5050357 0.5128157 0.2777372 -0.41453794
000040 8e db c3 3d 15 ff fd be 99 28 02 3e d2 35 64 be
       0.09563361 -0.49608675 0.127108 -0.22286156
000050 d8 4a dc 3e 27 0c b0 3e 9c ee fd be 3c d6 b0 be
       0.4302585 0.34384272 -0.49596107 -0.34538448
000060 64 2d 93 3e a6 e8 cb 3e 88 56 89 3e 3e ce a5 3e
       0.28745568 0.39825934 0.2682383 0.32383913
000070 2f aa 8f 3e a2 f0 0f 3e 40 04 27 be 2f 2c 0f bf
       0.28059527 0.14056638 -0.16310215 -0.55926794
000080 4f 3a 0d be 68 02 ab be 3a 2f b8 be 3b a8 4d be
       -0.13791774 -0.33400273 -0.3597353 -0.20083706
000090 ea d1 3c 3b 01 cc e9 be 38 b1 b6 3e 8f 2c 57 3e
       0.0028811642 -0.45663455 0.35682082 0.21013092
0000a0 65 45 0d bf 9e 60 a1 3e 4f bf 0f bf 9d f6 61 3e
       -0.5518401 0.31519026 -0.5615129 0.22066732
0000b0 32 43 bd bd 7b 6f e1 3e 49 ad 95 be 6e 50 43 3e
       -0.09241332 0.44030365 -0.2923377 0.1907365
0000c0 2c 39 6c 3e c2 82 01 bf 4f e2 9e 3e e2 43 cf bd
       0.23068684 -0.50590146 0.31032035 -0.101203695
0000d0 92 df 06 3e a1 ed e9 be 7d cc 02 3f 12 2d ef be
       0.13171223 -0.4568911 0.51093274 -0.46714073
0000e0 7f 7a 1f 3e 65 e1 00 bf 5c 46 90 3e 1a 30 a3 3e
       0.15574072 -0.50343925 0.2817868 0.31872636
0000f0 2a 61 99 3e f5 51 8c 3e ad 45 c1 be 0d 2c c0 be
       0.29956943 0.27406278 -0.3774847 -0.37533608
000100 57 56 b6 be 15 a2 ef be e0 20 05 bf 9a 5a 04 3f
       -0.35612747 -0.46803346 -0.5200329 0.51700747
000110 52 71 3c be 19 44 85 be 1f b3 da 3e 8e 61 dd be
       -0.18402603 -0.26028517 0.42714784 -0.4323849
000120 27 bf a5 be 45 24 1b 3e e1 70 16 be 60 7b 2b 3e
       -0.323724 0.15150554 -0.14691497 0.16746283
000130 9f d6 da be ba 24 0a bf eb b9 df be 34 e3 ee be
       -0.42741868 -0.5396229 -0.43696532 -0.46657717
000140 a0 2a a1 3e c6 8b 4a be 88 e9 c9 3d cf dc 01 bf
       0.31477833 -0.19779882 0.09858996 -0.5072755
000150 91 50 f5 be d3 4a 9f 3e 19 f4 8c 3e 8f cb 06 3e
       -0.4791303 0.31111774 0.27529982 0.13163589
000160 27 e8 dc 3e c1 f8 96 3e 0a e3 9f be 59 ea b7 3e
       0.43145868 0.2948666 -0.31227905 0.3592098
000170 22 fa 0c bf ab a1 30 3e 6a b7 1b be fc eb c3 be
       -0.5506917 0.17249171 -0.15206686 -0.3826598
000180 89 d6 04 bf 96 67 d7 be 9c 67 63 3e 2b 34 e5 be
       -0.51889855 -0.42071217 0.22207493 -0.44766364
000190 00 c2 18 3e fb 22 e9 bd 27 6a ff be 26 f7 ab 3e
       0.14917755 -0.11383625 -0.49885675 0.33586997
0001a0 f0 11 cb be e7 fc a4 3e d5 2a 00 bf 60 19 df be
       -0.39662123 0.322242 -0.50065356 -0.43574047
0001b0 31 ac c9 3e 65 87 a7 3e c6 9b 52 be 74 e1 46 be
       0.39389184 0.32720485 -0.20567235 -0.19421941
0001c0 19 f0 b9 3e 01 1b a6 3e ad 13 0d bf 5e 7e 72 3e
       0.36315992 0.32442477 -0.5510815 0.23681018
0001d0 90 c2 de be 42 bd 4a 3e 95 a0 87 3e 97 a9 f2 be
       -0.43507814 0.19798759 0.26489702 -0.47395012
0001e0 9f de 41 3e 8d cb d4 3e 5f 31 a1 3e 68 c1 0d 3e
       0.1893258 0.41561547 0.3148298 0.1384331
0001f0 a4 8f ed be f5 63 e7 3d b9 a2 09 bf 23 10 4e be
       -0.46398652 0.11298362 -0.5376392 -0.20123343

StatefulPartitionedCall/model/classifier/dense_1/MatMul/ReadVariableOp:0 f4 [4, 128]
000000 89 df 3a 3f 24 96 54 bf 93 ec 5e 3e 9b 4b 29 bf
       0.7299734 -0.83041596 0.21769933 -0.6613099
000010 d1 b4 84 3d 8f 28 ff be a0 a3 e4 be fb 5e 02 c0
       0.064798005 -0.4983563 -0.44656086 -2.0370471
000020 c6 71 af be 5e e1 66 3f 89 c9 77 bf 69 c0 d5 3e
       -0.3426649 0.90187633 -0.96791893 0.4174836
000030 c4 2e 59 bc b0 4b 0a 3f 9f 4c c3 bd 44 d1 58 bf
       -0.013255779 0.5402174 -0.09536099 -0.84694314
000040 27 60 09 3f 1b da 5c 3e d6 54 71 bf b7 2f b3 3c
       0.5366234 0.21567576 -0.94270074 0.021873338
000050 e1 20 c7 3d 59 78 cf be 42 2d 13 bf 85 2b 8e bf
       0.09723068 -0.40521505 -0.5749093 -1.1107031
000060 57 f8 a8 3f aa 48 c0 3e a0 45 81 be 1d 0a 43 bd
       1.3200787 0.37555438 -0.25248432 -0.047617067
000070 93 35 1b 3f c4 56 da 3e c0 bc a9 3e e9 75 70 be
       0.6062862 0.42644322 0.33151817 -0.23482479
000080 1f f9 e6 bd 05 0c 71 bf 3f 69 a7 bf 16 ae 28 bf
       -0.11277985 -0.94158965 -1.3078994 -0.65890634
000090 c9 01 3b bf 41 56 23 bd a9 70 4a bf 5d 91 39 bf
       -0.730496 -0.03987718 -0.79078156 -0.7248743
0000a0 2f e8 25 3e 19 ec 8e be 14 0f 53 be 3b 7e 68 bf
       0.16201852 -0.27914503 -0.2061122 -0.9081761
0000b0 ca 0a c6 3e 26 dc 01 bf e0 9c 45 be 23 9c 44 bf
       0.38680106 -0.50726545 -0.19298124 -0.76800746
0000c0 56 b0 89 bf 6f f4 d3 3d 8d 74 31 3f 9b d8 fa 3d
       -1.0756938 0.103493564 0.6931847 0.122483455
0000d0 6b 63 28 3e 80 c5 51 3f d5 03 25 bf 56 d6 a1 be
       0.16444175 0.81941986 -0.6445897 -0.31608838
0000e0 c6 d8 22 be 96 21 88 3f e6 bc d3 be 9d 78 5d 3e
       -0.15903005 1.063525 -0.41355056 0.21628042
0000f0 f7 69 d1 3e 1a 90 42 bf 6d ce 3f bf fb fe 05 bf
       0.40901157 -0.7600113 -0.74924356 -0.52342194
000100 65 4c 81 bf 4c 0d 01 bf 18 09 36 bd b7 d9 36 bf
       -1.0101439 -0.50410914 -0.044442266 -0.71425956
000110 f1 d6 74 be ff 44 0b 3b 14 ee 02 3f a9 68 9c 3f
       -0.23910119 0.0021250842 0.5114453 1.221944
000120 29 cd ab be fe 11 c6 bf c7 8d 22 3f 8d 35 cd be
       -0.33554962 -1.5474241 0.63497585 -0.40079919
000130 31 35 b3 bf 3f 2e 2b bf 82 8e 77 bf d2 5b 1c bf
       -1.4000608 -0.6686744 -0.96701825 -0.61077607
000140 e0 a1 e8 3e 4c 37 52 bf cd 65 dd be c4 a9 11 3f
       0.45436 -0.82115626 -0.4324173 0.56899667
000150 ae 33 cf be fc e5 73 3e 42 88 27 3f 6e 5b 72 3f
       -0.40469116 0.23818201 0.6544229 0.9467076
000160 b8 c4 8c 3e 9f 96 31 bf 43 2e b9 be 41 75 8f be
       0.27493834 -0.69370455 -0.36168107 -0.28019145
000170 eb 09 0c bd c5 be fc bd af 65 00 be e7 e6 a6 3f
       -0.034189146 -0.12341074 -0.12538789 1.3039216
000180 86 fa 8d bf f5 c2 0f bf 20 d2 39 3f ea 22 2b 3f
       -1.1092079 -0.56156856 0.7258625 0.6685015
000190 82 d8 27 bd 82 78 17 3f b2 f5 c1 bf 19 d5 3c bf
       -0.040977962 0.59168255 -1.5153105 -0.7376266
0001a0 56 12 fc 3e 3e 69 03 bd 04 b2 e4 3b 48 76 3c 3d
       0.4923274 -0.03208279 0.006979229 0.04601124
0001b0 c7 8a c1 be 9a 57 86 bc 64 20 fd be e4 32 8e 3d
       -0.3780119 -0.016399194 -0.49438775 0.069433
0001c0 10 a7 90 3e 4d bc 4c bf 93 9a 9f be 69 03 78 3f
       0.2825246 -0.79974824 -0.31172618 0.96880203
0001d0 b2 56 80 3f 09 38 3c bf 0c 7c d8 be 55 49 05 3e
       1.0026457 -0.73523 -0.4228214 0.13016255
0001e0 e2 d5 5d 3b 70 38 1f bf a7 c4 a8 3d 9c 2e fb bd
       0.0033849408 -0.6219549 0.082406335 -0.122647494
0001f0 db 3f 96 bf 4a dd ae be 12 94 1d bf 34 4a cc bf
       -1.1738237 -0.34153205 -0.6155406 -1.5960145
000200 26 62 bc 3d dd 7d aa bf 0b c3 6f 3c a7 49 d6 3e
       0.09198408 -1.331966 0.014633904 0.41853067
000210 ff 48 c4 3f 2a 73 ed 3e cf f6 4b bf c2 ab 1b bf
       1.5334777 0.46376926 -0.79673475 -0.60808957
000220 ca cd 59 bf ff 7f f0 be 03 3d 3b bf 32 71 58 3e
       -0.85079634 -0.46972653 -0.7313997 0.2113693
000230 a7 2d a9 bf 52 54 c9 3d 55 ca c7 be 85 1a 30 be
       -1.3217057 0.09830536 -0.39021555 -0.17197616
000240 cc 96 aa be 18 c8 82 bf 69 1a a9 bd f0 df a4 3f
       -0.33318174 -1.0217314 -0.082569905 1.288084
000250 85 89 a5 bf 08 e0 04 bf 08 e3 58 3e af d4 e2 3e
       -1.2932593 -0.51904345 0.21180356 0.4430289
000260 18 34 0a 3f 2a 8a 7a 3e 9c 41 36 bf bb 94 77 3e
       0.5398574 0.24466768 -0.7119386 0.2417783
000270 54 ae e1 be 8f 40 89 bf 30 33 a4 3e 48 5b 67 be
       -0.44078314 -1.0722827 0.32070303 -0.22593415
000280 ca 32 6e 3f fc f1 3b 3f 6a 84 83 bf 32 0a b1 3e
       0.9304625 0.73416114 -1.0274785 0.3457809
000290 0b 06 21 3f d2 b9 a8 bf 89 38 30 3f e3 91 c9 3f
       0.62899846 -1.3181708 0.68836266 1.5747646
0002a0 0a 3d b0 3f e4 74 11 bf b4 16 47 3c 22 55 d3 3f
       1.3768628 -0.56818986 0.012151409 1.6510355
0002b0 d6 ac 3b 3f 33 04 e8 3e 97 72 8a bd 70 3d 59 3e
       0.733106 0.45315704 -0.067601375 0.21214843
0002c0 d1 24 cf bf e4 68 12 3e e0 26 f1 3e 31 69 f3 bd
       -1.618311 0.14297825 0.47099972 -0.11885298
0002d0 64 a3 40 be 2c 2c 40 bf ad cb a8 bf 20 29 e9 be
       -0.18812329 -0.750674 -1.3187157 -0.45539188
0002e0 bc 88 d3 be 6a 2b 59 bf 56 2c 43 3f 35 b0 83 bd
       -0.41315258 -0.8483187 0.76239526 -0.06430093
0002f0 2d a6 9a 3f b8 93 f4 be a1 aa b9 3e 2b 82 16 3e
       1.2081963 -0.4776895 0.36262992 0.14698093
000300 ce 54 ba 3f 45 a1 73 bf d0 15 e3 3d b8 3a 3c 3f
       1.455713 -0.9516795 0.11088145 0.735271
000310 4e 58 5f bf 3b 88 66 bf 48 c4 3b bf 1a a7 fa 3e
       -0.8724412 -0.9005162 -0.73346376 0.48955613
000320 fd ba ad 3f fb 7f aa 3d ec 0c 09 be ea 41 93 3f
       1.3572689 0.083251916 -0.13383836 1.150449
000330 96 40 41 be e0 a6 91 3e 8f f0 c3 be 8d 4e 3b 3e
       -0.18872294 0.28447628 -0.3826947 0.18291683
000340 3e b9 50 3e e1 57 4e 3f 6c a6 f8 3e 92 f3 8d 3d
       0.20383164 0.8060284 0.4856447 0.06931223
000350 32 e1 a7 bf 25 b9 73 3d e4 d6 14 3f 87 22 14 be
       -1.3115599 0.05950274 0.581404 -0.14466296
000360 8e 19 a3 3e 1c 29 67 be 05 08 47 3f db 4b ad 3d
       0.31855434 -0.22574276 0.7774661 0.08461734
000370 6f eb ba 3f 24 75 a6 3f 04 d7 28 bf c3 94 f4 bd
       1.4603099 1.3004498 -0.6595309 -0.119424365
000380 de d4 3e bd ce 89 5b bf 65 c5 c8 3b 17 9c 81 bf
       -0.046589725 -0.8575715 0.006127047 -1.012576
000390 16 c5 9d be ad 9a 22 3e 06 12 e6 3b c9 08 ac bf
       -0.30814427 0.15879317 0.0070211915 -1.3440181
0003a0 44 96 24 3f 91 75 bc 3d ba 42 9c be ca d3 7c bf
       0.6429179 0.092021115 -0.30519658 -0.98760664
0003b0 b7 aa ca 3f 5e c4 dc 3f 0b 8b 8d bf e6 e0 cd be
       1.5833348 1.7247427 -1.1058058 -0.40210646
0003c0 e1 01 59 3e a1 7e 5a 3f d8 08 e6 be 28 19 5b 3e
       0.21192123 0.8534947 -0.44928622 0.21396315
0003d0 ba d2 7a 3e 79 c0 11 3f 06 74 e1 3e 74 ef 75 bf
       0.24494448 0.56934315 0.4403383 -0.960685
0003e0 bb 46 a5 bf 40 0a 9f be 9d bc 3f bf ed e3 87 bf
       -1.291221 -0.31062508 -0.74897176 -1.0616432
0003f0 27 10 6f bb ff 05 f7 be c9 89 8a 3d 36 2b ad 3f
       -0.0036478133 -0.48246762 0.06764562 1.3528812

StatefulPartitionedCall/model/classifier/dense_1/BiasAdd/ReadVariableOp:0 f4 [128]
000000 ac 1a 65 3e 14 ae 78 3e 86 47 02 be 90 02 70 3e
       0.22373456 0.24285156 -0.12722597 0.23438478
000010 e5 fe f3 be dd 43 3b bf d4 71 0d 3c c7 31 2a 3e
       -0.47655407 -0.73150426 0.008633096 0.16620551
000020 97 ba 80 be b6 e4 cf be 1f f2 29 be 31 d6 4e be
       -0.25142357 -0.4060418 -0.16596268 -0.20198895
000030 03 27 39 be 00 1a ee be 69 b7 28 bf f9 7d 10 bf
       -0.18081288 -0.4650421 -0.6590486 -0.5644222
000040 0e 5e 0c bf b9 73 b5 be 30 45 90 be b0 6b 14 bf
       -0.54831016 -0.35439852 -0.28177786 -0.5797682
000050 86 11 1f 3e fc a6 52 be 18 12 0b bf de e0 ec be
       0.15534028 -0.20571512 -0.54324484 -0.4626531
000060 14 03 5c 3d ad 59 b5 be 2c 7f 27 be 50 46 ce be
       0.053713873 -0.3541998 -0.16357106 -0.4028802
000070 4d c3 b3 3c a5 03 57 3e c6 e4 40 bf aa aa 55 be
       0.021943713 0.20997484 -0.7534908 -0.20865884
000080 3a f0 21 bf bf 46 65 bd c2 17 e3 bd 28 cb e0 be
       -0.6325718 -0.05597567 -0.11088516 -0.43904996
000090 0a 6a 6e be 6a 4f 10 bd c1 2f 05 bf 35 66 c7 3d
       -0.23282638 -0.035231985 -0.5202599 0.09736291
0000a0 86 17 14 bd 3d 1c 53 bf 63 cd fd 3d 2f 09 c8 be
       -0.036155246 -0.82464963 0.1239269 -0.39069507
0000b0 33 15 a1 be a3 1c 16 bf ef 6f 39 bf a7 30 0f bf
       -0.31461486 -0.58637446 -0.7243642 -0.5593361
0000c0 b2 87 8f be 16 26 41 bf 8b 9d a9 3e ca af a7 be
       -0.28033215 -0.7544874 0.33128008 -0.32751304
0000d0 7b c7 e8 bd ea d0 ca 3e bf 70 4f be 50 05 71 bd
       -0.11366173 0.39612514 -0.20257853 -0.058842957
0000e0 f7 18 d2 be b9 e3 cc 3e 25 19 84 be 6b ff fd bd
       -0.41034672 0.4001749 -0.25800434 -0.12402233
0000f0 ea 88 55 be ae 1c b0 3e 53 27 01 3e e6 90 cd be
       -0.2085301 0.3439688 0.12612657 -0.4014961
000100 75 21 f2 bd 6a d9 53 be 68 d0 4d bd d6 a7 cd 3e
       -0.11822788 -0.20688406 -0.05024758 0.4016711
000110 0b 64 b7 bc c2 ae ef be 11 4a 3f be dc 7d 9b bd
       -0.022386571 -0.46813017 -0.18680598 -0.07592365
000120 fc 16 ea be 9d 45 a2 be 26 04 e2 be 99 fe 60 be
       -0.4572066 -0.31693736 -0.4414379 -0.21972121
000130 c1 07 8f 3c cc 28 00 bf e3 45 f0 3e d5 52 f4 be
       0.017459752 -0.5006225 0.4692832 -0.47719446
000140 53 4e b5 3e 95 e4 09 bf 32 86 0e bf 48 6f 5f bf
       0.3541132 -0.53864413 -0.55673516 -0.87279177
000150 3b 4c b3 3b 5a 9a 08 bf 2d 6f 63 bd bf 86 7d 3e
       0.005471734 -0.5336052 -0.055525947 0.24758433
000160 10 dc fc be cb cf 9d be 2b c6 bc be d3 8d 09 be
       -0.49386644 -0.30822596 -0.3686994 -0.13433008
000170 e1 76 a5 3e 6d cb 65 3e 7b 47 85 3e a1 7b 98 3e
       0.3231726 0.22440882 0.26031098 0.2978182
000180 96 44 c8 be 49 00 b1 3e a1 9e 52 3d e0 02 9b 3e
       -0.39114827 0.3457053 0.05142081 0.3027563
000190 c8 2b 0f bf 05 81 34 bf fc 21 2a 3e ab 66 03 3f
       -0.5592618 -0.7050937 0.16614527 0.51328534
0001a0 9e 0b 0d bf a6 79 3b 3e ac c9 ca 3e 41 20 87 be
       -0.5509585 0.18308124 0.39606988 -0.26391795
0001b0 63 0d fa be 1b 03 56 be 54 f1 ed be 0e dd af be
       -0.48838338 -0.20899622 -0.4647318 -0.3434834
0001c0 91 75 45 be 95 69 d1 be 84 f5 b0 3e 3c 00 9b 3d
       -0.1928313 -0.40900865 0.34562314 0.07568404
0001d0 1e cd 2e bf e1 56 e9 bd 82 8d 59 bf 8f a6 60 bf
       -0.68281734 -0.11393524 -0.8498155 -0.8775415
0001e0 bf 00 d4 be 7e d0 de bd 36 28 59 3e 76 c1 94 3d
       -0.4140682 -0.108796105 0.21206746 0.07263462
0001f0 63 a1 ca be 2d 5e fc be 03 a5 8c be 50 53 f3 bd
       -0.39576253 -0.492906 -0.27469644 -0.11881125

StatefulPartitionedCall/model/classifier/dense/MatMul/ReadVariableOp:0 f4 [4, 4]
000000 45 08 fb be 35 1b 0e be 95 ad f4 be 74 27 95 bf
       -0.49029747 -0.13877566 -0.47788683 -1.1652665
000010 c8 36 0c bf af 81 ac 3e 45 d6 db 3d 6e a1 39 bf
       -0.5477109 0.3369269 0.10734228 -0.7251195
000020 e9 a5 cc 3e 7a 4f 50 bf cb 80 92 3e 6d 62 2f bf
       0.3997033 -0.8137127 0.28613886 -0.6850956
000030 a2 f1 48 3f 6f 03 cb bd 9a df 00 3f 51 7f 38 be
       0.784937 -0.09912764 0.5034119 -0.18017317

StatefulPartitionedCall/model/classifier/dense/BiasAdd/ReadVariableOp:0 f4 [4]
000000 46 74 f5 3e 0b eb 0e bf 92 09 86 be 73 f3 9e bd
       0.47940272 -0.558274 -0.26179177 -0.07761278

Func/StatefulPartitionedCall/input/_11:0 f4 [1, 4]
000000 ae a7 8a 43 71 bd 8a 42 ae a7 8a 43 71 bd 8a 42
       277.31 69.37 277.31 69.37

ConstantFolding/StatefulPartitionedCall/model/sequential/normalization/truediv_recip:0 f4 [1, 4]
000000 ef d5 31 3c d3 48 9f 3c ef d5 31 3c d3 48 9f 3c
       0.010854228 0.019443905 0.010854228 0.019443905
