test/database_onnx/13TeV/ATLAS/ATLAS-SUSY-2018-04-eff/SRlow/TStauStau.onnx (onnx, 73267 bytes, 9 tensors)

StatefulPartitionedCall/sequential/dense_3/MatMul/ReadVariableOp:0 f4 [128, 1]
-0.024928296 0.01220632 -0.001899618 -0.01741823 -0.11419182 0.06990453 -0.2188981 -0.0419152
-0.0287192 0.013803946 0.028192881 0.011017677 -0.0065592243 -0.100145616 -0.0934673 0.049295757
-0.18477382 0.071245305 -0.002235207 -0.082650945 -0.15480837 -0.00045365375 -0.16081013 0.15522292
-0.18521434 0.24587443 -0.13206913 -0.07203036 -0.09363485 -0.014272624 0.05852967 -0.17508627
-0.0004839913 -0.009409631 0.02052138 0.06954909 -0.2716798 -0.081997566 0.15869564 -0.094848305
-0.021123014 0.1122638 -0.03438267 -0.087831795 0.0010495834 0.053357366 0.0001180537 0.051281676
0.04401952 0.102050275 0.10462044 0.12205495 -0.15905699 -0.035368912 0.058618948 -0.22988196
0.0007280008 0.24171025 0.13136631 0.08837732 0.16068198 -0.28380466 -0.24801452 0.06359726
-0.14973944 -0.008339864 0.25319058 -0.00087315583 0.10934729 0.04543665 -0.103630565 -0.013763567
0.11872735 -0.0905217 -0.20975398 0.03822093 -0.11585964 -0.023781255 -0.076683074 0.1167019
0.1619183 -0.1204822 -0.09117482 -0.0027353354 0.09830874 0.04057335 -0.089230254 -0.17819956
0.06784664 -0.0842849 -0.15021546 0.13399753 0.0746766 0.120861374 -0.1860776 0.004273016
0.049095083 0.14509997 0.026558738 -0.101895794 0.108106606 0.08038644 -0.024513094 0.19946577
-0.2425527 -0.18793349 -0.07317357 0.0007677197 0.047019694 -0.04330133 0.11176221 -0.063918576
0.08582901 -0.044413373 0.13250631 -0.050607808 -0.029500771 0.027224723 -0.03661756 0.02567289
0.0656971 -0.04402393 -0.22539851 -0.062126696 0.19388336 0.05108624 -0.103104755 -0.0027473
00000000: 6d36 ccbc 04fd 473c 9afc f8ba adb0 8ebc
00000010: 67dd e9bd 1b2a 8f3d d326 60be 46af 2bbd
00000020: 8744 ebbc f229 623c c2f4 e63c 7d83 343c
00000030: c3ee d6bb 2519 cdbd c96b bfbd 59ea 493d
00000040: 5935 3dbe 0fe9 913d 8d7c 12bb e644 a9bd
00000050: 1686 1ebe 60d8 edb9 69ab 24be c2f2 1e3e
00000060: d4a8 3dbe 82c6 7b3e 213d 07be a784 93bd
00000070: a1c3 bfbd b9d7 69bc cfbc 6f3d d149 33be
00000080: 36c0 fdb9 da2a 1abc 741c a83c c16f 8e3d
00000090: 9d19 8bbe 57ee a7bd 1c81 223e d43f c2bd
000000a0: 2c0a adbc 90ea e53d d8d4 0cbd 28e1 b3bd
000000b0: 2d92 893a 418d 5a3d 9993 f738 bc0c 523d
000000c0: d04d 343d bcff d03d 3e43 d63d f2f7 f93d
000000d0: d6df 22be fede 10bd 6c1a 703d 2d66 6bbe
000000e0: 4fd7 3e3a e482 773e e484 063e 2bff b43d
000000f0: d189 243e d84e 91be 85f7 7dbe 483f 823d
00000100: 4c55 19be eda3 08bc 32a2 813e 7fe4 64ba
00000110: 79f1 df3d c81b 3a3d 433c d4bd 9680 61bc
00000120: 5327 f33d 7163 b9bd bfc9 56be 8d8d 1c3d
00000130: d247 edbd e8d0 c2bc 040c 9dbd 6801 ef3d
00000140: e9cd 253e 5fbf f6bd ddb9 babd 5043 33bb
00000150: 1856 c93d 3e30 263d 5abe b6bd f279 36be
00000160: 2ef3 8a3d 909d acbd 15d2 19be a636 093e
00000170: 0cf0 983d 2b86 f73d 208b 3ebe a804 8c3b
00000180: ed17 493d 1695 143e b691 d93c beae d0bd
00000190: ff66 dd3d a5a1 a43d afcf c8bc c140 4c3e
000001a0: bc5f 78be a371 40be 06dc 95bd cc40 493a
000001b0: b997 403d bc5c 31bd 96e3 e43d bee7 82bd
000001c0: 1fc7 af3d ccea 35bd bcaf 073e 224a 4fbd
000001d0: 9aab f1bc 6206 df3c 4bfc 15bd f44f d23c
000001e0: 338c 863d 7052 34bd dece 66be 9078 7ebd
000001f0: 5c89 463e ce3f 513d 9628 d3bd 0c0c 34bb

StatefulPartitionedCall/sequential/dense_2/MatMul/ReadVariableOp:0 f4 [128, 128]
0.21590345 -0.04431985 -0.046063513 -0.09632937 0.05481403 0.09732191 -0.02716637 -0.009594904
-0.254076 0.19423668 -0.08023278 -0.121005416 -0.042727083 -0.17143895 0.22778611 -0.12373624
-0.13987026 -0.040082917 -0.07761148 -0.28072748 -0.010472253 -0.121091425 0.2159495 -0.08895114
-0.021952668 0.07124117 0.00054068357 0.10088561 -0.07717461 -0.12651184 0.04489714 0.006305806
0.037929513 -0.1028336 -0.067663826 0.2422921 0.050767917 -0.1637438 0.044729017 -0.16328782
0.019718977 0.05695951 0.049243897 -0.12787622 0.019413857 0.16640545 0.1261919 0.09620894
-0.18124872 0.24962567 -0.07664605 0.24157494 -0.057784095 0.07561638 0.07438529 0.18150313
-0.12629575 -0.21099655 0.21703291 -0.22845851 0.07791899 0.03232183 -0.06244756 -0.04383892
0.1831047 0.24590676 -0.0066880593 -0.13954796 -0.047990784 0.04062914 0.010829566 0.03300752
0.13374503 -0.05663271 0.024591161 0.010434763 0.04088413 -0.20917372 -0.20057668 0.082606085
0.10955086 0.020775512 0.20680292 0.04521396 0.13537452 0.06729525 -0.14801076 0.14856513
-0.00378555 0.07015064 0.20924063 -0.09802917 -0.03132628 -0.05112019 -0.057822354 0.0660546
0.061446972 0.05717074 -0.012225211 0.19085315 -0.0138186235 0.23561883 0.046428863 -0.06566843
0.15360233 -0.024492318 0.13506499 -0.15723172 0.18435787 0.0023535276 0.076095544 -0.263303
-0.017245177 0.14578329 0.22646827 -0.12870753 0.1685236 0.22864312 -0.20728707 0.2649754
0.086613305 -0.093741104 0.00810955 -0.010027489 -0.05880477 0.07814443 -0.11972066 -0.11699606
0.08316879 -0.07163019 -0.042096965 0.2772582 0.21557651 0.12396807 0.09034163 0.0838549
0.008556417 0.10902777 0.050824128 -0.18514256 0.0065560755 -0.015911598 -0.07564779 -0.17427057
-0.1650635 0.036814075 0.019941302 -0.03585893 0.12968282 0.08669661 -0.16256744 -0.1882298
0.10968683 -0.08073291 -0.012861065 0.24590196 -0.06366904 -0.060494307 0.17592385 -0.067650124
0.07008583 -0.053267155 0.13336612 0.21828027 -0.050167564 -0.04137788 -0.02004997 0.007221876
0.123592876 0.13138327 -0.1464713 -0.14158091 -0.19606864 0.018847443 0.21693693 -0.025765928
-0.0023699529 -0.01622587 -0.114538625 0.11126766 -0.16957678 0.16390958 0.011185221 0.072099805
-0.113727055 0.05346876 0.017731762 -0.001289587 0.1809395 0.031790793 0.17846888 -0.15011364
0.16880637 0.12758833 -0.1211303 0.049634244 0.011097332 -0.12633109 -0.20667353 0.0038957777
0.05626117 0.22312708 0.06081961 0.24191922 0.01779888 0.0072398083 0.094325095 0.04642601
0.08214763 0.05219741 0.015665418 0.19203782 0.15432373 0.05158568 0.11828465 0.12065207
-0.22440428 -0.08099972 -0.121475205 0.12868312 -0.13303274 0.15796418 -0.115007274 -0.02275406
-0.119143 0.20831801 0.013789129 0.25810444 0.19696736 -0.070771925 0.19874203 0.16624385
0.19587618 0.105178155 0.0016734536 0.106401436 -0.050204992 -0.07939931 -0.037257813 -0.006636757
-0.045169447 -0.04329405 0.06505821 -0.1354138 0.17832929 -0.113858 0.03986369 -0.1512304
0.16975832 0.06127948 -0.047078867 -0.19754297 -0.12671469 0.26478446 -0.028659591 -0.14377503
00000000: cb15 5d3e bb88 35bd 18ad 3cbd 5548 c5bd
00000010: ad84 603d b650 c73d 028c debc f233 1dbc
00000020: 4016 82be fbe5 463e 1551 a4bd b0d1 f7bd
00000030: 9802 2fbd b18d 2fbe c340 693e 6d69 fdbd
00000040: 263a 0fbe fc2d 24bd c5f2 9ebd 83bb 8fbe
00000050: d093 2bbc c8fe f7bd de21 5d3e 042c b6bd
00000060: 15d6 b3bc e4e6 913d a9bc 0d3a 1d9d ce3d
00000070: b90d 9ebd 528c 01be 10e6 373d efa0 ce3b
00000080: fa5b 1b3d 6c9a d2bd 5593 8abd 6c1b 783e
00000090: 05f2 4f3d 74ac 27be c635 373d ec34 27be
000000a0: b189 a13c 604e 693d f8b3 493d fcf1 02be
000000b0: cf09 9f3c 3166 2a3e 7338 013e 3109 c53d
000000c0: 4499 39be df9d 7f3e 9bf8 9cbd 6c5f 773e
000000d0: 04af 6cbd c3dc 9a3d 5157 983d f5db 393e
000000e0: ac53 01be 7b0f 58be e03d 5e3e 07f1 69be
000000f0: fe93 9f3d e563 043d 03c9 7fbd 7090 33bd
00000100: cc7f 3b3e fbce 7b3e 8227 dbbb a9e5 0ebe
00000110: fc91 44bd be6a 263d 7e6e 313c e532 073d
00000120: 75f4 083e b3f7 67bd 6773 c93c 91f6 2a3c
00000130: 1e76 273d a331 56be f963 4dbe 612d a93d
00000140: 345c e03d 6831 aa3c 25c4 533e 4632 393d
00000150: 9e9f 0a3e 18d2 893d 2290 17be 7521 183e
00000160: fd16 78bb 24ab 8f3d 2d43 563e 84c3 c8bd
00000170: fc4f 00bd 6863 51bd 22d7 6cbd a247 873d
00000180: d2af 7b3d de2b 6a3d 404c 48bc 026f 433e
00000190: 8267 62bc 1046 713e 312c 3e3d 2b7d 86bd
000001a0: ee49 1d3e 1da4 c8bc 7a4e 0a3e 5a01 21be
000001b0: 4fc8 3c3e a43d 1a3b fbd7 9b3d a7cf 86be
000001c0: c245 8dbc 3748 153e 4ce7 673e e8cb 03be
000001d0: 7391 2c3e 6c21 6a3e 1043 54be dbaa 873e
000001e0: 5162 b13d 56fb bfbd ebdd 043c 564a 24bc
000001f0: 45dd 70bd 300a a03d 1b30 f5bd a19b efbd
00000200: 6654 aa3d d9b2 92bd de6d 2cbd c9f4 8d3e
00000210: 17c0 5c3e f9e2 fd3d 0805 b93d 1ebc ab3d
00000220: 3730 0c3c f449 df3d f62c 503d 0396 3dbe
00000230: 59d4 d63b 0a59 82bc 3bed 9abd fc73 32be
00000240: 6806 29be 5bca 163d f15b a33c d0e0 12bd
00000250: 93cb 043e fe8d b13d 1478 26be 50bf 40be
00000260: 7da3 e03d 4c57 a5bd 37b7 52bc b9cd 7b3e
00000270: ea64 82bd e1c8 77bd 6225 343e 268c 8abd
00000280: 2989 8f3d a92e 5abd 2191 083e dd84 5f3e
00000290: 817c 4dbd da7b 29bd d63f a4bc 7da5 ec3b
000002a0: 431e fd3d 5689 063e 93fc 15be 96fa 10be
000002b0: 38c6 48be f465 9a3c b724 5e3e 1113 d3bc
000002c0: 3651 1bbb 1eec 84bc 3a93 eabd 4de0 e33d
000002d0: 89a5 2dbe ead7 273e 3842 373c 10a9 933d
000002e0: bbe9 e8bd 0f02 5b3d 3342 913c 5c07 a9ba
000002f0: 3448 393e 1037 023d 8cc0 363e 64b7 19be
00000300: 94db 2c3e 84a6 023e 2a13 f8bd 474d 4b3d
00000310: 96d1 353c f05c 01be 3aa2 53be 4e50 7f3b
00000320: 1d72 663d 6d7b 643e fc1d 793d acb9 773e
00000330: f5ce 913c ea3b ed3b 842d c13d 3329 3e3d
00000340: 043d a83d f4cc 553d c354 803c 90a5 443e
00000350: 0a07 1e3e 824b 533d 393f f23d 6f18 f73d
00000360: 3cca 65be 2ee3 a5bd fec7 f8bd 82c5 033e
00000370: bc39 08be 5dc1 213e ef88 ebbd b966 babc
00000380: 3f01 f4bd 5151 553e cdeb 613c 4426 843e
00000390: d0b1 493e dff0 90bd 0883 4b3e d43b 2a3e
000003a0: c493 483e a567 d73d c957 db3a ffe8 d93d
000003b0: c0a3 4dbd 1b9c a2bd a69b 18bd 2779 d9bb
000003c0: 9903 39bd 1a55 31bd 3d3d 853d eaa9 0abe
000003d0: f49b 363e 622e e9bd 1c48 233d 24dc 1abe
000003e0: 20d5 2d3e 3100 7b3d c5d5 40bd b448 4abe
000003f0: 7fc1 01be d491 873e 85c7 eabc c339 13be

StatefulPartitionedCall/sequential/dense_2/BiasAdd/ReadVariableOp:0 f4 [128]
0.054485764 0.031822305 -0.049001355 0.051848806 0.087672584 -0.024574611 0.15593249 0.11377339
0.063580416 -0.06290392 -0.022236954 -0.049066663 0.08744883 0.04419038 0.05965405 -0.002023015
0.20660941 -0.030137187 0.06219916 0.059561208 0.1385949 -0.01205739 0.04967577 -0.02847963
0.26195392 -0.074079975 0.04841848 0.16296726 0.052245736 -0.016203215 -0.023247646 0.11439893
-0.060338695 0.034399364 -0.026557129 -0.048972704 0.20080648 0.13314395 -0.025811093 0.1942544
0.05575986 -0.08005931 0.058942545 0.28384104 -0.037161127 -0.004681437 0.06648214 -0.04829478
-0.048125774 -0.06960912 -0.044187054 -0.0339701 0.04946394 0.09415268 -0.02634519 0.046658635
-0.023528516 -0.0440914 -0.08866649 -0.029297853 -0.043577444 0.22307451 0.16194718 -0.044119954
0.048086684 0.10182032 -0.044143684 -0.025410553 -0.06740298 -0.031134378 0.053393964 0.17783779
-0.022320198 0.15749986 0.2278139 -0.012448877 0.07101341 -0.009401028 0.062969886 -0.0027107042
-0.025862124 0.16982205 0.10092098 -0.017430542 -0.04858748 -0.03682651 0.04306115 0.14762896
-0.018149545 0.05332968 0.2426006 -0.07968781 -0.025821814 -0.015172258 0.019845627 -0.04405644
-0.044378657 -0.040108368 -0.029871006 8.231284e-06 -0.09727768 -0.02458107 0.09969788 -0.072422415
0.20552658 0.20849775 0.082137525 0.08187423 -0.019421946 0.046824384 -0.031016236 0.042064853
-0.024273833 0.04649282 -0.09704328 0.09153549 0.12928869 -0.06527964 0.12868458 -0.029737493
-0.04285041 0.17572357 0.14937894 0.16886912 -0.043786813 -0.047349226 0.05367504 0.07992275
00000000: 772c 5f3d 1b58 023d a5b5 48bd 6a5f 543d
00000010: af8d b33d b250 c9bc c4ac 1f3e 0602 e93d
00000020: 7336 823d c5d3 80bd 462a b6bc 20fa 48bd
00000030: 5f18 b33d f900 353d ce57 743d 8f94 04bb
00000040: 6b91 533e 43e2 f6bc 8cc4 7e3d 74f6 733d
00000050: d2eb 0d3e 5c8c 45bc d278 4b3d 1d4e e9bc
00000060: d31e 863e 3eb7 97bd 7552 463d e4e0 263e
00000070: a0ff 553d 9bbc 84bc d971 bebc fc49 ea3d
00000080: b525 77bd 59e6 0c3d 568e d9bc 9a97 48bd
00000090: 37a0 4d3e e356 083e c971 d3bc a0ea 463e
000000a0: 7364 643d 23f6 a3bd bd6d 713d 9d53 913e
000000b0: 4436 18bd bd66 99bb ca27 883d bfd0 45bd
000000c0: 881f 45bd 3a8f 8ebd 7cfd 34bd 3b24 0bbd
000000d0: b39a 4a3d 1fd3 c03d ded1 d7bc 201d 3f3d
000000e0: e0be c0bc 2f99 34bd c796 b5bd 0d02 f0bc
000000f0: 437e 32bd a56d 643e 7bd5 253e 20b7 34bd
00000100: 8bf6 443d 2c87 d03d 02d0 34bd cb29 d0bc
00000110: 930a 8abd 860d ffbc a1b3 5a3d 1c1b 363e
00000120: d9d8 b6bc a547 213e 0c48 693e 60f6 4bbc
00000130: 7b6f 913d c506 1abc 5bf6 803d 12a6 31bb
00000140: cedc d3bc d5e5 2d3e a9af ce3d 7fca 8ebc
00000150: aa03 47bd 65d7 16bd e360 303d 0c2c 173e
00000160: 5bae 94bc 3970 5a3d 4b6c 783e 5d33 a3bd
00000170: 4588 d3bc 1095 78bc 4c93 a23c 8774 34bd
00000180: 65c6 35bd ac48 24bd 0ab4 f4bc 1819 0a37
00000190: 8539 c7bd 3d5e c9bc 672e cc3d 3452 94bd
000001a0: 8f75 523e 6f80 553e b837 a83d adad a73d
000001b0: c61a 9fbc edca 3f3d c315 febc 324c 2c3d
000001c0: ebd9 c6bc 416f 3e3d a1be c6bd f576 bb3d
000001d0: 4164 043e 55b1 85bd e4c5 033e 0b9c f3bc
000001e0: e983 2fbd e1f0 333e cbf6 183e 07ec 2c3e
000001f0: cd59 33bd 43f1 41bd 5cda 5b3d 8aae a33d

StatefulPartitionedCall/sequential/dense_1/MatMul/ReadVariableOp:0 f4 [4, 128]
-0.6244015 -0.8114326 -0.27681634 0.08541122 0.7722941 -0.7536418 0.51971763 0.34397033
-0.6762191 1.1236373 -0.23048279 1.4131566 1.4425452 -0.10261257 -0.86480117 -1.1026213
-0.22375944 0.21408692 -0.79418075 0.13567291 -0.28480625 -1.448053 -0.14804296 0.4167341
-0.4474693 0.68577766 0.44064194 1.0718468 -0.5661783 -1.5045735 1.4115019 0.8023554
0.31142423 0.1122692 0.87832576 -0.38612732 0.31592837 0.31284666 0.76172996 -0.5109984
0.059427302 1.1958171 1.4611665 0.37724835 -1.1220239 0.36402595 -0.03780423 -0.17053095
0.023123132 0.29339635 -0.06719616 -0.340237 -0.79722154 -0.3515606 0.048998956 0.16335535
-1.1686095 0.7888544 -0.23377283 -1.1015122 -0.2770358 0.29652947 0.89334846 1.1628411
-0.07467702 1.0588096 -0.49755093 0.6170091 0.18154785 0.017570712 -0.11043685 0.21809776
0.12735619 0.18476373 -0.4673253 -0.61507386 0.37468445 -0.31325918 1.1154602 -0.61637306
0.10585945 0.07278182 0.087343395 -0.7019261 1.1211323 0.5008507 -0.93804544 -0.59910315
0.15486424 -0.12439782 0.26198307 -0.06377672 0.05171252 0.31760392 0.21753712 -0.83826864
0.66976196 0.76766443 0.8268526 0.7413867 0.25295052 0.38269344 -0.175684 0.7560199
-0.57537043 1.0406468 0.15922534 0.7488288 -0.29143083 0.5862506 0.04295223 -0.08539655
0.19648707 1.2156904 1.041029 0.25093347 0.17244963 1.4338663 -0.6494761 1.4898505
-0.15184322 1.3037276 0.55730146 1.1811833 -0.9006368 -0.9248962 0.049495235 -0.4785875
-0.2446201 -0.95031744 0.17704041 -0.5816441 -0.5183792 -0.5797976 -0.42543378 0.27193704
-0.38543975 -0.37356752 -0.25784707 -0.31961983 -0.06267766 0.25139266 1.2863206 -0.25612676
-0.06417899 -0.88103163 -0.5541606 -0.03231931 -1.4158326 0.104923606 -0.48042428 -0.54168355
0.9553949 1.0583224 -0.72477573 0.28377613 -0.42093515 0.053179387 1.2194465 0.6647955
-1.5682127 -0.4593989 -0.10930655 0.20699584 -0.65238166 0.562283 -1.0946553 -0.7768688
0.37393004 -0.41475868 0.2867156 -0.06258174 -0.21161781 -0.83742 -0.98556125 -0.6038022
-0.25441548 -0.106850356 1.1811169 0.01848374 0.6952144 -1.233158 0.5000424 -0.27467647
0.7588842 0.14016499 -0.71256506 0.65219057 0.5390433 -0.5053725 -0.3426706 0.2366585
0.18863769 -0.9409375 0.2647898 -0.05347287 0.2556064 -0.7360136 0.9390214 0.94010496
0.66353035 -0.047294233 -1.1695838 -0.4214328 -0.5490136 0.13689168 0.8477533 -0.51662254
-0.38710946 0.2514865 0.23174188 0.9800334 0.38002035 -0.3369447 0.3331439 0.07368245
-0.48609105 0.27553666 0.45392558 0.7364747 -0.72387034 -0.12369695 -0.6115032 -0.09765024
0.19970115 -0.017173864 0.04699327 -0.3769845 0.16903774 0.32511124 -1.061086 -0.4990965
-0.51713294 -0.98355323 1.320814 0.2539938 -0.55722797 -0.4723676 -1.0863794 -0.10060587
-1.4066037 -0.51799536 1.5151223 0.22718118 0.44296655 0.003656956 0.08736319 0.67989445
0.1407446 -1.7353089 -0.18311311 0.85154784 0.68818665 0.27636996 0.70676935 -0.96973747
00000000: c7d8 1fbf 0cba 4fbf dfba 8dbe 14ec ae3d
00000010: 11b5 453f abee 40bf 370c 053f e11c b03e
00000020: b21c 2dbf 59d3 8f3f ae03 6cbe 51e2 b43f
00000030: 52a5 b83f 8a26 d2bd 9c63 5dbf b222 8dbf
00000040: 3221 65be 9a39 5b3e 6e4f 4bbf d7ed 0a3e
00000050: 20d2 91be cd59 b9bf 9398 17be 2c5e d53e
00000060: b21a e5be 208f 2f3f d29b e13e 4732 893f
00000070: 10f1 10bf dd95 c0bf 18ac b43f 2a67 4d3f
00000080: ff72 9f3e 65ed e53d f5d9 603f 7bb2 c5be
00000090: 5dc1 a13e 702d a03e bc00 433f cbd0 02bf
000000a0: 0b6a 733d 8910 993f 8107 bb3f b226 c13e
000000b0: 7b9e 8fbf 9c61 ba3e 9cd8 1abd aa9f 2ebe
000000c0: b96c bd3c 0c38 963e 249e 89bd 8b33 aebe
000000d0: b616 4cbf c0ff b3be 21b3 483d a046 273e
000000e0: ff94 95bf 5df2 493f 2562 6fbe 5afe 8cbf
000000f0: a3d7 8dbe b6d2 973e 7cb2 643f fad7 943f
00000100: 44f0 98bd 1387 873f ffbe febe 4ff4 1d3f
00000110: aee7 393e 74f0 8f3c b72c e2bd 0555 5f3e
00000120: a969 023e b432 3d3e 4345 efbe 7b75 1dbf
00000130: a4d6 bf3e 8263 a0be 66c7 8e3f a0ca 1dbf
00000140: d7cc d83d a30e 953d 18e1 b23d 6eb1 33bf
00000150: 4381 8f3f c037 003f bf23 70bf d35e 19bf
00000160: bb94 1e3e 49c4 febd a522 863e 5e9d 82bd
00000170: 82d0 533d fb9c a23e 0dc2 5e3e c698 56bf
00000180: 8575 2b3f a885 443f 9dac 533f 85cb 3d3f
00000190: bb82 813e 65f0 c33e 82e6 33be 858a 413f
000001a0: 7a4b 13bf ea33 853f f80b 233e 3fb3 3f3f
000001b0: 6c36 95be 8514 163f adee 2f3d 63e4 aebd
000001c0: e833 493e be9b 9b3f 7040 853f 5a7a 803e
000001d0: a396 303e ee88 b73f 1144 26bf 6cb3 be3f
000001e0: ca7c 1bbe 8ce0 a63f 4fab 0e3f 0431 973f
000001f0: 2290 66bf ffc5 6cbf 84bb 4a3d 6c09 f5be
00000200: b17d 7abe 0148 73bf 154a 353e a1e6 14bf
00000210: 80b4 04bf 9e6d 14bf 75d2 d9be 553b 8b3e
00000220: 5c58 c5be 3e44 bfbe 8804 84be 36a5 a3be
00000230: 255d 80bd 8ab6 803e 27a6 a43f 0c23 83be
00000240: 4670 83bd 4a8b 61bf 78dd 0dbf 4161 04bd
00000250: 013a b5bf 30e2 d63d 2cfa f5be c6ab 0abf
00000260: c394 743f 1c77 873f e78a 39bf 1b4b 913e
00000270: d084 d7be a1d2 593d d316 9c3f 0a30 2a3f
00000280: 32bb c8bf 5536 ebbe 1ddc dfbd b8f6 533e
00000290: 7c02 27bf c7f1 0f3f aa1d 8cbf e0e0 46bf
000002a0: c273 bf3e 405b d4be 63cc 923e db2a 80bd
000002b0: 57b2 58be 2861 56bf be4d 7cbf c892 1abf
000002c0: bf42 82be 5cd4 dabd d72e 973f 366b 973c
000002d0: 92f9 313f 1fd8 9dbf c702 003f 65a2 8cbe
000002e0: 3c46 423f 6987 0f3e aa6a 36bf f6f5 263f
000002f0: befe 093f 1860 01bf 8572 afbe 9b56 723e
00000300: 3d2a 413e 48e1 70bf 8792 873e 5e06 5bbd
00000310: d8de 823e 636b 3cbf b563 703f b8aa 703f
00000320: 20dd 293f 99b7 41bd ecb4 95bf 0ac6 d7be
00000330: 288c 0cbf 552d 0c3e 5c06 593f 6041 04bf
00000340: 3633 c6be d7c2 803e be4d 6d3e 78e3 7a3f
00000350: 0792 c23e 0484 acbe d691 aa3e d3e6 963d
00000360: ede0 f8be 2413 8d3e ef68 e83e 9b89 3c3f
00000370: 914f 39bf d454 fdbd 798b 1cbf d9fc c7bd
00000380: 757e 4c3e 34b0 8cbc 047c 403d 1d04 c1be
00000390: 3b18 2d3e fb74 a63e abd1 87bf 9489 ffbe
000003a0: d362 04bf 25ca 7bbf 6f10 a93f 7a0b 823e
000003b0: 7ea6 0ebf 2bda f1be 7b0e 8bbf 730a cebd
000003c0: 970b b4bf 589b 04bf 87ef c13f 2fa2 683e
000003d0: 83cc e23e 8aa9 6f3b 79eb b23d 900d 2e3f
000003e0: 5a1f 103e 9a1e debf 0182 3bbe 0aff 593f
000003f0: 002d 303f 5d80 8d3e d6ee 343f b740 78bf

StatefulPartitionedCall/sequential/dense_1/BiasAdd/ReadVariableOp:0 f4 [128]
-0.059533354 0.0905253 0.28618398 0.14808455 -0.27239844 0.09884357 0.28940424 -0.34721616
-0.24981754 0.16347657 0.09936781 0.04095498 -0.055381395 0.35991293 0.16214369 -0.15528207
-0.15445049 -0.048256665 -0.04240892 -0.13049266 0.06307745 -0.12743573 -0.017272836 0.14216883
0.15750314 -0.038603727 0.07323417 -0.097134925 0.17567216 0.04703072 0.05194916 -0.36676893
0.019219983 0.066499434 -0.46745768 0.41119865 0.14016165 0.25438416 -0.018694932 -0.040524285
-0.07910755 -0.0038932776 -0.06741449 -0.28056332 0.039197274 -0.102041505 -0.0047266255 0.24924117
-0.047817815 -0.2051491 -0.0013342125 0.36651194 0.2534004 0.08777214 0.14366177 0.26080877
0.43097052 0.112443216 -0.18463545 0.16464594 -0.3914039 0.028271433 -0.10201657 -0.34866992
-0.28060842 0.30256283 0.2925459 0.15235013 -0.0043798396 -0.12536064 0.1898712 -0.10916713
0.17110237 0.07655924 -0.11954634 -0.010108517 -0.10581792 -0.1905885 -0.06641372 -0.19236535
-0.0021382987 -0.10996998 -0.08364269 0.060759217 0.08978574 0.13508171 -0.12409209 -0.26507664
0.12854531 -0.08361333 0.09199832 0.03742925 -0.029866077 -0.19090629 -0.06403798 0.0702125
-0.14768976 -0.08799739 0.037905484 -0.23988248 0.06906182 0.06047436 -0.08016235 -0.26425207
0.049906734 -0.06930149 -0.378568 -0.22222927 0.11509237 0.1427961 0.1346368 -0.22820486
-0.080190144 0.1115111 -0.12957685 0.17981198 0.15262079 0.022462655 -0.13004862 -0.2268353
-0.12903625 -0.24745011 0.017382748 -0.19688137 -0.11725256 0.20105626 0.13758385 -0.05711017
00000000: 3fd9 73bd 5465 b93d b586 923e 7aa3 173e
00000010: cf77 8bbe 7f6e ca3d cb2c 943e 51c6 b1be
00000020: 2bd0 7fbe 6766 273e 5a81 cb3d 69c0 273d
00000030: 9ad7 62bd 8246 b83e ff08 263e 4302 1fbe
00000040: 4528 1ebe c8a8 45bd fab4 2dbd de9f 05be
00000050: c02e 813d 837e 02be c37f 8dbc b594 113e
00000060: 8148 213e f11e 1ebd ccfb 953d adee c6bd
00000070: 67e3 333e 49a3 403d a4c8 543d 23c9 bbbe
00000080: 3a73 9d3c db30 883d 9d56 efbe a188 d23e
00000090: 8986 0f3e a43e 823e 1d26 99bc cbfc 25bd
000000a0: 2403 a2bd 5c26 7fbb 9c10 8abd ffa5 8fbe
000000b0: 528d 203d 23fb d0bd cfe1 9abb 1439 7f3e
000000c0: 9ddc 43bd 9b12 52be bee0 aeba 74a7 bb3e
000000d0: b2bd 813e e1c1 b33d 121c 133e ba88 853e
000000e0: 2ba8 dc3e a148 e63d 1311 3dbe f298 283e
000000f0: 1866 c8be 7e99 e73c 10ee d0bd dd84 b2be
00000100: e8ab 8fbe 84e9 9a3e 94c8 953e ac01 1c3e
00000110: c284 8fbb 8a5e 00be 996d 423e 0493 dfbd
00000120: 7635 2f3e 17cb 9c3d b6d4 f4bd 319e 25bc
00000130: 11b7 d8bd a229 43be eb03 88bd 6cfb 44be
00000140: b322 0cbb f137 e1bd dc4c abbd a8de 783d
00000150: 96e1 b73d dc52 0a3e fe23 febd 20b8 87be
00000160: 62a1 033e 773d abbd 9d69 bc3d 6a4f 193d
00000170: b4a9 f4bc f07c 43be 5826 83bd 92cb 8f3d
00000180: fc3b 17be fa37 b4bd c842 1b3d c1a3 75be
00000190: 4970 8d3d f6b3 773d 282c a4bd 0c4c 87be
000001a0: 016b 4c3d f1ed 8dbd aad3 c1be 1290 63be
000001b0: 8cb5 eb3d 2439 123e 3bde 093e 89ae 69be
000001c0: bb3a a4bd ee5f e43d cbaf 04be a220 383e
000001d0: a048 1c3e 9a03 b83c 772b 05be 8347 68be
000001e0: 1422 04be 9063 7dbe 4466 8e3c 459b 49be
000001f0: 1c22 f0bd b1e1 4d3e c8e2 0c3e 5bec 69bd

StatefulPartitionedCall/sequential/dense/MatMul/ReadVariableOp:0 f4 [4, 4]
-1.0846906 -0.7579696 -0.7043006 1.0471194 0.04129594 -0.89424413 -0.49103722 0.11410769
-0.53011423 0.09217419 0.53766197 0.09730364 0.24791999 0.1577573 0.6723454 -0.5478415
00000000: 24d7 8abf 4c0a 42bf 0b4d 34bf 0208 863f
00000010: ee25 293d 2fed 64bf 3b69 fbbe 4bb1 e93d
00000020: 91b5 07bf d2c5 bc3d 37a4 093f 2147 c73d
00000030: bdde 7d3e 218b 213e d41e 2c3f 573f 0cbf

StatefulPartitionedCall/sequential/dense/BiasAdd/ReadVariableOp:0 f4 [4]
-0.28678966 0.151923 0.25806323 0.15300268
00000000: 18d6 92be b491 1b3e dd20 843e bcac 1c3e

Func/StatefulPartitionedCall/input/_1:0 f4 [1, 4]
277.31 69.37 277.31 69.37
00000000: aea7 8a43 71bd 8a42 aea7 8a43 71bd 8a42

ConstantFolding/StatefulPartitionedCall/sequential/normalization/truediv_recip:0 f4 [1, 4]
0.010854228 0.019443905 0.010854228 0.019443905
00000000: efd5 313c d348 9f3c efd5 313c d348 9f3c
